real_robot_grasping/panda_demos/naf_env/src/models/naf_Pendulum-v0_256_.pth (torch_old, 76586 bytes, 19 tensors)

bn0.weight f4 [3]
1.482987 1.6410385 2.0220573
00000000: 85d2 bd3f 8d0d d23f 6369 0140

bn0.bias f4 [3]
0.055619705 -0.10004105 -0.1416803
00000000: 7dd1 633d 52e2 ccbd a414 11be

bn0.running_mean f4 [3]
0.7672937 0.08813096 0.06599149
00000000: 5c6d 443f 017e b43d 8c26 873d

bn0.running_var f4 [3]
0.2867871 0.11733995 2.6449122
00000000: c2d5 923e ed4f f03d 3e46 2940

linear1.weight f4 [128, 3]
-0.8975915 -0.8763812 0.43431386 1.1350684 0.53271776 0.9173667 0.25168678 -1.374844
-0.95032376 0.0072532934 0.0007360314 0.0022223017 1.0990648 -0.26216456 -1.3746095 -0.27717233
0.45556837 0.82968 0.017755734 0.006310114 -0.0057570306 0.34678042 0.6633203 0.65873826
0.30561978 0.049385615 -1.5140524 1.1270314 0.14575638 -1.178499 0.8520453 -0.025785845
-0.20516296 -0.17109653 1.3257852 0.99638873 0.33264345 0.9853188 0.6573218 0.36663643
-0.42771557 0.38925403 0.98742867 0.637646 -0.78658336 -0.70651764 -0.39235756 -3.3336895
1.0499511 -0.34810555 -0.54103637 -1.014594 0.3726725 0.89507526 1.0867065 0.344494
1.0416071 -0.9783804 -0.12448981 -1.8661816 1.2069148 0.490619 1.0702746 -0.0055054645
-0.011098857 -0.0031059685 0.3803012 -1.354985 -1.0637552 -0.15546188 -0.9281321 -0.637727
1.1115272 0.5990895 0.7178756 -0.38542417 0.077900894 0.97335285 1.1229757 -0.72127885
-1.0523518 -0.5957419 0.5513409 0.55040514 0.050661813 -1.1417652 -0.7330636 -0.03694717
0.7685426 -0.5150975 1.2427193 0.51163805 -0.9855593 -0.5810534 1.2729249 1.1106788
-0.9535654 1.1685967 1.1075158 0.16604581 -1.3556988 -0.7178531 0.8108503 -0.9454411
0.2663679 -0.093394436 -0.55221725 -0.022895208 0.0775261 -0.54019314 0.6143922 -0.114453994
-0.09721536 -0.75383765 -0.18609908 0.48486727 -0.3346737 0.03565741 -0.5469598 0.21980786
0.11833138 0.76460266 -0.29062665 -0.0052717463 -0.007453172 0.007259125 1.046983 0.9690112
0.87550515 0.002129451 0.0039038109 0.009300946 0.16153815 0.57607836 -0.34035072 0.1646069
-0.28238586 1.3751258 -0.27414215 -0.5274355 0.8547693 1.4600372 0.33521554 -0.2820039
0.0043882877 0.53715116 -0.06140518 -0.81525147 -0.4546599 -0.32663727 -0.010417663 -0.014883571
0.0061854897 -0.8039915 0.60762924 -0.25567555 -0.008184349 -0.013983253 0.006814101 -1.0663034
-0.3179057 -1.0746292 -0.46996567 0.91525036 0.6470429 -0.80479187 0.9507543 1.9012289
0.2718824 0.23441325 -0.928162 -0.010266322 -0.008363239 0.0021287957 -0.56353515 0.59175307
0.553931 1.0999361 -0.9236767 -1.0621289 -0.01153991 -0.0045590275 0.008616767 -0.14553846
-0.20462298 0.78362554 0.017654752 0.0041588037 -0.008258879 0.94618887 -0.9268361 -0.9160783
0.122826725 0.108978696 0.02289693 0.5999781 -0.92558676 0.9828165 -0.9221525 0.21380341
0.901899 -0.7624273 -1.0965611 -0.9145458 0.0016800914 0.0048209117 0.008710623 -0.00018978385
-0.002351922 -0.005834993 0.9313233 0.5321745 0.2452429 0.07513617 -0.064533114 -0.029080005
1.0535362 -0.90006196 -1.326543 -0.7941406 -0.5426762 -0.09916202 -0.6634922 -0.81769496
-1.785134 -0.009689011 -0.10788776 -0.8783162 0.68781006 0.9115958 0.73618364 0.00013866863
0.0028791523 0.0013956571 -0.95304984 0.0783592 0.92338926 -1.0298594 0.44939503 -0.71947986
0.8403826 0.7054923 0.8698424 -1.0678796 -0.7102884 -1.0102316 -0.006122978 -0.009987629
-0.0009785554 -1.0994595 -0.12279501 -1.0486947 -0.37828898 0.2868472 -0.14328767 -0.39803344
00000000: 8ec8 65bf 855a 60bf 635e de3e ec49 913f
00000010: 3160 083f 8bd8 6a3f 17dd 803e e3fa afbf
00000020: 6b48 73bf 09ad ed3b 3bf2 403a 09a4 113b
00000030: 28ae 8c3f 6f3a 86be 34f3 afbf 88e9 8dbe
00000040: 4240 e93e e965 543f 7974 913c 13c5 ce3b
00000050: 79a5 bcbb 348d b13e 5ccf 293f 12a3 283f
00000060: 327a 9c3e 9248 4a3d 78cc c1bf 9142 903f
00000070: 2941 153e 0ed9 96bf a41f 5a3f d63c d3bc
00000080: 3d16 52be ee33 2fbe 54b3 a93f 5513 7f3f
00000090: 3e50 aa3e da3d 7c3f 3e46 283f c5b7 bb3e
000000a0: 89fd dabe 4e4c c73e 20c8 7c3f c53c 233f
000000b0: 875d 49bf 57de 34bf 17e3 c8be 2b5b 55c0
000000c0: cc64 863f e43a b2be 5c81 0abf 37de 81bf
000000d0: eece be3e a723 653f 3319 8b3f 8461 b03e
000000e0: 6253 853f 2377 7abf 83f4 febd 0adf eebf
000000f0: 2f7c 9a3f 6a32 fb3e c2fe 883f 2f67 b4bb
00000100: fbd7 35bc 818d 4bbb d7b6 c23e 2670 adbf
00000110: 2129 88bf 6631 1fbe 119a 6dbf 1442 23bf
00000120: 8646 8e3f ee5d 193f b2c6 373f 5156 c5be
00000130: 818a 9f3d a72d 793f abbd 8f3f bba5 38bf
00000140: 77b3 86bf 8b82 18bf ad24 0d3f 5ae7 0c3f
00000150: c382 4f3d 5d25 92bf 0eaa 3bbf ea55 17bd
00000160: 35bf 443f 6edd 03bf 6d11 9f3f b6fa 023f
00000170: 9d4d 7cbf eabf 14bf 34ef a23f b92a 8e3f
00000180: dd1c 74bf 9494 953f 14c3 8d3f ea07 2a3e
00000190: 8a87 adbf 39c5 37bf e393 4f3f 6e08 72bf
000001a0: 6061 883e 9545 bfbd 1c5e 0dbf bb8e bbbc
000001b0: 01c6 9e3d 194a 0abf cf48 1d3f db66 eabd
000001c0: d918 c7bd 81fb 40bf c290 3ebe 8640 f83e
000001d0: 5a5a abbe 810d 123d 8f05 0cbf 5015 613e
000001e0: b957 f23d 00bd 433f 04cd 94be 9dbe acbb
000001f0: bd39 f4bb f4dd ed3b 8a03 863f 1e11 783f
00000200: 1b21 603f 428e 0b3b 14d7 7f3b ff62 183c
00000210: 426a 253e df79 133f 7342 aebe b68e 283e
00000220: e194 90be 1f04 b03f 5c5c 8cbe 0306 07bf
00000230: 29d2 5a3f 80e2 ba3f 5fa1 ab3e d162 90be
00000240: a0cb 8f3b bd82 093f ff83 7bbd 52b4 50bf
00000250: 2fc9 e8be 003d a7be d8ae 2abc 39da 73bc
00000260: a6af ca3b 63d2 4dbf 978d 1b3f e8e7 82be
00000270: a617 06bc 041a 65bc d248 df3b a17c 88bf
00000280: 89c4 a2be 738d 89bf 579f f0be d94d 6a3f
00000290: 9aa4 253f d706 4ebf a264 733f 785b f33f
000002a0: 2c34 8b3e 070a 703e 069c 6dbf 1334 28bc
000002b0: f705 09bc 4483 0b3b d743 10bf 217d 173f
000002c0: 6cce 0d3f b5ca 8c3f 1476 6cbf d7f3 87bf
000002d0: e411 3dbc e563 95bb 572d 0d3c 0908 15be
000002e0: b088 51be af9b 483f b3a0 903c 9346 883b
000002f0: 4050 07bc 6f39 723f 2145 6dbf 1c84 6abf
00000300: 948c fb3d 3930 df3d 5892 bb3c 2a98 193f
00000310: 41f3 6cbf dd99 7b3f 3012 6cbf 48ef 5a3e
00000320: dae2 663f 6f2e 43bf 1d5c 8cbf ac1f 6abf
00000330: 8336 dc3a bdf8 9d3b 00b7 0e3c b700 47b9
00000340: b422 1abb 7833 bfbb 346b 6e3f 973c 083f
00000350: f420 7b3e fee0 993d f029 84bd 3139 eebc
00000360: 46da 863f 766a 66bf 29cc a9bf cc4c 4bbf
00000370: d4ec 0abf 7515 cbbd a0da 29bf 7554 51bf
00000380: 457f e4bf a8be 1ebc 42f4 dcbd 55d9 60bf
00000390: 5214 303f 585e 693f 8876 3c3f 9467 1139
000003a0: 29b0 3c3b 7bee b63a 13fb 73bf ca7a a03d
000003b0: 3d63 6c3f 6fd2 83bf 1b17 e63e d52f 38bf
000003c0: 5023 573f 259b 343f fead 5e3f 47b0 88bf
000003d0: 76d5 35bf 454f 81bf 43a3 c8bb 27a3 23bc
000003e0: df42 80ba 17bb 8cbf f37b fbbd a13b 86bf
000003f0: 18af c1be a3dd 923e 01ba 12be 0acb cbbe

linear1.bias f4 [128]
0.13764335 0.50708616 1.103447 -0.006667941 -0.10061481 -1.0009903 -0.00780919 1.7094592
-0.3668062 0.18310677 2.4359314 -1.1586277 1.546586 -0.50426865 -0.19597138 0.29948372
-1.8231033 0.9444277 -0.76477015 1.2929609 0.051177334 0.0010648348 1.0988773 -1.6286653
0.61171 -0.15293743 -0.19226596 1.8658118 -1.9248585 -0.7585454 0.26876816 -0.9384401
-0.7913744 1.056264 0.44186708 1.0025101 1.0877557 0.824229 0.8762822 -1.1009908
-0.91815645 0.019666782 -1.601412 0.0065709944 1.2007102 0.45569378 -1.2367121 1.034949
-1.3249332 -1.5403333 0.0019672 0.38248333 0.003826945 1.2397717 1.6509492 -0.35702983
-0.0011360679 0.0036910982 1.93274 0.25893155 0.021895783 -0.41709304 -0.017588058 0.3329227
0.43802935 -0.37600282 1.7275486 1.504152 -0.0021893189 -0.006808128 1.6073996 0.25161457
0.6456825 -0.27192518 1.4375981 1.0705061 1.3354796 -0.004131872 1.8194767 -0.5454078
1.0879978 -1.0337414 0.00070857146 1.4836416 -1.8638914 1.595716 -1.3994949 -0.34328467
-1.0900947 0.9252906 0.4500924 -0.009249609 1.7340506 0.062482882 -0.5353501 -0.8686079
0.30784222 1.1840539 -0.242854 0.12299912 0.5719288 0.0137999505 1.2004095 -1.6688019
0.46812558 1.0544593 1.5666592 0.5394101 0.010970821 -1.2982773 -0.32833898 -0.9261449
0.0076702293 -0.27043387 1.7161709 -0.99237514 1.1768329 -0.3914517 -0.7049009 -1.5213162
0.8637512 2.073659 0.6322178 0.0020629999 -1.3948144 -1.888836 -0.9087863 -0.004831153
00000000: 61f2 0c3e 66d0 013f c03d 8d3f be7e dabb
00000010: 230f cebd 7320 80bf 3ce4 ffbb 8fcf da3f
00000020: 06ce bbbe 5780 3b3e 4de6 1b40 ea4d 94bf
00000030: 88f6 c53f c017 01bf b9ac 48be ee55 993e
00000040: 735b e9bf 04c6 713f fac7 43bf be7f a53f
00000050: 539f 513d ed91 8b3a 03a8 8c3f 1b78 d0bf
00000060: 0799 1c3f a19b 1cbe 5ee1 44be ecd2 ee3f
00000070: c361 f6bf 0830 42bf fb9b 893e 9c3d 70bf
00000080: 8397 4abf a933 873f 673c e23e 4052 803f
00000090: 943b 8b3f ac00 533f 0854 603f 44ed 8cbf
000000a0: 4d0c 6bbf 3b1c a13c 12fb ccbf 7f51 d73b
000000b0: dfb0 993f b250 e93e 954c 9ebf 3579 843f
000000c0: 6997 a9bf a429 c5bf 24ec 003b dbd4 c33e
000000d0: 7ccd 7a3b d7b0 9e3f 4e52 d33f 9dcc b6be
000000e0: 1de8 94ba 5ae6 713b 0664 f73f ad92 843e
000000f0: c95e b33c 388d d5be d514 90bc d874 aa3e
00000100: 6245 e03e 7183 c0be 5020 dd3f 0e88 c03f
00000110: ad7a 0fbb b816 dfbb 45bf cd3f a0d3 803e
00000120: 734b 253f c739 8bbe 3703 b83f 5806 893f
00000130: fff0 aa3f a864 87bb 9de4 e83f d89f 0bbf
00000140: 8343 8b3f a351 84bf 6dbf 393a f8e7 bd3f
00000150: fe93 eebf 6c40 cc3f a622 b3bf 02c3 afbe
00000160: 3988 8bbf d8df 6c3f 8372 e63e ac8b 17bc
00000170: 5ff5 dd3f 0dee 7f3d b40c 09bf 165d 5ebf
00000180: 7f9d 9d3e 148f 973f b8ae 78be f6e6 fb3d
00000190: ed69 123f 3019 623c 05a7 993f 4d9b d5bf
000001a0: 28ae ef3e 86f8 863f 4a88 c83f c816 0a3f
000001b0: f5be 333c f32d a6bf 0c1c a8be d517 6dbf
000001c0: 8c56 fb3b 4f76 8abe 7dab db3f 4c0c 7ebf
000001d0: 76a2 963f 5b6c c8be 6374 34bf 7dba c2bf
000001e0: cc1e 5d3f d4b6 0440 07d9 213f 6533 073b
000001f0: 4789 b2bf 61c5 f1bf 38a6 68bf a64e 9ebb

bn1.weight f4 [128]
1.0 1.0 1.0 1.0 1.0 1.0 1.0 1.0
1.0 1.0 1.0 1.0 1.0 1.0 1.0 1.0
1.0 1.0 1.0 1.0 1.0 1.0 1.0 1.0
1.0 1.0 1.0 1.0 1.0 1.0 1.0 1.0
1.0 1.0 1.0 1.0 1.0 1.0 1.0 1.0
1.0 1.0 1.0 1.0 1.0 1.0 1.0 1.0
1.0 1.0 1.0 1.0 1.0 1.0 1.0 1.0
1.0 1.0 1.0 1.0 1.0 1.0 1.0 1.0
1.0 1.0 1.0 1.0 1.0 1.0 1.0 1.0
1.0 1.0 1.0 1.0 1.0 1.0 1.0 1.0
1.0 1.0 1.0 1.0 1.0 1.0 1.0 1.0
1.0 1.0 1.0 1.0 1.0 1.0 1.0 1.0
1.0 1.0 1.0 1.0 1.0 1.0 1.0 1.0
1.0 1.0 1.0 1.0 1.0 1.0 1.0 1.0
1.0 1.0 1.0 1.0 1.0 1.0 1.0 1.0
1.0 1.0 1.0 1.0 1.0 1.0 1.0 1.0
00000000: 0000 803f 0000 803f 0000 803f 0000 803f
00000010: 0000 803f 0000 803f 0000 803f 0000 803f
00000020: 0000 803f 0000 803f 0000 803f 0000 803f
00000030: 0000 803f 0000 803f 0000 803f 0000 803f
00000040: 0000 803f 0000 803f 0000 803f 0000 803f
00000050: 0000 803f 0000 803f 0000 803f 0000 803f
00000060: 0000 803f 0000 803f 0000 803f 0000 803f
00000070: 0000 803f 0000 803f 0000 803f 0000 803f
00000080: 0000 803f 0000 803f 0000 803f 0000 803f
00000090: 0000 803f 0000 803f 0000 803f 0000 803f
000000a0: 0000 803f 0000 803f 0000 803f 0000 803f
000000b0: 0000 803f 0000 803f 0000 803f 0000 803f
000000c0: 0000 803f 0000 803f 0000 803f 0000 803f
000000d0: 0000 803f 0000 803f 0000 803f 0000 803f
000000e0: 0000 803f 0000 803f 0000 803f 0000 803f
000000f0: 0000 803f 0000 803f 0000 803f 0000 803f
00000100: 0000 803f 0000 803f 0000 803f 0000 803f
00000110: 0000 803f 0000 803f 0000 803f 0000 803f
00000120: 0000 803f 0000 803f 0000 803f 0000 803f
00000130: 0000 803f 0000 803f 0000 803f 0000 803f
00000140: 0000 803f 0000 803f 0000 803f 0000 803f
00000150: 0000 803f 0000 803f 0000 803f 0000 803f
00000160: 0000 803f 0000 803f 0000 803f 0000 803f
00000170: 0000 803f 0000 803f 0000 803f 0000 803f
00000180: 0000 803f 0000 803f 0000 803f 0000 803f
00000190: 0000 803f 0000 803f 0000 803f 0000 803f
000001a0: 0000 803f 0000 803f 0000 803f 0000 803f
000001b0: 0000 803f 0000 803f 0000 803f 0000 803f
000001c0: 0000 803f 0000 803f 0000 803f 0000 803f
000001d0: 0000 803f 0000 803f 0000 803f 0000 803f
000001e0: 0000 803f 0000 803f 0000 803f 0000 803f
000001f0: 0000 803f 0000 803f 0000 803f 0000 803f

bn1.bias f4 [128]
0.0 0.0 0.0 0.0 0.0 0.0 0.0 0.0
0.0 0.0 0.0 0.0 0.0 0.0 0.0 0.0
0.0 0.0 0.0 0.0 0.0 0.0 0.0 0.0
0.0 0.0 0.0 0.0 0.0 0.0 0.0 0.0
0.0 0.0 0.0 0.0 0.0 0.0 0.0 0.0
0.0 0.0 0.0 0.0 0.0 0.0 0.0 0.0
0.0 0.0 0.0 0.0 0.0 0.0 0.0 0.0
0.0 0.0 0.0 0.0 0.0 0.0 0.0 0.0
0.0 0.0 0.0 0.0 0.0 0.0 0.0 0.0
0.0 0.0 0.0 0.0 0.0 0.0 0.0 0.0
0.0 0.0 0.0 0.0 0.0 0.0 0.0 0.0
0.0 0.0 0.0 0.0 0.0 0.0 0.0 0.0
0.0 0.0 0.0 0.0 0.0 0.0 0.0 0.0
0.0 0.0 0.0 0.0 0.0 0.0 0.0 0.0
0.0 0.0 0.0 0.0 0.0 0.0 0.0 0.0
0.0 0.0 0.0 0.0 0.0 0.0 0.0 0.0
00000000: 0000 0000 0000 0000 0000 0000 0000 0000
00000010: 0000 0000 0000 0000 0000 0000 0000 0000
00000020: 0000 0000 0000 0000 0000 0000 0000 0000
00000030: 0000 0000 0000 0000 0000 0000 0000 0000
00000040: 0000 0000 0000 0000 0000 0000 0000 0000
00000050: 0000 0000 0000 0000 0000 0000 0000 0000
00000060: 0000 0000 0000 0000 0000 0000 0000 0000
00000070: 0000 0000 0000 0000 0000 0000 0000 0000
00000080: 0000 0000 0000 0000 0000 0000 0000 0000
00000090: 0000 0000 0000 0000 0000 0000 0000 0000
000000a0: 0000 0000 0000 0000 0000 0000 0000 0000
000000b0: 0000 0000 0000 0000 0000 0000 0000 0000
000000c0: 0000 0000 0000 0000 0000 0000 0000 0000
000000d0: 0000 0000 0000 0000 0000 0000 0000 0000
000000e0: 0000 0000 0000 0000 0000 0000 0000 0000
000000f0: 0000 0000 0000 0000 0000 0000 0000 0000
00000100: 0000 0000 0000 0000 0000 0000 0000 0000
00000110: 0000 0000 0000 0000 0000 0000 0000 0000
00000120: 0000 0000 0000 0000 0000 0000 0000 0000
00000130: 0000 0000 0000 0000 0000 0000 0000 0000
00000140: 0000 0000 0000 0000 0000 0000 0000 0000
00000150: 0000 0000 0000 0000 0000 0000 0000 0000
00000160: 0000 0000 0000 0000 0000 0000 0000 0000
00000170: 0000 0000 0000 0000 0000 0000 0000 0000
00000180: 0000 0000 0000 0000 0000 0000 0000 0000
00000190: 0000 0000 0000 0000 0000 0000 0000 0000
000001a0: 0000 0000 0000 0000 0000 0000 0000 0000
000001b0: 0000 0000 0000 0000 0000 0000 0000 0000
000001c0: 0000 0000 0000 0000 0000 0000 0000 0000
000001d0: 0000 0000 0000 0000 0000 0000 0000 0000
000001e0: 0000 0000 0000 0000 0000 0000 0000 0000
000001f0: 0000 0000 0000 0000 0000 0000 0000 0000

bn1.running_mean f4 [128]
0.0 0.0 0.0 0.0 0.0 0.0 0.0 0.0
0.0 0.0 0.0 0.0 0.0 0.0 0.0 0.0
0.0 0.0 0.0 0.0 0.0 0.0 0.0 0.0
0.0 0.0 0.0 0.0 0.0 0.0 0.0 0.0
0.0 0.0 0.0 0.0 0.0 0.0 0.0 0.0
0.0 0.0 0.0 0.0 0.0 0.0 0.0 0.0
0.0 0.0 0.0 0.0 0.0 0.0 0.0 0.0
0.0 0.0 0.0 0.0 0.0 0.0 0.0 0.0
0.0 0.0 0.0 0.0 0.0 0.0 0.0 0.0
0.0 0.0 0.0 0.0 0.0 0.0 0.0 0.0
0.0 0.0 0.0 0.0 0.0 0.0 0.0 0.0
0.0 0.0 0.0 0.0 0.0 0.0 0.0 0.0
0.0 0.0 0.0 0.0 0.0 0.0 0.0 0.0
0.0 0.0 0.0 0.0 0.0 0.0 0.0 0.0
0.0 0.0 0.0 0.0 0.0 0.0 0.0 0.0
0.0 0.0 0.0 0.0 0.0 0.0 0.0 0.0
00000000: 0000 0000 0000 0000 0000 0000 0000 0000
00000010: 0000 0000 0000 0000 0000 0000 0000 0000
00000020: 0000 0000 0000 0000 0000 0000 0000 0000
00000030: 0000 0000 0000 0000 0000 0000 0000 0000
00000040: 0000 0000 0000 0000 0000 0000 0000 0000
00000050: 0000 0000 0000 0000 0000 0000 0000 0000
00000060: 0000 0000 0000 0000 0000 0000 0000 0000
00000070: 0000 0000 0000 0000 0000 0000 0000 0000
00000080: 0000 0000 0000 0000 0000 0000 0000 0000
00000090: 0000 0000 0000 0000 0000 0000 0000 0000
000000a0: 0000 0000 0000 0000 0000 0000 0000 0000
000000b0: 0000 0000 0000 0000 0000 0000 0000 0000
000000c0: 0000 0000 0000 0000 0000 0000 0000 0000
000000d0: 0000 0000 0000 0000 0000 0000 0000 0000
000000e0: 0000 0000 0000 0000 0000 0000 0000 0000
000000f0: 0000 0000 0000 0000 0000 0000 0000 0000
00000100: 0000 0000 0000 0000 0000 0000 0000 0000
00000110: 0000 0000 0000 0000 0000 0000 0000 0000
00000120: 0000 0000 0000 0000 0000 0000 0000 0000
00000130: 0000 0000 0000 0000 0000 0000 0000 0000
00000140: 0000 0000 0000 0000 0000 0000 0000 0000
00000150: 0000 0000 0000 0000 0000 0000 0000 0000
00000160: 0000 0000 0000 0000 0000 0000 0000 0000
00000170: 0000 0000 0000 0000 0000 0000 0000 0000
00000180: 0000 0000 0000 0000 0000 0000 0000 0000
00000190: 0000 0000 0000 0000 0000 0000 0000 0000
000001a0: 0000 0000 0000 0000 0000 0000 0000 0000
000001b0: 0000 0000 0000 0000 0000 0000 0000 0000
000001c0: 0000 0000 0000 0000 0000 0000 0000 0000
000001d0: 0000 0000 0000 0000 0000 0000 0000 0000
000001e0: 0000 0000 0000 0000 0000 0000 0000 0000
000001f0: 0000 0000 0000 0000 0000 0000 0000 0000

bn1.running_var f4 [128]
1.0 1.0 1.0 1.0 1.0 1.0 1.0 1.0
1.0 1.0 1.0 1.0 1.0 1.0 1.0 1.0
1.0 1.0 1.0 1.0 1.0 1.0 1.0 1.0
1.0 1.0 1.0 1.0 1.0 1.0 1.0 1.0
1.0 1.0 1.0 1.0 1.0 1.0 1.0 1.0
1.0 1.0 1.0 1.0 1.0 1.0 1.0 1.0
1.0 1.0 1.0 1.0 1.0 1.0 1.0 1.0
1.0 1.0 1.0 1.0 1.0 1.0 1.0 1.0
1.0 1.0 1.0 1.0 1.0 1.0 1.0 1.0
1.0 1.0 1.0 1.0 1.0 1.0 1.0 1.0
1.0 1.0 1.0 1.0 1.0 1.0 1.0 1.0
1.0 1.0 1.0 1.0 1.0 1.0 1.0 1.0
1.0 1.0 1.0 1.0 1.0 1.0 1.0 1.0
1.0 1.0 1.0 1.0 1.0 1.0 1.0 1.0
1.0 1.0 1.0 1.0 1.0 1.0 1.0 1.0
1.0 1.0 1.0 1.0 1.0 1.0 1.0 1.0
00000000: 0000 803f 0000 803f 0000 803f 0000 803f
00000010: 0000 803f 0000 803f 0000 803f 0000 803f
00000020: 0000 803f 0000 803f 0000 803f 0000 803f
00000030: 0000 803f 0000 803f 0000 803f 0000 803f
00000040: 0000 803f 0000 803f 0000 803f 0000 803f
00000050: 0000 803f 0000 803f 0000 803f 0000 803f
00000060: 0000 803f 0000 803f 0000 803f 0000 803f
00000070: 0000 803f 0000 803f 0000 803f 0000 803f
00000080: 0000 803f 0000 803f 0000 803f 0000 803f
00000090: 0000 803f 0000 803f 0000 803f 0000 803f
000000a0: 0000 803f 0000 803f 0000 803f 0000 803f
000000b0: 0000 803f 0000 803f 0000 803f 0000 803f
000000c0: 0000 803f 0000 803f 0000 803f 0000 803f
000000d0: 0000 803f 0000 803f 0000 803f 0000 803f
000000e0: 0000 803f 0000 803f 0000 803f 0000 803f
000000f0: 0000 803f 0000 803f 0000 803f 0000 803f
00000100: 0000 803f 0000 803f 0000 803f 0000 803f
00000110: 0000 803f 0000 803f 0000 803f 0000 803f
00000120: 0000 803f 0000 803f 0000 803f 0000 803f
00000130: 0000 803f 0000 803f 0000 803f 0000 803f
00000140: 0000 803f 0000 803f 0000 803f 0000 803f
00000150: 0000 803f 0000 803f 0000 803f 0000 803f
00000160: 0000 803f 0000 803f 0000 803f 0000 803f
00000170: 0000 803f 0000 803f 0000 803f 0000 803f
00000180: 0000 803f 0000 803f 0000 803f 0000 803f
00000190: 0000 803f 0000 803f 0000 803f 0000 803f
000001a0: 0000 803f 0000 803f 0000 803f 0000 803f
000001b0: 0000 803f 0000 803f 0000 803f 0000 803f
000001c0: 0000 803f 0000 803f 0000 803f 0000 803f
000001d0: 0000 803f 0000 803f 0000 803f 0000 803f
000001e0: 0000 803f 0000 803f 0000 803f 0000 803f
000001f0: 0000 803f 0000 803f 0000 803f 0000 803f

linear2.weight f4 [128, 128]
-0.68630034 -0.23342097 0.08308813 0.046407677 -0.08903667 -0.030681346 0.035189625 -0.84671974
-0.92759514 -0.27880794 0.13705201 -0.11521981 -0.09147376 0.35652864 -0.31460577 0.36054066
0.21819334 -1.2847861 0.1910978 -0.21268967 0.14930423 -0.051165435 0.20973516 0.23661514
-0.27181584 0.63516223 0.45319355 -0.9054 0.075889125 0.3010294 -0.22132987 -0.5663402
0.1683894 0.066812575 0.23104216 0.42255592 -0.4031318 0.07676286 -0.6094321 0.43568462
-0.1942766 -0.02905064 0.24737626 0.029968532 -0.33620456 0.28488535 0.62433535 0.3437158
-0.34162262 0.5111876 -0.02491081 0.007330313 -0.07037768 -0.30766127 0.4561983 0.22898151
-0.5877073 -0.057571355 -0.380612 0.59006625 0.03151997 0.5755458 0.08505663 0.4193532
0.2478853 0.95390093 -1.1179025 -0.111440554 -0.05272469 0.0016990595 -0.41910493 0.61193347
-0.8329106 0.029631132 -0.2177168 0.19239932 -0.33195966 0.032126218 -0.43340847 0.7777938
0.1014166 -0.027685411 0.046775013 -0.32847023 -0.09551183 -0.20962323 -0.093075104 -0.37351263
0.4078184 -0.52408236 -0.64340514 -0.052733846 -0.32773662 -0.39030066 0.07532179 0.08587021
0.5922575 -0.34419945 1.7285371 0.18532759 -0.8985485 -0.032403294 -0.18749996 0.57029855
-0.24591462 -0.47641325 -0.3670268 -0.10764722 -0.071306534 -0.040177815 0.13497017 0.14654784
0.04491308 -0.26929137 -0.082948506 -0.036171433 -0.6144332 0.49631235 -0.09111183 -0.05822659
-2.0421696 -0.34982318 -0.46300277 0.07155053 0.5429462 0.6902618 -0.011947806 0.056519706
-0.21807791 -0.061408784 -0.20868374 0.10618548 -0.33760047 0.52729475 -0.045827944 0.7768532
0.16183159 -0.05269714 -0.25261393 0.23031083 -1.6556554 0.09002923 0.5348065 -0.81433207
0.41825134 0.017388381 -0.420283 -0.6002972 -0.75881624 0.05033128 0.34885627 1.6675156
-0.008627106 0.017758531 -0.29366887 -0.40198508 1.8863841 0.3003204 0.12063581 -0.51358163
0.18394613 -0.36382404 -0.18014018 -0.650939 -0.3290941 -0.4457608 -0.04872096 0.07715385
0.34290946 -0.03513117 0.24371995 -0.08299034 0.027333114 0.4793017 0.47504148 1.4457991
0.46901026 -0.8128207 0.07288741 -0.29919568 0.026269022 0.53183246 -0.81146705 0.48922056
0.4296352 0.047255736 -0.044909865 0.24672344 -0.057200957 0.045331564 -0.0005255642 0.11313693
0.74270076 -0.17317964 -0.14115547 -0.30993614 -0.05727705 0.009191525 1.510248 -0.15176468
-0.41538775 -1.0147011 0.365909 -0.5647218 -1.66271 -0.03686049 0.033152483 -0.57065254
-1.1939179 1.4417074 0.06400981 0.38135734 0.38305107 0.054275583 0.47070774 0.7305698
0.05759368 -0.43189692 0.45771587 0.045295876 0.14574622 0.27576214 0.73309314 0.16537593
0.88427824 -0.16199997 0.76150215 0.5686789 1.0595185 -0.019339232 0.15758668 0.8274034
0.5287305 1.0081117 -0.46260646 -1.1182845 -0.01350129 0.29783577 -0.42543462 0.49185723
-0.07919091 -0.42129207 0.44607136 0.45109206 -0.05980811 -0.008715695 -0.32314137 1.6607194
-0.14509079 -0.20634972 -0.0017294921 0.055536363 -0.5586255 -1.1960307 0.30611923 -0.06281613
00000000: 61b1 2fbf e805 6fbe 1c2a aa3d fa15 3e3d
00000010: dc58 b6bd 7257 fbbc ff22 103d a0c2 58bf
00000020: e076 6dbf eabf 8ebe 5d57 0c3e 5df8 ebbd
00000030: 9856 bbbd ec8a b63e 0214 a1be c998 b83e
00000040: 136e 5f3e df73 a4bf 24af 433e 52cb 59be
00000050: 35e3 183e d992 51bd d0c4 563e 3d4b 723e
00000060: 722b 8bbe fe99 223f fc08 e83e 4bc8 67bf
00000070: c26b 9b3d 8720 9a3e 4ca4 62be acfb 10bf
00000080: 456e 2c3e 08d5 883d 5196 6c3e 4059 d83e
00000090: 4b67 cebe d935 9d3d be03 1cbf 0e12 df3e
000000a0: 72f0 46be 9cfb edbc 3450 7d3e 9180 f53c
000000b0: 0123 acbe 7edc 913e 71d4 1f3f 84fb af3e
000000c0: 29e9 aebe 31dd 023f c111 ccbc 1f33 f03b
000000d0: 2c22 90bd c785 9dbe d392 e93e 217a 6a3e
000000e0: fc73 16bf f1cf 6bbd 93df c2be 950e 173f
000000f0: 161b 013d f856 133f 2c32 ae3d 76b5 d63e
00000100: a5d5 7d3e da32 743f 6e17 8fbf f23a e4bd
00000110: d8f5 57bd fab2 de3a ec94 d6be aca7 1c3f
00000120: a139 55bf fdbc f23c 27f1 5ebe 5404 453e
00000130: 9ef6 a9be c896 033d b7e7 ddbe 7f1d 473f
00000140: 82b3 cf3d 84cc e2bc 2897 3f3d 402d a8be
00000150: b59b c3bd 79a7 56be 299e bebd 0c3d bfbe
00000160: 93cd d03e 432a 06bf 33b6 24bf 72ff 57bd
00000170: 18cd a7be 7dd5 c7be 5042 9a3d b8dc af3d
00000180: 309e 173f e93a b0be b440 dd3f 84c6 3d3e
00000190: 4607 66bf 51b9 04bd fdff 3fbe 16ff 113f
000001a0: 0bd1 7bbe 70ec f3be f0ea bbbe 2576 dcbd
000001b0: 2909 92bd 7e91 24bd 9f35 0a3e a310 163e
000001c0: c7f6 373d 8fe0 89be e8e0 a9bd 7f28 14bd
000001d0: 7f4b 1dbf a71c fe3e d798 babd 017f 6ebd
000001e0: e8b2 02c0 061c b3be b30e edbe 1689 923d
000001f0: 86fe 0a3f ffb4 303f bbc0 43bc 3581 673d
00000200: d14f 5fbe c787 7bbd 31b1 55be c677 d93d
00000210: f8d9 acbe cafc 063f 15b6 3bbd dadf 463f
00000220: 2eb7 253e f5d8 57bd 9d56 81be 9ad6 6b3e
00000230: 84ec d3bf 3f61 b83d 14e9 083f 1178 50bf
00000240: 0a25 d63e 1472 8e3c 552f d7be 14ad 19bf
00000250: c841 42bf 2c28 4e3d 4a9d b23e 2771 d53f
00000260: b558 0dbc 577a 913c c45b 96be fdd0 cdbe
00000270: 0975 f13f 98c3 993e e80f f73d 167a 03bf
00000280: 605c 3c3e 2547 babe ab76 38be f0a3 26bf
00000290: 067f a8be c23a e4be a18f 47bd d602 9e3d
000002a0: d491 af3e b4e5 0fbd b991 793e d7f6 a9bd
000002b0: b2e9 df3c 0867 f53e a338 f33e f20f b93f
000002c0: 1d22 f03e 0415 50bf ff45 953d 2d30 99be
000002d0: 2232 d73c 2c26 083f 4ebc 4fbf 1e7b fa3e
000002e0: 25f9 db3e 3b8f 413d 68f3 37bd 12a5 7c3e
000002f0: 8d4b 6abd 97ad 393d 04c6 09ba 56b4 e73d
00000300: a321 3e3f 0156 31be 0f8b 10be f3af 9ebe
00000310: 579b 6abd 0d98 163c ce4f c13f 3368 1bbe
00000320: b4ad d4be bae1 81bf 6d58 bb3e 9c91 10bf
00000330: aed3 d4bf 06fb 16bd e6ca 073d 4916 12bf
00000340: 4dd2 98bf de89 b83f 9317 833d 4541 c33e
00000350: 451f c43e 1350 5e3d 9b00 f13e 9f06 3b3f
00000360: 5ae7 6b3d 9821 ddbe bc59 ea3e 2b88 393d
00000370: 7f3e 153e b230 8d3e feab 3b3f 4f58 293e
00000380: 0f60 623f 52e3 25be cef1 423f f194 113f
00000390: 4d9e 873f 4f6d 9ebc 675e 213e b6d0 533f
000003a0: e25a 073f ce09 813f c1da ecbe f223 8fbf
000003b0: 8434 5dbc ee7d 983e 91d2 d9be b6d4 fb3e
000003c0: d82e a2bd 98b3 d7be 7763 e43e 8af5 e63e
000003d0: 59f9 74bd 46cc 0ebc c972 a5be 7492 d43f
000003e0: ae92 14be 574d 53be 20b0 e2ba 197a 633d
000003f0: 1502 0fbf 8917 99bf a9bb 9c3e bea5 80bd

linear2.bias f4 [128]
-0.4911102 -0.7000293 0.4185816 -2.325884 -2.3601694 -2.2533436 -0.20910423 2.0605347
2.3738618 -0.15126449 1.0168712 2.330644 -0.23545317 0.62988555 0.24771458 -0.33219588
-2.2268095 0.26112208 -0.47823158 -0.052513327 -0.29805762 0.0064530503 0.111716226 0.38812372
-0.14129594 2.3426633 0.36340773 -0.19499871 -0.090918005 -2.4495997 1.2122233 2.3539233
0.079233944 -0.6601308 -0.7598291 -2.255854 -0.3278528 0.68732387 2.2857819 -0.50830925
0.42913172 0.07495227 0.3255268 2.357443 -1.0595189 0.7859515 0.4812345 -2.3466523
0.42297053 0.4140574 0.25704837 -2.3148212 -0.5341396 2.3572338 2.3242764 0.031605434
0.028839247 2.3380234 -0.7218487 0.32676834 2.3135128 2.280425 0.27136168 0.34086016
-2.2929795 0.1596782 0.5294271 1.1833572 2.3570206 -0.28815216 0.07303003 -0.6855333
0.109190896 -1.8586673 0.6780544 -2.2832432 0.104537256 2.186802 0.51799726 -2.2917972
1.9087821 -2.3988612 0.22918738 -2.3557894 2.3467112 0.16313317 -0.26157984 0.2936941
2.336997 -0.3168761 -0.11596947 0.4481153 -0.65757394 2.2143726 -0.6725881 0.6553313
-0.65529376 -0.35720602 -0.12246307 -0.49837637 2.3846636 0.3259723 0.40723622 -0.4308956
-1.1032525 0.025046788 -0.04628522 0.77405745 -2.2393713 2.2972293 0.3741702 2.3795962
0.6237747 -0.23110828 -2.2923214 0.215811 -0.023147976 -1.8594251 0.7050346 -2.3619857
0.54560965 0.015561997 -2.358288 -0.46075433 0.7931677 0.27840242 -0.22755663 0.08185728
00000000: cc72 fbbe 1f35 33bf 5450 d63e 49db 14c0
00000010: 040d 17c0 c836 10c0 6b1f 56be cddf 0340
00000020: 5aed 1740 14e5 1abe d628 823f 4529 1540
00000030: a31a 71be 2e40 213f e4a8 7d3e 9415 aabe
00000040: 0c84 0ec0 cbb1 853e c5da f4be 3718 57bd
00000050: 029b 98be 1c74 d33b 7acb e43d 27b8 c63e
00000060: e2af 10be 32ee 1540 9410 ba3e bead 47be
00000070: 3833 babd 3ec6 1cc0 222a 9b3f aea6 1640
00000080: 6845 a23d 55fe 28bf 2984 42bf e95f 10c0
00000090: 52dc a7be 75f4 2f3f 404a 1240 8e20 02bf
000000a0: 27b7 db3e 9380 993d 73ab a63e 59e0 1640
000000b0: 519e 87bf 1e34 493f 5e64 f63e 8d2f 16c0
000000c0: 988f d83e 55ff d33e d89b 833e 0826 14c0
000000d0: 5fbd 08bf ebdc 1640 f2c0 1440 b374 013d
000000e0: 4940 ec3c 2da2 1540 14cb 38bf 2e4e a73e
000000f0: 9810 1440 7cf2 1140 ebef 8a3e 3985 ae3e
00000100: 2dc0 12c0 af82 233e 8988 073f 4078 973f
00000110: 6dd9 1640 ae88 93be c590 953d 1c7f 2fbf
00000120: 7a9f df3d cfe8 edbf f994 2d3f a820 12c0
00000130: a117 d63d 90f4 0b40 789b 043f ceac 12c0
00000140: f952 f43f f186 19c0 19b0 6a3e 41c5 16c0
00000150: 8430 1640 620c 273e cbed 85be 135f 963e
00000160: 5c91 1540 963d a2be 6781 edbd 5e6f e53e
00000170: c456 28bf 48b8 0d40 bc2e 2cbf cbc3 273f
00000180: 55c1 27bf b5e3 b6be ebcd fabd 302b ffbe
00000190: 549e 1840 d7e5 a63e 4481 d03e 599e dcbe
000001a0: 6137 8dbf ec2e cd3c 9295 3dbd a128 463f
000001b0: dc51 0fc0 ce05 1340 3d93 bf3e 4e4b 1840
000001c0: b3af 1f3f a6a7 6cbe 65b5 12c0 8ffd 5c3e
000001d0: d3a0 bdbc a401 eebf 267d 343f c62a 17c0
000001e0: 13ad 0b3f bff7 7e3c 31ee 16c0 fee7 ebbe
000001f0: 0a0d 4b3f c38a 8e3e 9b04 69be caa4 a73d

bn2.weight f4 [128]
1.0 1.0 1.0 1.0 1.0 1.0 1.0 1.0
1.0 1.0 1.0 1.0 1.0 1.0 1.0 1.0
1.0 1.0 1.0 1.0 1.0 1.0 1.0 1.0
1.0 1.0 1.0 1.0 1.0 1.0 1.0 1.0
1.0 1.0 1.0 1.0 1.0 1.0 1.0 1.0
1.0 1.0 1.0 1.0 1.0 1.0 1.0 1.0
1.0 1.0 1.0 1.0 1.0 1.0 1.0 1.0
1.0 1.0 1.0 1.0 1.0 1.0 1.0 1.0
1.0 1.0 1.0 1.0 1.0 1.0 1.0 1.0
1.0 1.0 1.0 1.0 1.0 1.0 1.0 1.0
1.0 1.0 1.0 1.0 1.0 1.0 1.0 1.0
1.0 1.0 1.0 1.0 1.0 1.0 1.0 1.0
1.0 1.0 1.0 1.0 1.0 1.0 1.0 1.0
1.0 1.0 1.0 1.0 1.0 1.0 1.0 1.0
1.0 1.0 1.0 1.0 1.0 1.0 1.0 1.0
1.0 1.0 1.0 1.0 1.0 1.0 1.0 1.0
00000000: 0000 803f 0000 803f 0000 803f 0000 803f
00000010: 0000 803f 0000 803f 0000 803f 0000 803f
00000020: 0000 803f 0000 803f 0000 803f 0000 803f
00000030: 0000 803f 0000 803f 0000 803f 0000 803f
00000040: 0000 803f 0000 803f 0000 803f 0000 803f
00000050: 0000 803f 0000 803f 0000 803f 0000 803f
00000060: 0000 803f 0000 803f 0000 803f 0000 803f
00000070: 0000 803f 0000 803f 0000 803f 0000 803f
00000080: 0000 803f 0000 803f 0000 803f 0000 803f
00000090: 0000 803f 0000 803f 0000 803f 0000 803f
000000a0: 0000 803f 0000 803f 0000 803f 0000 803f
000000b0: 0000 803f 0000 803f 0000 803f 0000 803f
000000c0: 0000 803f 0000 803f 0000 803f 0000 803f
000000d0: 0000 803f 0000 803f 0000 803f 0000 803f
000000e0: 0000 803f 0000 803f 0000 803f 0000 803f
000000f0: 0000 803f 0000 803f 0000 803f 0000 803f
00000100: 0000 803f 0000 803f 0000 803f 0000 803f
00000110: 0000 803f 0000 803f 0000 803f 0000 803f
00000120: 0000 803f 0000 803f 0000 803f 0000 803f
00000130: 0000 803f 0000 803f 0000 803f 0000 803f
00000140: 0000 803f 0000 803f 0000 803f 0000 803f
00000150: 0000 803f 0000 803f 0000 803f 0000 803f
00000160: 0000 803f 0000 803f 0000 803f 0000 803f
00000170: 0000 803f 0000 803f 0000 803f 0000 803f
00000180: 0000 803f 0000 803f 0000 803f 0000 803f
00000190: 0000 803f 0000 803f 0000 803f 0000 803f
000001a0: 0000 803f 0000 803f 0000 803f 0000 803f
000001b0: 0000 803f 0000 803f 0000 803f 0000 803f
000001c0: 0000 803f 0000 803f 0000 803f 0000 803f
000001d0: 0000 803f 0000 803f 0000 803f 0000 803f
000001e0: 0000 803f 0000 803f 0000 803f 0000 803f
000001f0: 0000 803f 0000 803f 0000 803f 0000 803f

bn2.bias f4 [128]
0.0 0.0 0.0 0.0 0.0 0.0 0.0 0.0
0.0 0.0 0.0 0.0 0.0 0.0 0.0 0.0
0.0 0.0 0.0 0.0 0.0 0.0 0.0 0.0
0.0 0.0 0.0 0.0 0.0 0.0 0.0 0.0
0.0 0.0 0.0 0.0 0.0 0.0 0.0 0.0
0.0 0.0 0.0 0.0 0.0 0.0 0.0 0.0
0.0 0.0 0.0 0.0 0.0 0.0 0.0 0.0
0.0 0.0 0.0 0.0 0.0 0.0 0.0 0.0
0.0 0.0 0.0 0.0 0.0 0.0 0.0 0.0
0.0 0.0 0.0 0.0 0.0 0.0 0.0 0.0
0.0 0.0 0.0 0.0 0.0 0.0 0.0 0.0
0.0 0.0 0.0 0.0 0.0 0.0 0.0 0.0
0.0 0.0 0.0 0.0 0.0 0.0 0.0 0.0
0.0 0.0 0.0 0.0 0.0 0.0 0.0 0.0
0.0 0.0 0.0 0.0 0.0 0.0 0.0 0.0
0.0 0.0 0.0 0.0 0.0 0.0 0.0 0.0
00000000: 0000 0000 0000 0000 0000 0000 0000 0000
00000010: 0000 0000 0000 0000 0000 0000 0000 0000
00000020: 0000 0000 0000 0000 0000 0000 0000 0000
00000030: 0000 0000 0000 0000 0000 0000 0000 0000
00000040: 0000 0000 0000 0000 0000 0000 0000 0000
00000050: 0000 0000 0000 0000 0000 0000 0000 0000
00000060: 0000 0000 0000 0000 0000 0000 0000 0000
00000070: 0000 0000 0000 0000 0000 0000 0000 0000
00000080: 0000 0000 0000 0000 0000 0000 0000 0000
00000090: 0000 0000 0000 0000 0000 0000 0000 0000
000000a0: 0000 0000 0000 0000 0000 0000 0000 0000
000000b0: 0000 0000 0000 0000 0000 0000 0000 0000
000000c0: 0000 0000 0000 0000 0000 0000 0000 0000
000000d0: 0000 0000 0000 0000 0000 0000 0000 0000
000000e0: 0000 0000 0000 0000 0000 0000 0000 0000
000000f0: 0000 0000 0000 0000 0000 0000 0000 0000
00000100: 0000 0000 0000 0000 0000 0000 0000 0000
00000110: 0000 0000 0000 0000 0000 0000 0000 0000
00000120: 0000 0000 0000 0000 0000 0000 0000 0000
00000130: 0000 0000 0000 0000 0000 0000 0000 0000
00000140: 0000 0000 0000 0000 0000 0000 0000 0000
00000150: 0000 0000 0000 0000 0000 0000 0000 0000
00000160: 0000 0000 0000 0000 0000 0000 0000 0000
00000170: 0000 0000 0000 0000 0000 0000 0000 0000
00000180: 0000 0000 0000 0000 0000 0000 0000 0000
00000190: 0000 0000 0000 0000 0000 0000 0000 0000
000001a0: 0000 0000 0000 0000 0000 0000 0000 0000
000001b0: 0000 0000 0000 0000 0000 0000 0000 0000
000001c0: 0000 0000 0000 0000 0000 0000 0000 0000
000001d0: 0000 0000 0000 0000 0000 0000 0000 0000
000001e0: 0000 0000 0000 0000 0000 0000 0000 0000
000001f0: 0000 0000 0000 0000 0000 0000 0000 0000

bn2.running_mean f4 [128]
0.0 0.0 0.0 0.0 0.0 0.0 0.0 0.0
0.0 0.0 0.0 0.0 0.0 0.0 0.0 0.0
0.0 0.0 0.0 0.0 0.0 0.0 0.0 0.0
0.0 0.0 0.0 0.0 0.0 0.0 0.0 0.0
0.0 0.0 0.0 0.0 0.0 0.0 0.0 0.0
0.0 0.0 0.0 0.0 0.0 0.0 0.0 0.0
0.0 0.0 0.0 0.0 0.0 0.0 0.0 0.0
0.0 0.0 0.0 0.0 0.0 0.0 0.0 0.0
0.0 0.0 0.0 0.0 0.0 0.0 0.0 0.0
0.0 0.0 0.0 0.0 0.0 0.0 0.0 0.0
0.0 0.0 0.0 0.0 0.0 0.0 0.0 0.0
0.0 0.0 0.0 0.0 0.0 0.0 0.0 0.0
0.0 0.0 0.0 0.0 0.0 0.0 0.0 0.0
0.0 0.0 0.0 0.0 0.0 0.0 0.0 0.0
0.0 0.0 0.0 0.0 0.0 0.0 0.0 0.0
0.0 0.0 0.0 0.0 0.0 0.0 0.0 0.0
00000000: 0000 0000 0000 0000 0000 0000 0000 0000
00000010: 0000 0000 0000 0000 0000 0000 0000 0000
00000020: 0000 0000 0000 0000 0000 0000 0000 0000
00000030: 0000 0000 0000 0000 0000 0000 0000 0000
00000040: 0000 0000 0000 0000 0000 0000 0000 0000
00000050: 0000 0000 0000 0000 0000 0000 0000 0000
00000060: 0000 0000 0000 0000 0000 0000 0000 0000
00000070: 0000 0000 0000 0000 0000 0000 0000 0000
00000080: 0000 0000 0000 0000 0000 0000 0000 0000
00000090: 0000 0000 0000 0000 0000 0000 0000 0000
000000a0: 0000 0000 0000 0000 0000 0000 0000 0000
000000b0: 0000 0000 0000 0000 0000 0000 0000 0000
000000c0: 0000 0000 0000 0000 0000 0000 0000 0000
000000d0: 0000 0000 0000 0000 0000 0000 0000 0000
000000e0: 0000 0000 0000 0000 0000 0000 0000 0000
000000f0: 0000 0000 0000 0000 0000 0000 0000 0000
00000100: 0000 0000 0000 0000 0000 0000 0000 0000
00000110: 0000 0000 0000 0000 0000 0000 0000 0000
00000120: 0000 0000 0000 0000 0000 0000 0000 0000
00000130: 0000 0000 0000 0000 0000 0000 0000 0000
00000140: 0000 0000 0000 0000 0000 0000 0000 0000
00000150: 0000 0000 0000 0000 0000 0000 0000 0000
00000160: 0000 0000 0000 0000 0000 0000 0000 0000
00000170: 0000 0000 0000 0000 0000 0000 0000 0000
00000180: 0000 0000 0000 0000 0000 0000 0000 0000
00000190: 0000 0000 0000 0000 0000 0000 0000 0000
000001a0: 0000 0000 0000 0000 0000 0000 0000 0000
000001b0: 0000 0000 0000 0000 0000 0000 0000 0000
000001c0: 0000 0000 0000 0000 0000 0000 0000 0000
000001d0: 0000 0000 0000 0000 0000 0000 0000 0000
000001e0: 0000 0000 0000 0000 0000 0000 0000 0000
000001f0: 0000 0000 0000 0000 0000 0000 0000 0000

bn2.running_var f4 [128]
1.0 1.0 1.0 1.0 1.0 1.0 1.0 1.0
1.0 1.0 1.0 1.0 1.0 1.0 1.0 1.0
1.0 1.0 1.0 1.0 1.0 1.0 1.0 1.0
1.0 1.0 1.0 1.0 1.0 1.0 1.0 1.0
1.0 1.0 1.0 1.0 1.0 1.0 1.0 1.0
1.0 1.0 1.0 1.0 1.0 1.0 1.0 1.0
1.0 1.0 1.0 1.0 1.0 1.0 1.0 1.0
1.0 1.0 1.0 1.0 1.0 1.0 1.0 1.0
1.0 1.0 1.0 1.0 1.0 1.0 1.0 1.0
1.0 1.0 1.0 1.0 1.0 1.0 1.0 1.0
1.0 1.0 1.0 1.0 1.0 1.0 1.0 1.0
1.0 1.0 1.0 1.0 1.0 1.0 1.0 1.0
1.0 1.0 1.0 1.0 1.0 1.0 1.0 1.0
1.0 1.0 1.0 1.0 1.0 1.0 1.0 1.0
1.0 1.0 1.0 1.0 1.0 1.0 1.0 1.0
1.0 1.0 1.0 1.0 1.0 1.0 1.0 1.0
00000000: 0000 803f 0000 803f 0000 803f 0000 803f
00000010: 0000 803f 0000 803f 0000 803f 0000 803f
00000020: 0000 803f 0000 803f 0000 803f 0000 803f
00000030: 0000 803f 0000 803f 0000 803f 0000 803f
00000040: 0000 803f 0000 803f 0000 803f 0000 803f
00000050: 0000 803f 0000 803f 0000 803f 0000 803f
00000060: 0000 803f 0000 803f 0000 803f 0000 803f
00000070: 0000 803f 0000 803f 0000 803f 0000 803f
00000080: 0000 803f 0000 803f 0000 803f 0000 803f
00000090: 0000 803f 0000 803f 0000 803f 0000 803f
000000a0: 0000 803f 0000 803f 0000 803f 0000 803f
000000b0: 0000 803f 0000 803f 0000 803f 0000 803f
000000c0: 0000 803f 0000 803f 0000 803f 0000 803f
000000d0: 0000 803f 0000 803f 0000 803f 0000 803f
000000e0: 0000 803f 0000 803f 0000 803f 0000 803f
000000f0: 0000 803f 0000 803f 0000 803f 0000 803f
00000100: 0000 803f 0000 803f 0000 803f 0000 803f
00000110: 0000 803f 0000 803f 0000 803f 0000 803f
00000120: 0000 803f 0000 803f 0000 803f 0000 803f
00000130: 0000 803f 0000 803f 0000 803f 0000 803f
00000140: 0000 803f 0000 803f 0000 803f 0000 803f
00000150: 0000 803f 0000 803f 0000 803f 0000 803f
00000160: 0000 803f 0000 803f 0000 803f 0000 803f
00000170: 0000 803f 0000 803f 0000 803f 0000 803f
00000180: 0000 803f 0000 803f 0000 803f 0000 803f
00000190: 0000 803f 0000 803f 0000 803f 0000 803f
000001a0: 0000 803f 0000 803f 0000 803f 0000 803f
000001b0: 0000 803f 0000 803f 0000 803f 0000 803f
000001c0: 0000 803f 0000 803f 0000 803f 0000 803f
000001d0: 0000 803f 0000 803f 0000 803f 0000 803f
000001e0: 0000 803f 0000 803f 0000 803f 0000 803f
000001f0: 0000 803f 0000 803f 0000 803f 0000 803f

V.weight f4 [1, 128]
1.5979741 1.1670756 -3.2227511 2.202583 2.2095196 2.1875546 1.5403136 -2.1646516
-2.1844528 1.634295 -0.9574245 -2.2045953 3.3821802 4.493795 2.986145 2.0079234
2.2111785 2.77553 2.0315943 4.301505 2.0992086 -4.17571 -3.7165995 -2.308785
3.2042205 -2.2105348 -1.8221856 3.897162 0.76618594 2.1763823 -2.185875 -2.2110374
2.886495 2.4585736 2.269019 2.2005985 2.2530358 4.538982 -2.2075083 1.1608887
-2.817776 -3.6585424 -1.2749096 -2.210307 2.2084997 -2.5083063 3.6776266 2.2047355
-2.0013733 3.5422919 -2.112535 2.2071388 2.585808 -2.1950595 -2.1777046 -3.5769796
3.253511 -2.1914232 -4.118862 -1.3239973 -2.1688068 -2.1890533 -1.6154732 -1.5781642
2.2206404 3.266241 -3.490358 -3.463244 -2.208916 1.853449 -3.1264403 1.6295152
-2.061758 2.1896808 -1.910198 2.2105796 3.4668617 -2.1729 4.583376 2.211962
-2.1763155 2.2092555 -2.0184712 2.2070343 -2.2136924 3.1874192 0.31083843 -1.9819188
-2.1896427 0.6671445 3.5980947 3.6244633 2.7127914 -2.199167 1.8862163 4.580909
-4.074164 1.6579877 -3.4611838 1.7523924 -2.2079341 -3.82304 -0.36156204 2.229537
1.8077301 -3.8339972 1.6205053 -3.4389904 2.1964042 -2.1821063 -1.2104181 -2.186361
-1.8279377 0.6535226 2.1931493 -3.0525007 3.456016 2.2713032 -3.3507006 2.1824152
-1.8958778 -3.2472868 2.1892354 2.0379608 3.9272027 -3.0593364 3.7642097 -3.4626083
00000000: 6a8a cc3f bc62 953f 8e41 4ec0 1ff7 0c40
00000010: c568 0d40 e500 0c40 ff28 c53f a789 0ac0
00000020: 13ce 0bc0 9430 d13f c619 75bf 1718 0dc0
00000030: a475 5840 2bcd 8f40 001d 3f40 d181 0040
00000040: f383 0d40 49a2 3140 a405 0240 eea5 8940
00000050: 6f59 0640 6b9f 85c0 c4dc 6dc0 22c3 13c0
00000060: f311 4d40 6779 0dc0 613d e9bf 1a6b 7940
00000070: c324 443f d949 0b40 60e5 0bc0 a381 0dc0
00000080: 56bc 3840 4559 1d40 9b37 1140 9bd6 0c40
00000090: bd31 1040 573f 9140 d147 0dc0 0098 943f
000000a0: 7156 34c0 8f25 6ac0 3d30 a3bf ab75 0dc0
000000b0: 0f58 0d40 1788 20c0 3c5e 6b40 631a 0d40
000000c0: 8016 00c0 e9b4 6240 c633 07c0 c341 0d40
000000d0: e17d 2540 db7b 0cc0 835f 0bc0 3ced 64c0
000000e0: 8639 5040 4740 0cc0 b8cd 83c0 be78 a9bf
000000f0: bbcd 0ac0 7319 0cc0 d3c7 cebf 4901 cabf
00000100: f91e 0e40 180a 5140 0762 5fc0 caa5 5dc0
00000110: e15e 0dc0 d13d ed3f 9917 48c0 f493 d03f
00000120: d8f3 03c0 bb23 0c40 5e81 f4bf 237a 0d40
00000130: 10e1 5d40 cb10 0bc0 04ab 9240 c990 0d40
00000140: c148 0bc0 7164 0d40 a22e 01c0 0d40 0d40
00000150: 23ad 0dc0 adfe 4b40 3726 9f3e 84af fdbf
00000160: 1b23 0cc0 fbc9 2a3f 2f47 6640 35f7 6740
00000170: 609e 2d40 27bf 0cc0 896f f13f ce96 9240
00000180: 8d5f 82c0 f138 d43f 0984 5dc0 654e e03f
00000190: cb4e 0dc0 b0ac 74c0 a91e b9be bcb0 0e40
000001a0: b363 e73f 3660 75c0 b86c cf3f 6b18 5cc0
000001b0: e391 0c40 a1a7 0bc0 fbee 9abf 57ed 0bc0
000001c0: ddf9 e9bf 424d 273f 8f5c 0c40 2c5c 43c0
000001d0: 5e2f 5d40 085d 1140 e171 56c0 b1ac 0b40
000001e0: 20ac f2bf 8cd3 4fc0 6f1c 0c40 f36d 0240
000001f0: 4a57 7b40 2bcc 43c0 d0e8 7040 609b 5dc0

mu.weight f4 [1, 128]
0.3935421 0.080152586 0.40334594 -0.04485403 -0.038864836 -0.020482173 -0.012077541 0.034505233
0.017404294 -0.09444704 0.17986898 0.03569863 0.24824293 0.25799587 0.30573586 -0.05950018
-0.06452375 0.0036736364 0.34053153 -0.27589586 0.5010867 0.50688905 -0.08143726 -0.36143446
-0.2716205 0.038884 -0.54424393 0.18003915 0.607099 -0.025721977 -0.328707 0.043745846
-0.22654024 -0.0014050737 -0.5054766 -0.041282415 -0.15144256 -0.028091256 0.034058493 -1.3012748
-1.0134388 0.09440414 -0.50188583 0.044707485 1.1611294 -0.70727485 -0.122568175 -0.071038954
-0.12249892 -0.29200426 0.692288 -0.0351366 0.13857426 0.030519525 0.018982984 -0.41573262
-0.44322217 0.029515788 -0.27638474 0.2611387 0.021732183 0.025941445 -0.13063769 0.15208831
-0.039173834 -0.23833825 -0.22283386 0.6224177 0.042713873 -0.24749438 0.42392445 0.45662412
0.53342545 -0.029901711 -0.085337095 -0.05362287 0.11614447 0.025289012 -0.14590482 -0.052042224
0.049302705 -0.03735009 0.23937821 -0.039602406 0.054475114 0.77954024 0.18200801 -0.15900843
0.026519524 0.3706568 0.9074461 0.13770501 0.54876286 0.04056562 0.4720928 -0.6756886
0.3124192 0.5651292 0.336733 -0.14567408 0.05200669 0.044365205 -0.5130194 -0.34049687
-0.3165564 0.1950905 0.33784032 -0.0028315042 -0.039220646 0.022390807 -0.018478261 0.018579692
-0.1726474 0.40220496 -0.03746067 0.69707847 0.2588708 0.10490626 -0.20349178 -0.032310493
0.17942795 0.30883217 -0.03351169 -0.24491909 -0.12766857 0.021225411 0.16640106 0.3306384
00000000: 5a7e c93e 0a27 a43d 5c83 ce3e dcb8 37bd
00000010: bc30 1fbd 3bca a7bc e1e0 45bc 5c55 0d3d
00000020: 7393 8e3c 736d c1bd 932f 383e ba38 123d
00000030: 6533 7e3e 0918 843e 6989 9c3e 76b6 73bd
00000040: 0725 84bd 64c1 703b 265a ae3e 3942 8dbe
00000050: 3847 003f 7bc3 013f 94c8 a6bd f00d b9be
00000060: d811 8bbe d444 1f3d 9253 0bbf 2f5c 383e
00000070: d76a 1b3f e5b6 d2bc 494c a8be d82e 333d
00000080: 2afa 67be 732a b8ba ea66 01bf c017 29bd
00000090: c213 1bbe a21f e6bc eb80 0b3d 2c90 a6bf
000000a0: 5db8 81bf f556 c13d 977b 00bf 321f 373d
000000b0: e39f 943f f70f 35bf 0605 fbbd df7c 91bd
000000c0: b7e0 fabd 9581 95be c939 313f 65eb 0fbd
000000d0: 69e6 0d3e 1504 fa3c 3482 9b3c e8da d4be
000000e0: 04ee e2be 18cb f13c 4d82 8dbe f9b3 853e
000000f0: b107 b23c 2783 d43c e3c5 05be 0abd 1b3e
00000100: be74 20bd f10e 74be 8f2e 64be c456 1f3f
00000110: bef4 2e3d 2b6f 7dbe a00c d93e a3ca e93e
00000120: 928e 083f 6ff4 f4bc 37c5 aebd a8a3 5bbd
00000130: 27dd ed3d e72a cf3c 1368 15be 3a2a 55bd
00000140: a2f1 493d 68fc 18bd 901f 753e 2236 22bd
00000150: 4c21 5f3d f38f 473f 4f60 3a3e 1bd3 22be
00000160: 793f d93c bac6 bd3e 634e 683f 8b02 0d3e
00000170: b97b 0c3f 2328 263d 26b6 f13e eef9 2cbf
00000180: 69f5 9f3e 4fac 103f 4568 ac3e 962b 15be
00000190: f804 553d 4ab8 353d 3d55 03bf 9b55 aebe
000001a0: ae13 a2be cec5 473e 68f9 ac3e c290 39bb
000001b0: d4a5 20bd ed6c b73c b95f 97bc 7034 983c
000001c0: 7bca 30be cfed cd3e 5c70 19bd bc73 323f
000001d0: b78a 843e 18d9 d63d 2660 50be 0258 04bd
000001e0: f6bb 373e 401f 9e3e 8e43 09bd 12cc 7abe
000001f0: 8dbb 02be eae0 ad3c 0a65 2a3e 7049 a93e

L.weight f4 [1, 128]
0.013653684 0.42902368 -0.04513511 -0.0040477086 -0.0005405008 -0.01848764 -0.03051985 0.01070428
0.011167883 0.050819814 -0.15240788 0.0038177313 -0.060751494 0.11333641 -0.16433705 -0.00420561
0.005379372 -0.43399283 -0.0020011398 -0.0013888696 0.06402827 0.004283129 -0.16289844 0.22003064
-0.110030845 0.004771558 -0.018516725 0.02053307 -0.64893776 -0.02159686 -0.058560673 0.0038187185
-0.2023723 -0.025347477 -0.40602896 -0.005079241 0.01642183 0.10359503 0.0068937405 -0.115392886
-0.058080714 -0.06803622 0.00082409364 0.0031424554 0.002305592 0.003818111 -0.06321593 0.02318431
0.1043172 -0.16026698 0.20582715 0.00056927075 -0.19219 0.008096918 0.01588396 -0.13116041
-0.015986964 0.01178486 -0.08003823 0.0030146192 0.014513814 0.0105430065 0.092702255 -0.012577815
-0.005520969 0.33286104 0.10262139 -0.14557649 0.004344645 0.124903314 -0.23246548 0.044740174
-0.006385414 -0.018839924 -0.40870616 0.011463149 -0.13080819 0.00890465 -0.0055692354 -8.2869476e-05
-0.007897128 -0.008370403 -0.036098488 -0.0074934755 0.002876547 -0.04206778 -0.30748585 -0.044264816
0.004681716 -0.018399075 0.0006927871 0.0022401295 0.11974041 0.010158899 0.032230232 0.12548174
0.16287103 -0.23329268 -0.04759118 -0.046380047 0.009700331 -0.059059743 0.10749499 -0.0559408
-0.04576559 -0.09520514 -0.004079267 -0.077588566 -0.0045335097 0.016799184 -0.1438143 0.011888738
0.06520426 -0.26448047 -0.015855676 -0.03375619 0.14209099 0.05289182 -0.10472054 -0.013114939
0.027577689 0.14391084 -0.006278617 -0.07231027 -0.012476433 -0.02549691 0.013238179 -0.07258663
00000000: b4b3 5f3c fea8 db3e 98df 38bd a4a2 84bb
00000010: 65b0 0dba 6473 97bc c404 fabc 0161 2f3c
00000020: 7ff9 363c 7028 503d d010 1cbe e732 7a3b
00000030: 8fd6 78bd eb1c e83d f947 28be 37cf 89bb
00000040: 7145 b03b 4f34 debe 8e25 03bb bb0a b6ba
00000050: 4121 833d 7d59 8c3b d9ce 26be b64f 613e
00000060: da57 e1bd bb5a 9c3b 63b0 97bc f834 a83c
00000070: c920 26bf e6eb b0bc 51dd 6fbd 7743 7a3b
00000080: af3a 4fbe 83a5 cfbc 07e3 cfbe c36f a6bb
00000090: 1387 863c a229 d43d e3e4 e13b 1b53 ecbd
000000a0: 0be6 6dbd 9356 8bbd fd07 583a a7f1 4d3b
000000b0: 6a19 173b 4639 7a3b 5a77 81bd 06ed bd3c
000000c0: 42a4 d53d 071d 24be 5ac4 523e 1d3b 153a
000000d0: 75cd 44be f0a8 043c 141f 823c ea4e 06be
000000e0: 18f7 82bc 4915 413c 15eb a3bd eb90 453b
000000f0: 59cb 6d3c 93bc 2c3c aeda bd3d 2e13 4ebc
00000100: 3fe9 b4bb c36c aa3e 2a2b d23d 0112 15be
00000110: 865d 8e3b 4fcd ff3d 6e0b 6ebe 7941 373d
00000120: bc3c d1bb 2f56 9abc ef41 d1be efcf 3b3c
00000130: 95f2 05be cfe4 113c 227e b6bb 36ca adb8
00000140: f562 01bc 0424 09bc 02dc 13bd d48b f5bb
00000150: 7384 3c3b 444f 2cbd c96e 9dbe 064f 35bd
00000160: 1569 993b a8b9 96bc 289c 353a 23cf 123b
00000170: 763a f53d 8371 263c d903 043d 497e 003e
00000180: aac7 263e 47e4 6ebe f8ee 42bd 01f9 3dbd
00000190: 23ee 1e3c a1e8 71bd 5526 dc3d 2e22 65bd
000001a0: b374 3bbd eafa c2bd 5fab 85bb c1e6 9ebd
000001b0: d68d 94bb 719e 893c 0e44 13be fbc8 423c
000001c0: d089 853d fc69 87be c3e3 81bc ee43 0abd
000001d0: 4d80 113e 18a5 583d b977 d6bd 0be0 56bc
000001e0: 9bea e13c 5d5d 133e dbbc cdbb 6817 94bd
000001f0: f469 4cbc e5de d0bc f2e4 583c 4da8 94bd
