real_robot_grasping/panda_demos/naf_env/src/models/naf_Pendulum-v0_512_ep50k.pth (torch_old, 76586 bytes, 19 tensors)

bn0.weight f4 [3]
0	0x3f8c4058	1.0957136
1	0x3fb3abd3	1.4036812
2	0x3fea43f0	1.8301983

bn0.bias f4 [3]
0	0x3e729f03	0.2369347
1	0xbe935bbd	-0.28780928
2	0xbd342070	-0.043976247

bn0.running_mean f4 [3]
0	0x3f5725e8	0.84042215
1	0x3d2aa9a8	0.041665703
2	0x3b814f06	0.003946188

bn0.running_var f4 [3]
0	0x3e4da54a	0.20082584
1	0x3dbaa426	0.0911334
2	0x40168f5e	2.3525004

linear1.weight f4 [128, 3]
0	0x3e9c32e5	0.3050758
1	0xc06e9765	-3.7279904
2	0xbf7e07df	-0.9923076
3	0x40374269	2.8634284
4	0x3f551094	0.8322842
5	0xbeec3923	-0.46137342
6	0x3f836bf4	1.026732
7	0xc07015f1	-3.7513392
8	0xc0229c2a	-2.5407815
9	0x4041c5d3	3.0276992
10	0xbf0eaa52	-0.5572864
11	0x3f2a0a69	0.66422135
12	0x3f822ee0	1.0170555
13	0xbf888a8c	-1.0667281
14	0xc014c2d8	-2.3243923
15	0xbe98a7b4	-0.29815447
16	0x3faea0ca	1.3642819
17	0x4048b44b	3.1360042
18	0x3b94c382	0.004539908
19	0xbbe5e31d	-0.0070155994
20	0x3c1d5fa1	0.009605319
21	0x3fbfb3a2	1.4976695
22	0x3fb3b9d6	1.4041088
23	0x3e5e6ef2	0.2172201
24	0x3d6d1ae8	0.057886988
25	0x40201a18	2.5015926
26	0xbfc3b225	-1.528874
27	0x3f839460	1.0279655
28	0x3fbc9fbf	1.4736251
29	0xbfdad733	-1.7096924
30	0x3f5f8b5a	0.8732201
31	0xc02c26d8	-2.6898708
32	0xc01c08eb	-2.4380443
33	0xbda7a7f7	-0.081863336
34	0x4035514a	2.8330865
35	0x3f95fb4b	1.1717314
36	0x3eeb15d7	0.459151
37	0x4037da7a	2.8727098
38	0x3fea3565	1.8297545
39	0x4015ae04	2.338746
40	0xbfa654a1	-1.2994577
41	0x400c6dae	2.1941943
42	0x3fce20b6	1.6103733
43	0x3fe89116	1.8169277
44	0xbf9af363	-1.2105526
45	0xbfc71328	-1.5552721
46	0xc00c8739	-2.1957533
47	0xc029d156	-2.6534019
48	0x407ce4c3	3.9514625
49	0xbf9925d4	-1.1964669
50	0xc045f5ad	-3.0931199
51	0xc01365eb	-2.3030956
52	0xbf8bfb33	-1.0936035
53	0x3f11135f	0.5667018
54	0x408c7146	4.3888273
55	0x3f89b78b	1.0759138
56	0x4067b4d3	3.6204116
57	0xc02449b2	-2.566998
58	0xbf5f2b2d	-0.87175256
59	0xc0415a5f	-3.0211408
60	0x408109f0	4.032463
61	0x3f9ee491	1.2413503
62	0x4045d3ec	3.0910597
63	0x400b0f94	2.1728258
64	0xbefa1ceb	-0.48850188
65	0x3efa08d3	0.48834857
66	0xbfe52b45	-1.790383
67	0xc02f17ba	-2.7358232
68	0xbf28015e	-0.65627086
69	0xbf731873	-0.9495918
70	0xc0431590	-3.048191
71	0xbff1b3e1	-1.888302
72	0x4091b250	4.5530167
73	0x3f5ca345	0.8618663
74	0x3f064e3a	0.52463114
75	0xbedc1017	-0.42981026
76	0xbfba8feb	-1.457517
77	0x4035c978	2.8404217
78	0x409f4afd	4.977904
79	0xc029a0b2	-2.650433
80	0xc07b8613	-3.9300582
81	0xbc593cfd	-0.01325917
82	0xbb9ddd3a	-0.004817632
83	0x3c3075f3	0.010770309
84	0x3f4f9a57	0.8109488
85	0xc01611b9	-2.3448317
86	0x3bef9c64	0.0073123444
87	0x3d1d633c	0.038424715
88	0x400d7d9f	2.2107923
89	0xbe4deb19	-0.20109214
90	0x3fc68244	1.5508504
91	0x3ed1cad5	0.4097506
92	0xc009cc71	-2.153103
93	0xbe60f0d0	-0.21966863
94	0x4047924c	3.1183043
95	0x40107373	2.2570465
96	0xc00605ac	-2.0940962
97	0x4041be5d	3.0272439
98	0x4015072a	2.3285623
99	0x3f3ad430	0.7298002
100	0xc0184961	-2.3794787
101	0x3eb8f933	0.36127624
102	0x3f68d7da	0.90954363
103	0xc01a3d56	-2.4099936
104	0x3fd9164c	1.695993
105	0x38441570	4.6750007e-05
106	0x3c81e90e	0.0158582
107	0xbc5091e0	-0.012730092
108	0x3f8b0267	1.0860108
109	0xbf0d5155	-0.5520223
110	0x3fcb60be	1.5888898
111	0x3fff0dfb	1.9926142
112	0x3f170630	0.58993816
113	0xbef673a4	-0.48135102
114	0xbe5ffc7b	-0.21873657
115	0x4023b880	2.558136
116	0xbfbea1de	-1.4893148
117	0xc006f52a	-2.1087136
118	0xbe851de6	-0.25999373
119	0x3ea23540	0.31681252
120	0xbfe4fc8f	-1.7889575
121	0x3f4c0e35	0.7970918
122	0xbe5f274a	-0.21792331
123	0x3a4a5367	0.00077181164
124	0xba988920	-0.0011637546
125	0x3c568567	0.013093329
126	0x404299de	3.0406413
127	0xbf89860a	-1.074403
128	0x3f0c800f	0.548829
129	0xbc0a11bb	-0.008427079
130	0x3a947e2c	0.0011329106
131	0x3c491b64	0.012274597
132	0xbeb83a06	-0.35981768
133	0x3ff29433	1.8951477
134	0xbeabd7c9	-0.33563069
135	0x3bf0ac7f	0.007344782
136	0x3be2b5ac	0.0069186296
137	0xbc03e6a7	-0.008050597
138	0xbfb4a75c	-1.4113574
139	0xbf8caf89	-1.0991069
140	0x3ec98cb1	0.39365152
141	0xbb89ae82	-0.004201711
142	0xba6ff25a	-0.00091532397
143	0x3be6d48b	0.00704438
144	0x3ae3263f	0.0017330124
145	0x3c081f72	0.008308278
146	0xbabb701b	-0.0014300378
147	0xbfcecb81	-1.6155854
148	0xc01d19a9	-2.4546912
149	0xbfd785cc	-1.6837707
150	0x3c0ab3ac	0.008465689
151	0xbb748205	-0.0037308943
152	0x3b7cb788	0.0038561542
153	0xc0149c19	-2.3220274
154	0x3f2614a9	0.64875275
155	0xc02ec4bf	-2.7307584
156	0x3be98e9a	0.007127595
157	0xbaabd17f	-0.0013108699
158	0x3c7a3a81	0.0152727375
159	0xc040bb82	-3.0114446
160	0xbf873d32	-1.056555
161	0xc043a1f1	-3.056759
162	0xc0258fce	-2.5869021
163	0x40198c04	2.3991709
164	0x4002e362	2.0451283
165	0xbfeb5f9c	-1.8388553
166	0x40246d86	2.5691848
167	0x403635d0	2.8470345
168	0x3ef6e9e7	0.48225328
169	0x401aa9f4	2.416623
170	0xc08fcd27	-4.493793
171	0x3b42cece	0.0029725316
172	0xbab693d6	-0.0013929557
173	0xbbfe0e96	-0.0077532036
174	0xc05a56ec	-3.4115553
175	0x4003117c	2.0479422
176	0x400788bb	2.1177204
177	0x3ffdc259	1.9824935
178	0xc0208588	-2.50815
179	0xbfec41a7	-1.8457536
180	0xbb3abf1a	-0.0028495253
181	0x3bc22df6	0.005925889
182	0xbbd3321c	-0.0064451825
183	0xbc15a8fb	-0.009134526
184	0xbc03213f	-0.008003532
185	0x3bb9ddb7	0.0056721824
186	0x3c7f27a6	0.015573418
187	0x3b4fb3ef	0.0031692942
188	0xbb82b1df	-0.003988489
189	0x407ef724	3.9838343
190	0xc021a61f	-2.5257642
191	0xc052e3dc	-3.2951574
192	0x40248b7e	2.571014
193	0x3ec81a98	0.3908279
194	0x3ef3985a	0.47577173
195	0x4008fa99	2.1402953
196	0xc047927a	-3.1183152
197	0x402d3707	2.7064836
198	0xbb38711e	-0.0028143595
199	0x3c15e1df	0.00914809
200	0x3be45282	0.0069678435
201	0xc03a7d10	-2.9138832
202	0xbf6efdea	-0.9335619
203	0xbfae4b9a	-1.3616822
204	0xbfbbe1b1	-1.467825
205	0x40051309	2.0792868
206	0xbfff0bcc	-1.9925475
207	0xbbccc1d2	-0.006248691
208	0xbb282cbd	-0.0025661432
209	0xbb409145	-0.0029383462
210	0x404da14e	3.2129703
211	0x3e734b60	0.23759222
212	0x3f6ffcbc	0.9374502
213	0xbc1b9222	-0.00949529
214	0xbbecca1c	-0.0072262418
215	0x3c0bdae9	0.008536079
216	0x4024fee2	2.5780568
217	0xbf0b9451	-0.5452319
218	0xbe25bfac	-0.16186398
219	0xc034e8e3	-2.8267143
220	0x3f73f509	0.9529577
221	0x3fb7304e	1.4311616
222	0xbf5d424f	-0.86429304
223	0x3dcd0645	0.100109614
224	0xc02b161e	-2.673225
225	0x3f991203	1.1958622
226	0xbe6c6a7c	-0.23087496
227	0xbfe2d5cd	-1.7721497
228	0xbfd59a68	-1.6687746
229	0x403f9946	2.99373
230	0x3fc666db	1.5500139
231	0x3bc8dc3f	0.006129771
232	0x3b8f53b3	0.0043739914
233	0x3999bde2	0.00029323908
234	0xbff19ba1	-1.8875619
235	0x3f8ad6d2	1.0846808
236	0x4011216f	2.2676656
237	0xc045a08b	-3.0879238
238	0x3fea8ee0	1.8324852
239	0xbf596347	-0.8491711
240	0x3ff79207	1.9341439
241	0x4004bd1d	2.0740426
242	0x3fb39729	1.4030505
243	0xc09f3fdb	-4.976545
244	0xc0076055	-2.1152546
245	0xc0588507	-3.3831193
246	0x3ad71bea	0.0016411517
247	0xbb75254b	-0.0037406262
248	0x3bd697fb	0.006548879
249	0xbfa2bc4e	-1.2713716
250	0xbfac3438	-1.3453436
251	0xc010067c	-2.2503958
252	0xc045db2f	-3.091503
253	0x3d9d7b46	0.07689528
254	0x3d9ae832	0.07563819
255	0xc0248b41	-2.5709994

linear1.bias f4 [128]
0	0x406866b3	3.6312683
1	0x40433aa4	3.0504541
2	0x406ad0e8	3.6690006
3	0x40c49f58	6.144451
4	0xbf6c1354	-0.9221699
5	0xbf636563	-0.8882658
6	0xbb98d63b	-0.00466421
7	0x4063ba73	3.558255
8	0xbeecc939	-0.4624727
9	0xc07651c1	-3.8487399
10	0x404bb7b5	3.1830876
11	0xc0573899	-3.3628294
12	0x40c5c19c	6.179884
13	0xbf822a59	-1.0169173
14	0xc002023e	-2.0313869
15	0xc06e7288	-3.7257404
16	0xc0469ceb	-3.1033275
17	0x400b1743	2.1732948
18	0xc0652ad3	-3.5807388
19	0x40e8a891	7.270577
20	0xbe27c28c	-0.16382807
21	0x40e915cc	7.2839108
22	0x40996c7d	4.794493
23	0xc0c1852a	-6.0475054
24	0x40bbbfda	5.8671694
25	0xbf88246c	-1.0636115
26	0x3f3d58bd	0.7396353
27	0xbb57a309	-0.0032903573
28	0xc1031bd7	-8.194297
29	0xc0f025d7	-7.504619
30	0xbf2850d3	-0.6574833
31	0xc072b36a	-3.7922006
32	0xc05da812	-3.4633832
33	0xbfd7db12	-1.686373
34	0xbee074d5	-0.43839136
35	0x3b323b4a	0.0027195984
36	0x40941c51	4.6284566
37	0x40ffff90	7.9999466
38	0x3fb95dc3	1.4481739
39	0xc0eac61c	-7.3366833
40	0xc0f27c7b	-7.5776954
41	0x3b397d60	0.002830349
42	0xc0b03177	-5.506038
43	0x3ba1d5f2	0.0049388343
44	0x40e7be87	7.2420077
45	0xba321a89	-0.0006794115
46	0xc0f9aeb3	-7.8025756
47	0x38267692	3.968791e-05
48	0xbbec0b03	-0.007203461
49	0xc0a6ef62	-5.2167215
50	0x3ba0ad23	0.004903452
51	0x3d92f620	0.07175851
52	0x3b249145	0.0025111001
53	0x40846b1f	4.1380763
54	0x40e97864	7.295946
55	0xbf817959	-1.0115157
56	0xc0980f24	-4.751848
57	0x3c241d50	0.010016754
58	0x40eee7b0	7.465782
59	0x3fc9dabc	1.5769877
60	0xbb9c98a5	-0.004778939
61	0x3ba392d3	0.004991868
62	0x3bc04aac	0.0058682766
63	0x3f9de479	1.2335349
64	0x40ce69d8	6.4504204
65	0x3f2cf11b	0.675554
66	0xbc5ab703	-0.013349297
67	0x407e275e	3.9711528
68	0x409c2952	4.880044
69	0xbc48d089	-0.01225675
70	0x408f874e	4.4852667
71	0x3bca4035	0.006172205
72	0x40e38d8f	7.11103
73	0x40a599b3	5.175012
74	0x405ec35b	3.4806736
75	0x40a4c521	5.1490636
76	0xbf2e6d6d	-0.6813572
77	0x3b407a99	0.002936995
78	0x40c604ea	6.1881
79	0xbde0fbde	-0.1098554
80	0x402bfe02	2.6873784
81	0xc01ff5b6	-2.499372
82	0xbc218106	-0.009857422
83	0x40f5d70a	7.6825
84	0xc0bbcd73	-5.8688293
85	0x40ee7647	7.451938
86	0xc0b2317b	-5.56854
87	0xc0deedd8	-6.9665337
88	0xc0bb5f31	-5.85537
89	0x41157083	9.339969
90	0xbe3d1ce1	-0.18468048
91	0x3b80df1c	0.0039328467
92	0x40a95e1a	5.292737
93	0xbff36176	-1.9014118
94	0xc0a5f2f9	-5.1859097
95	0x3b20c999	0.0024534224
96	0x3c1ae7be	0.009454666
97	0x405f2d5d	3.4871438
98	0xbd8973c3	-0.06711533
99	0xc0883022	-4.2558756
100	0xbdfb6c08	-0.12276465
101	0x3a9a8dc8	0.0011791522
102	0x3c1cd70b	0.009572755
103	0xc0a69182	-5.205262
104	0x408738ed	4.225699
105	0x3faa6959	1.33134
106	0x40a95bea	5.29247
107	0xbbad9647	-0.0052974555
108	0x3c0953a5	0.008381759
109	0xc096de4a	-4.714635
110	0xc072ca48	-3.7935963
111	0xc083b732	-4.1161127
112	0xbc1dfbd8	-0.009642564
113	0x3f16f5ad	0.5896862
114	0x40c0882d	6.016623
115	0xc088c7b6	-4.274379
116	0x4105424c	8.328686
117	0xc0a235ee	-5.069083
118	0xc0657132	-3.585034
119	0xc0525828	-3.2866306
120	0x3fd67dec	1.6757178
121	0x4082e826	4.0908384
122	0x40cf1c42	6.4721994
123	0xbc2ea608	-0.010659702
124	0xc0213c16	-2.5192924
125	0xc09850d9	-4.759869
126	0xc066fa27	-3.609018
127	0xbb8081a9	-0.0039217067

bn1.weight f4 [128]
0	0x3f800000	1.0
1	0x3f800000	1.0
2	0x3f800000	1.0
3	0x3f800000	1.0
4	0x3f800000	1.0
5	0x3f800000	1.0
6	0x3f800000	1.0
7	0x3f800000	1.0
8	0x3f800000	1.0
9	0x3f800000	1.0
10	0x3f800000	1.0
11	0x3f800000	1.0
12	0x3f800000	1.0
13	0x3f800000	1.0
14	0x3f800000	1.0
15	0x3f800000	1.0
16	0x3f800000	1.0
17	0x3f800000	1.0
18	0x3f800000	1.0
19	0x3f800000	1.0
20	0x3f800000	1.0
21	0x3f800000	1.0
22	0x3f800000	1.0
23	0x3f800000	1.0
24	0x3f800000	1.0
25	0x3f800000	1.0
26	0x3f800000	1.0
27	0x3f800000	1.0
28	0x3f800000	1.0
29	0x3f800000	1.0
30	0x3f800000	1.0
31	0x3f800000	1.0
32	0x3f800000	1.0
33	0x3f800000	1.0
34	0x3f800000	1.0
35	0x3f800000	1.0
36	0x3f800000	1.0
37	0x3f800000	1.0
38	0x3f800000	1.0
39	0x3f800000	1.0
40	0x3f800000	1.0
41	0x3f800000	1.0
42	0x3f800000	1.0
43	0x3f800000	1.0
44	0x3f800000	1.0
45	0x3f800000	1.0
46	0x3f800000	1.0
47	0x3f800000	1.0
48	0x3f800000	1.0
49	0x3f800000	1.0
50	0x3f800000	1.0
51	0x3f800000	1.0
52	0x3f800000	1.0
53	0x3f800000	1.0
54	0x3f800000	1.0
55	0x3f800000	1.0
56	0x3f800000	1.0
57	0x3f800000	1.0
58	0x3f800000	1.0
59	0x3f800000	1.0
60	0x3f800000	1.0
61	0x3f800000	1.0
62	0x3f800000	1.0
63	0x3f800000	1.0
64	0x3f800000	1.0
65	0x3f800000	1.0
66	0x3f800000	1.0
67	0x3f800000	1.0
68	0x3f800000	1.0
69	0x3f800000	1.0
70	0x3f800000	1.0
71	0x3f800000	1.0
72	0x3f800000	1.0
73	0x3f800000	1.0
74	0x3f800000	1.0
75	0x3f800000	1.0
76	0x3f800000	1.0
77	0x3f800000	1.0
78	0x3f800000	1.0
79	0x3f800000	1.0
80	0x3f800000	1.0
81	0x3f800000	1.0
82	0x3f800000	1.0
83	0x3f800000	1.0
84	0x3f800000	1.0
85	0x3f800000	1.0
86	0x3f800000	1.0
87	0x3f800000	1.0
88	0x3f800000	1.0
89	0x3f800000	1.0
90	0x3f800000	1.0
91	0x3f800000	1.0
92	0x3f800000	1.0
93	0x3f800000	1.0
94	0x3f800000	1.0
95	0x3f800000	1.0
96	0x3f800000	1.0
97	0x3f800000	1.0
98	0x3f800000	1.0
99	0x3f800000	1.0
100	0x3f800000	1.0
101	0x3f800000	1.0
102	0x3f800000	1.0
103	0x3f800000	1.0
104	0x3f800000	1.0
105	0x3f800000	1.0
106	0x3f800000	1.0
107	0x3f800000	1.0
108	0x3f800000	1.0
109	0x3f800000	1.0
110	0x3f800000	1.0
111	0x3f800000	1.0
112	0x3f800000	1.0
113	0x3f800000	1.0
114	0x3f800000	1.0
115	0x3f800000	1.0
116	0x3f800000	1.0
117	0x3f800000	1.0
118	0x3f800000	1.0
119	0x3f800000	1.0
120	0x3f800000	1.0
121	0x3f800000	1.0
122	0x3f800000	1.0
123	0x3f800000	1.0
124	0x3f800000	1.0
125	0x3f800000	1.0
126	0x3f800000	1.0
127	0x3f800000	1.0

bn1.bias f4 [128]
0	0x00000000	0.0
1	0x00000000	0.0
2	0x00000000	0.0
3	0x00000000	0.0
4	0x00000000	0.0
5	0x00000000	0.0
6	0x00000000	0.0
7	0x00000000	0.0
8	0x00000000	0.0
9	0x00000000	0.0
10	0x00000000	0.0
11	0x00000000	0.0
12	0x00000000	0.0
13	0x00000000	0.0
14	0x00000000	0.0
15	0x00000000	0.0
16	0x00000000	0.0
17	0x00000000	0.0
18	0x00000000	0.0
19	0x00000000	0.0
20	0x00000000	0.0
21	0x00000000	0.0
22	0x00000000	0.0
23	0x00000000	0.0
24	0x00000000	0.0
25	0x00000000	0.0
26	0x00000000	0.0
27	0x00000000	0.0
28	0x00000000	0.0
29	0x00000000	0.0
30	0x00000000	0.0
31	0x00000000	0.0
32	0x00000000	0.0
33	0x00000000	0.0
34	0x00000000	0.0
35	0x00000000	0.0
36	0x00000000	0.0
37	0x00000000	0.0
38	0x00000000	0.0
39	0x00000000	0.0
40	0x00000000	0.0
41	0x00000000	0.0
42	0x00000000	0.0
43	0x00000000	0.0
44	0x00000000	0.0
45	0x00000000	0.0
46	0x00000000	0.0
47	0x00000000	0.0
48	0x00000000	0.0
49	0x00000000	0.0
50	0x00000000	0.0
51	0x00000000	0.0
52	0x00000000	0.0
53	0x00000000	0.0
54	0x00000000	0.0
55	0x00000000	0.0
56	0x00000000	0.0
57	0x00000000	0.0
58	0x00000000	0.0
59	0x00000000	0.0
60	0x00000000	0.0
61	0x00000000	0.0
62	0x00000000	0.0
63	0x00000000	0.0
64	0x00000000	0.0
65	0x00000000	0.0
66	0x00000000	0.0
67	0x00000000	0.0
68	0x00000000	0.0
69	0x00000000	0.0
70	0x00000000	0.0
71	0x00000000	0.0
72	0x00000000	0.0
73	0x00000000	0.0
74	0x00000000	0.0
75	0x00000000	0.0
76	0x00000000	0.0
77	0x00000000	0.0
78	0x00000000	0.0
79	0x00000000	0.0
80	0x00000000	0.0
81	0x00000000	0.0
82	0x00000000	0.0
83	0x00000000	0.0
84	0x00000000	0.0
85	0x00000000	0.0
86	0x00000000	0.0
87	0x00000000	0.0
88	0x00000000	0.0
89	0x00000000	0.0
90	0x00000000	0.0
91	0x00000000	0.0
92	0x00000000	0.0
93	0x00000000	0.0
94	0x00000000	0.0
95	0x00000000	0.0
96	0x00000000	0.0
97	0x00000000	0.0
98	0x00000000	0.0
99	0x00000000	0.0
100	0x00000000	0.0
101	0x00000000	0.0
102	0x00000000	0.0
103	0x00000000	0.0
104	0x00000000	0.0
105	0x00000000	0.0
106	0x00000000	0.0
107	0x00000000	0.0
108	0x00000000	0.0
109	0x00000000	0.0
110	0x00000000	0.0
111	0x00000000	0.0
112	0x00000000	0.0
113	0x00000000	0.0
114	0x00000000	0.0
115	0x00000000	0.0
116	0x00000000	0.0
117	0x00000000	0.0
118	0x00000000	0.0
119	0x00000000	0.0
120	0x00000000	0.0
121	0x00000000	0.0
122	0x00000000	0.0
123	0x00000000	0.0
124	0x00000000	0.0
125	0x00000000	0.0
126	0x00000000	0.0
127	0x00000000	0.0

bn1.running_mean f4 [128]
0	0x00000000	0.0
1	0x00000000	0.0
2	0x00000000	0.0
3	0x00000000	0.0
4	0x00000000	0.0
5	0x00000000	0.0
6	0x00000000	0.0
7	0x00000000	0.0
8	0x00000000	0.0
9	0x00000000	0.0
10	0x00000000	0.0
11	0x00000000	0.0
12	0x00000000	0.0
13	0x00000000	0.0
14	0x00000000	0.0
15	0x00000000	0.0
16	0x00000000	0.0
17	0x00000000	0.0
18	0x00000000	0.0
19	0x00000000	0.0
20	0x00000000	0.0
21	0x00000000	0.0
22	0x00000000	0.0
23	0x00000000	0.0
24	0x00000000	0.0
25	0x00000000	0.0
26	0x00000000	0.0
27	0x00000000	0.0
28	0x00000000	0.0
29	0x00000000	0.0
30	0x00000000	0.0
31	0x00000000	0.0
32	0x00000000	0.0
33	0x00000000	0.0
34	0x00000000	0.0
35	0x00000000	0.0
36	0x00000000	0.0
37	0x00000000	0.0
38	0x00000000	0.0
39	0x00000000	0.0
40	0x00000000	0.0
41	0x00000000	0.0
42	0x00000000	0.0
43	0x00000000	0.0
44	0x00000000	0.0
45	0x00000000	0.0
46	0x00000000	0.0
47	0x00000000	0.0
48	0x00000000	0.0
49	0x00000000	0.0
50	0x00000000	0.0
51	0x00000000	0.0
52	0x00000000	0.0
53	0x00000000	0.0
54	0x00000000	0.0
55	0x00000000	0.0
56	0x00000000	0.0
57	0x00000000	0.0
58	0x00000000	0.0
59	0x00000000	0.0
60	0x00000000	0.0
61	0x00000000	0.0
62	0x00000000	0.0
63	0x00000000	0.0
64	0x00000000	0.0
65	0x00000000	0.0
66	0x00000000	0.0
67	0x00000000	0.0
68	0x00000000	0.0
69	0x00000000	0.0
70	0x00000000	0.0
71	0x00000000	0.0
72	0x00000000	0.0
73	0x00000000	0.0
74	0x00000000	0.0
75	0x00000000	0.0
76	0x00000000	0.0
77	0x00000000	0.0
78	0x00000000	0.0
79	0x00000000	0.0
80	0x00000000	0.0
81	0x00000000	0.0
82	0x00000000	0.0
83	0x00000000	0.0
84	0x00000000	0.0
85	0x00000000	0.0
86	0x00000000	0.0
87	0x00000000	0.0
88	0x00000000	0.0
89	0x00000000	0.0
90	0x00000000	0.0
91	0x00000000	0.0
92	0x00000000	0.0
93	0x00000000	0.0
94	0x00000000	0.0
95	0x00000000	0.0
96	0x00000000	0.0
97	0x00000000	0.0
98	0x00000000	0.0
99	0x00000000	0.0
100	0x00000000	0.0
101	0x00000000	0.0
102	0x00000000	0.0
103	0x00000000	0.0
104	0x00000000	0.0
105	0x00000000	0.0
106	0x00000000	0.0
107	0x00000000	0.0
108	0x00000000	0.0
109	0x00000000	0.0
110	0x00000000	0.0
111	0x00000000	0.0
112	0x00000000	0.0
113	0x00000000	0.0
114	0x00000000	0.0
115	0x00000000	0.0
116	0x00000000	0.0
117	0x00000000	0.0
118	0x00000000	0.0
119	0x00000000	0.0
120	0x00000000	0.0
121	0x00000000	0.0
122	0x00000000	0.0
123	0x00000000	0.0
124	0x00000000	0.0
125	0x00000000	0.0
126	0x00000000	0.0
127	0x00000000	0.0

bn1.running_var f4 [128]
0	0x3f800000	1.0
1	0x3f800000	1.0
2	0x3f800000	1.0
3	0x3f800000	1.0
4	0x3f800000	1.0
5	0x3f800000	1.0
6	0x3f800000	1.0
7	0x3f800000	1.0
8	0x3f800000	1.0
9	0x3f800000	1.0
10	0x3f800000	1.0
11	0x3f800000	1.0
12	0x3f800000	1.0
13	0x3f800000	1.0
14	0x3f800000	1.0
15	0x3f800000	1.0
16	0x3f800000	1.0
17	0x3f800000	1.0
18	0x3f800000	1.0
19	0x3f800000	1.0
20	0x3f800000	1.0
21	0x3f800000	1.0
22	0x3f800000	1.0
23	0x3f800000	1.0
24	0x3f800000	1.0
25	0x3f800000	1.0
26	0x3f800000	1.0
27	0x3f800000	1.0
28	0x3f800000	1.0
29	0x3f800000	1.0
30	0x3f800000	1.0
31	0x3f800000	1.0
32	0x3f800000	1.0
33	0x3f800000	1.0
34	0x3f800000	1.0
35	0x3f800000	1.0
36	0x3f800000	1.0
37	0x3f800000	1.0
38	0x3f800000	1.0
39	0x3f800000	1.0
40	0x3f800000	1.0
41	0x3f800000	1.0
42	0x3f800000	1.0
43	0x3f800000	1.0
44	0x3f800000	1.0
45	0x3f800000	1.0
46	0x3f800000	1.0
47	0x3f800000	1.0
48	0x3f800000	1.0
49	0x3f800000	1.0
50	0x3f800000	1.0
51	0x3f800000	1.0
52	0x3f800000	1.0
53	0x3f800000	1.0
54	0x3f800000	1.0
55	0x3f800000	1.0
56	0x3f800000	1.0
57	0x3f800000	1.0
58	0x3f800000	1.0
59	0x3f800000	1.0
60	0x3f800000	1.0
61	0x3f800000	1.0
62	0x3f800000	1.0
63	0x3f800000	1.0
64	0x3f800000	1.0
65	0x3f800000	1.0
66	0x3f800000	1.0
67	0x3f800000	1.0
68	0x3f800000	1.0
69	0x3f800000	1.0
70	0x3f800000	1.0
71	0x3f800000	1.0
72	0x3f800000	1.0
73	0x3f800000	1.0
74	0x3f800000	1.0
75	0x3f800000	1.0
76	0x3f800000	1.0
77	0x3f800000	1.0
78	0x3f800000	1.0
79	0x3f800000	1.0
80	0x3f800000	1.0
81	0x3f800000	1.0
82	0x3f800000	1.0
83	0x3f800000	1.0
84	0x3f800000	1.0
85	0x3f800000	1.0
86	0x3f800000	1.0
87	0x3f800000	1.0
88	0x3f800000	1.0
89	0x3f800000	1.0
90	0x3f800000	1.0
91	0x3f800000	1.0
92	0x3f800000	1.0
93	0x3f800000	1.0
94	0x3f800000	1.0
95	0x3f800000	1.0
96	0x3f800000	1.0
97	0x3f800000	1.0
98	0x3f800000	1.0
99	0x3f800000	1.0
100	0x3f800000	1.0
101	0x3f800000	1.0
102	0x3f800000	1.0
103	0x3f800000	1.0
104	0x3f800000	1.0
105	0x3f800000	1.0
106	0x3f800000	1.0
107	0x3f800000	1.0
108	0x3f800000	1.0
109	0x3f800000	1.0
110	0x3f800000	1.0
111	0x3f800000	1.0
112	0x3f800000	1.0
113	0x3f800000	1.0
114	0x3f800000	1.0
115	0x3f800000	1.0
116	0x3f800000	1.0
117	0x3f800000	1.0
118	0x3f800000	1.0
119	0x3f800000	1.0
120	0x3f800000	1.0
121	0x3f800000	1.0
122	0x3f800000	1.0
123	0x3f800000	1.0
124	0x3f800000	1.0
125	0x3f800000	1.0
126	0x3f800000	1.0
127	0x3f800000	1.0

linear2.weight f4 [128, 128]
0	0xbf81f418	-1.0152617
1	0xbf5dcf86	-0.8664478
2	0xbc9436a8	-0.018092468
3	0x3f3dc312	0.7412578
4	0x401d06b3	2.453534
5	0x3ed2d640	0.41179085
6	0xbc8ec255	-0.01742665
7	0x3f8ece36	1.115668
8	0xbedce8e8	-0.43146443
9	0xbec26b22	-0.3797236
10	0xbf5b84b1	-0.85749346
11	0xbfab7297	-1.3394345
12	0xbf19d4d6	-0.60090387
13	0x3e57fafa	0.21091834
14	0xbe69a6f8	-0.228176
15	0x3f9d49b3	1.2288116
16	0xbe9c2d4e	-0.30503315
17	0x3fc39c0b	1.5281996
18	0xbf255200	-0.6457825
19	0xbf0e84c9	-0.55671364
20	0xbf773efe	-0.96580493
21	0x3f988781	1.1916353
22	0xbe812f4d	-0.252314
23	0xbe11f4b4	-0.14253503
24	0x3e094894	0.13406593
25	0xbedb24a4	-0.42801392
26	0x3f63b784	0.889519
27	0xbb96fa58	-0.00460748
28	0xbfcb6942	-1.5891497
29	0xbf83a124	-1.0283551
30	0x401dffad	2.4687302
31	0x3fcb2e71	1.5873548
32	0x3eb43841	0.35199168
33	0x4065cb12	3.5905194
34	0x3e8681f8	0.26271033
35	0xbc00ba19	-0.007856869
36	0xbf17af50	-0.5925188
37	0x4040408a	3.0039392
38	0xc02760bf	-2.61528
39	0x3f68e90a	0.9098059
40	0x3d35f17c	0.04441975
41	0xbd095478	-0.03352782
42	0xbe3d170c	-0.18465823
43	0xbc57753c	-0.013150509
44	0xbf1ea77e	-0.6197432
45	0x3cc16ef6	0.02361248
46	0x3f604345	0.87602645
47	0xbccc50bc	-0.02494084
48	0x3c3f2845	0.011667316
49	0xbe8c5e42	-0.27415663
50	0xbc23cc0f	-0.009997382
51	0x40572fd8	3.3622952
52	0xbcc0b760	-0.02352494
53	0xbe96dc32	-0.2946487
54	0xbf2b5c48	-0.66937685
55	0xbf77fb22	-0.96867573
56	0x3d933cb9	0.07189316
57	0xb94fdaff	-0.00019822641
58	0xbf39deeb	-0.7260577
59	0x3f443301	0.76640326
60	0x3cedeeea	0.029044587
61	0x3c2f344c	0.010693621
62	0x3c53ee69	0.012935259
63	0x3f92772f	1.1442622
64	0xbebbc7d4	-0.36675894
65	0xc0466611	-3.0999796
66	0x3d4987dc	0.04920183
67	0x3ed27e99	0.4111221
68	0xc0a993c4	-5.299288
69	0x3cf70e21	0.030158104
70	0xbf68512b	-0.9074885
71	0x3b03a948	0.0020089913
72	0xbfa7951d	-1.3092381
73	0xc02897b3	-2.634259
74	0xbe8e6619	-0.2781227
75	0x3f73790e	0.9510659
76	0xbfd5b128	-1.6694689
77	0x3d079bb1	0.033107463
78	0xbdaf54bd	-0.085610844
79	0x3ca61283	0.020272499
80	0xbfda59b8	-1.705863
81	0x3f97014b	1.179727
82	0xbcb8d20b	-0.022561094
83	0x3f52d8c6	0.8236202
84	0x3faa793f	1.3318251
85	0x3cfa1793	0.03052882
86	0x3dd30472	0.10303582
87	0x3ee46467	0.4460785
88	0x3e8ea8fc	0.278633
89	0xbf6bf2a5	-0.9216712
90	0x401a2841	2.408707
91	0xbc7266a5	-0.01479498
92	0xbf8c78d5	-1.0974375
93	0xc03314d7	-2.798147
94	0xbcd88c66	-0.026434135
95	0x3c4ca7fe	0.012491224
96	0xbd47f186	-0.04881432
97	0xbfb10235	-1.3828799
98	0x3ffac7b0	1.959219
99	0xbe51bc4a	-0.20481983
100	0xbf8508bb	-1.0393289
101	0xbc6afb60	-0.014342159
102	0xbd0ff130	-0.035142124
103	0x3fd16347	1.6358422
104	0xc033ee9a	-2.811438
105	0xbf7cc637	-0.9873995
106	0xbe9dba86	-0.3080637
107	0x3c9adb16	0.018903296
108	0x3d419a92	0.04726655
109	0x3d319f86	0.043365024
110	0xbfcaa494	-1.5831475
111	0x3fb494fa	1.4107964
112	0x3d1343e4	0.035953417
113	0x3edf48c4	0.43610203
114	0xbfedfbd8	-1.8592482
115	0x3f544a36	0.82925737
116	0x3f24bc76	0.6435007
117	0xbfd89929	-1.6921741
118	0x3e469b13	0.19395094
119	0x3f597fb2	0.8496047
120	0xbfa7940d	-1.3092057
121	0xbed32110	-0.41236162
122	0xbfae37ee	-1.3610818
123	0xbb0382b4	-0.0020066919
124	0x3f9bedd6	1.2181957
125	0x3c6d3cbc	0.014479812
126	0x3ef0324e	0.4691338
127	0x3d102525	0.035191674
128	0x4007d192	2.1221662
129	0x3f20bb83	0.6278612
130	0x3f10eebd	0.56614286
131	0x3e85ec3b	0.26156792
132	0x4012e29e	2.2950816
133	0xbffce5c2	-1.9757617
134	0xbd670715	-0.05640324
135	0x3f81aab5	1.0130221
136	0xbe338f1e	-0.17535064
137	0xc0386943	-2.8814247
138	0x3f18f60d	0.59750444
139	0xbef861b3	-0.4851204
140	0xbfaf3891	-1.3689138
141	0xbe9c269c	-0.30498207
142	0xbffc64bd	-1.9718243
143	0xbf6681ee	-0.90042007
144	0x404a03cd	3.156482
145	0xbec0eda6	-0.3768131
146	0x3dd1c995	0.10243527
147	0x3fb8e266	1.4444091
148	0xbf01ca44	-0.5069926
149	0x3ea8f784	0.3300134
150	0x400e4f9c	2.223609
151	0x3e5ecae6	0.21757087
152	0x3f812364	1.0088925
153	0xbed623e1	-0.41824248
154	0x406dadcf	3.7137334
155	0xbd1e2b15	-0.038615305
156	0x400b565c	2.177146
157	0xbf96ff55	-1.1796671
158	0xbf059bcb	-0.52190846
159	0xbfcba319	-1.5909148
160	0xbf9ea9f3	-1.2395614
161	0x3fe4be10	1.7870502
162	0xbd8b2670	-0.06794441
163	0xbc81fa01	-0.015866281
164	0x3ed0ee2a	0.40806705
165	0xbfe6c4cd	-1.8028809
166	0xbfe85866	-1.8151977
167	0x3f8572e3	1.0425686
168	0x3ef48236	0.47755593
169	0xbc21dd05	-0.009879355
170	0xbfc41a50	-1.532053
171	0xbcfbeacc	-0.030751608
172	0xbdef76ce	-0.11692582
173	0xbc8b2fbd	-0.016990537
174	0x3fa3623f	1.2764357
175	0x3c81fb96	0.015867036
176	0xbce4a2a5	-0.027909586
177	0x3e649a02	0.22324374
178	0xbcc6d7e4	-0.024272867
179	0x400cf811	2.2026408
180	0xb9d3a118	-0.0004036508
181	0x3f7e95bd	0.9944723
182	0x3f0b66f1	0.5445395
183	0xbfb0a301	-1.3799745
184	0x40121264	2.2823725
185	0xbd10b0a3	-0.035324704
186	0x3f2dd3f5	0.67901546
187	0x4016ee04	2.3582773
188	0x3c980b26	0.018560003
189	0xbd089b92	-0.03335149
190	0x3c90575d	0.017619783
191	0x402b5d96	2.677587
192	0x3fa31486	1.2740638
193	0x3f2fd4b1	0.68683916
194	0x3cb58c6b	0.022161683
195	0x40491cc9	3.142382
196	0x401c31d8	2.4405422
197	0x3c18dbb6	0.009329727
198	0x3fbf0b23	1.4925274
199	0xbb005e57	-0.001958748
200	0x3f70a0ac	0.93995166
201	0x3f11e788	0.56993914
202	0x3fc4f543	1.5387348
203	0xbd4eea1a	-0.050516225
204	0xbf4b505a	-0.7941948
205	0xbc8609d3	-0.016362106
206	0xbf62875d	-0.884878
207	0xbfb96580	-1.44841
208	0x3ea750f1	0.3267894
209	0xbe8008b7	-0.2500665
210	0xbbb1bae9	-0.0054238928
211	0x3f740662	0.9532224
212	0xbea1d5ce	-0.31608433
213	0xc0096bd4	-2.1472063
214	0xc0765da3	-3.8494651
215	0x3d41c3a8	0.047305733
216	0xbf391053	-0.72290534
217	0x3f275433	0.6536285
218	0x3f8cccc4	1.099999
219	0xbb8d2f26	-0.004308599
220	0x3ef1dd93	0.4723936
221	0xbfe0dca9	-1.756734
222	0xbfa62575	-1.2980181
223	0x3c8c9af5	0.017163733
224	0xbc1bb6da	-0.009504044
225	0x3f33018f	0.69924253
226	0x4006aeeb	2.1044261
227	0x3fc4694e	1.5344636
228	0xbc4f0784	-0.012636069
229	0x3d23364d	0.039846707
230	0x3b2e1f65	0.0026569006
231	0x3f95f5bc	1.1715617
232	0x3ec28cfd	0.3799819
233	0xbc1ddf74	-0.009635795
234	0x408ecb4c	4.4623165
235	0x3a0b2c6f	0.00053090503
236	0xba02202f	-0.0004963902
237	0xc005781b	-2.0854557
238	0x3f27e3be	0.6558188
239	0x3f496c02	0.7868043
240	0x3c53ee2a	0.012935201
241	0x3fecc28e	1.8496873
242	0x3f1c7371	0.6111365
243	0xc0126b39	-2.2877944
244	0xbf95ebd5	-1.1712595
245	0xbe280235	-0.16407092
246	0xbfb6fb90	-1.4295521
247	0x3caabbbb	0.02084147
248	0xc00611b2	-2.09483
249	0x3f5e5965	0.86855155
250	0xbf9333c2	-1.150017
251	0xbd20a83c	-0.03922294
252	0xc01a248a	-2.4084802
253	0x3e2dcce0	0.16972685
254	0x3f52d86b	0.8236148
255	0x3c7b141a	0.015324617

linear2.bias f4 [128]
0	0xbf878a3e	-1.0589063
1	0x3ec2cfc1	0.3804913
2	0xc01c5d48	-2.4431934
3	0xbfee27fc	-1.8605952
4	0xc0012ae9	-2.018244
5	0xbfe09ec5	-1.7548453
6	0xbffaaf77	-1.9584798
7	0x3ff8dc39	1.9442207
8	0x3f5e5d9c	0.86861587
9	0xbda0ef00	-0.07858086
10	0xbd91e13c	-0.07123038
11	0x3ff86bd3	1.9407905
12	0xbff70252	-1.9297583
13	0xbdacffc7	-0.08447223
14	0x3ecfe8e3	0.40607366
15	0xbfa24e33	-1.2680115
16	0xbf7d303c	-0.98901725
17	0xc0925941	-4.5733953
18	0x4010b606	2.2611098
19	0x40694050	3.6445503
20	0xc0086156	-2.130941
21	0xbf8f177c	-1.1179042
22	0xbfcbd77e	-1.5925138
23	0xbcffc7ab	-0.031223139
24	0xbda4a390	-0.080390096
25	0x400e46ce	2.2230716
26	0x405047ce	3.2543826
27	0xbe90fb82	-0.28316885
28	0xbcbbb252	-0.022912178
29	0xc024f477	-2.577421
30	0x408a76d4	4.3270054
31	0x3ffcd80d	1.9753433
32	0xbf9382d3	-1.1524299
33	0xbfb9e17f	-1.4521941
34	0xc0204f66	-2.504846
35	0xc0019d6f	-2.025234
36	0xbf96cb16	-1.1780727
37	0xbf2b23c3	-0.66851443
38	0x40077da3	2.1170433
39	0x3f7832cc	0.9695251
40	0xc01b8e37	-2.430555
41	0x3f66b02e	0.9011258
42	0x3f94d0e3	1.1626247
43	0x401bd597	2.4349115
44	0xbedbe9e6	-0.42951888
45	0x4075e70d	3.8422272
46	0x3f8728e8	1.0559359
47	0x3ff78e24	1.9340253
48	0xbf0f22c0	-0.559124
49	0x401fe012	2.4980512
50	0x40112769	2.2680304
51	0xbff7f7f0	-1.937254
52	0xbfb475ae	-1.4098413
53	0x40019105	2.0244763
54	0x3f924738	1.1427984
55	0x4036979e	2.853004
56	0xc0295032	-2.6455197
57	0xc039ef71	-2.9052393
58	0x3f4945d6	0.78622186
59	0x3f64e236	0.8940767
60	0x4003a690	2.0570412
61	0x40065da6	2.0994658
62	0x3f1dfceb	0.6171405
63	0xc0480653	-3.125386
64	0xc0235d0b	-2.552554
65	0xc09422f0	-4.629265
66	0x3dedc2c8	0.11609417
67	0x4016d447	2.3567064
68	0x3ffefd39	1.9921027
69	0x3fa88873	1.3166641
70	0x4002efba	2.0458817
71	0xc0138d63	-2.3055046
72	0x3e214c42	0.15751746
73	0xc028b044	-2.6357584
74	0x40139e75	2.3065464
75	0xbfff6dfc	-1.995544
76	0xc088515f	-4.259933
77	0x3fecdfaf	1.8505763
78	0xc0692079	-3.642607
79	0xc0017d0b	-2.023257
80	0x3fefdd37	1.8739384
81	0xbffab7f2	-1.9587386
82	0x400b371b	2.1752384
83	0xc0087de4	-2.1326838
84	0x4016c8e4	2.3560114
85	0xc0e007d3	-7.000955
86	0xbff1a5aa	-1.8878682
87	0xbff1b966	-1.8884704
88	0x401ca0e8	2.447321
89	0x4063cd7e	3.5594172
90	0xc0050b2d	-2.078807
91	0x402733f8	2.612547
92	0x3f4ce661	0.8003903
93	0x3ffeda11	1.9910299
94	0x3ecca009	0.39965847
95	0xbfe89864	-1.8171506
96	0x403a65da	2.9124665
97	0xbea0375b	-0.31292233
98	0x402ed0a5	2.7314847
99	0x4006b100	2.1045532
100	0x4000ff93	2.015599
101	0x3f8bd152	1.0923254
102	0x401306f4	2.2972994
103	0xc09b8e73	-4.861139
104	0xc02d8983	-2.711518
105	0x3e690f57	0.22759758
106	0xbfdd0b62	-1.7269099
107	0xbf5a4f0e	-0.8527688
108	0xbf959771	-1.1686841
109	0x3ffa9832	1.9577696
110	0x3f52adc0	0.8229637
111	0x3ffd0d50	1.9769688
112	0xbec90c34	-0.39267123
113	0xc00f65da	-2.2405915
114	0xc030c78b	-2.7621791
115	0x400f9d1b	2.243964
116	0xbfa4446c	-1.2833381
117	0x3f058c99	0.5216766
118	0xbd252b62	-0.040324576
119	0xc03d1025	-2.9541104
120	0xbf804c50	-1.0023289
121	0xc002d913	-2.0444992
122	0xbffd06ae	-1.9767663
123	0xbfed1f5d	-1.8525196
124	0xc000b919	-2.0112975
125	0x40a8628d	5.26203
126	0xbf74bea1	-0.95603377
127	0x4007353c	2.1126242

bn2.weight f4 [128]
0	0x3f800000	1.0
1	0x3f800000	1.0
2	0x3f800000	1.0
3	0x3f800000	1.0
4	0x3f800000	1.0
5	0x3f800000	1.0
6	0x3f800000	1.0
7	0x3f800000	1.0
8	0x3f800000	1.0
9	0x3f800000	1.0
10	0x3f800000	1.0
11	0x3f800000	1.0
12	0x3f800000	1.0
13	0x3f800000	1.0
14	0x3f800000	1.0
15	0x3f800000	1.0
16	0x3f800000	1.0
17	0x3f800000	1.0
18	0x3f800000	1.0
19	0x3f800000	1.0
20	0x3f800000	1.0
21	0x3f800000	1.0
22	0x3f800000	1.0
23	0x3f800000	1.0
24	0x3f800000	1.0
25	0x3f800000	1.0
26	0x3f800000	1.0
27	0x3f800000	1.0
28	0x3f800000	1.0
29	0x3f800000	1.0
30	0x3f800000	1.0
31	0x3f800000	1.0
32	0x3f800000	1.0
33	0x3f800000	1.0
34	0x3f800000	1.0
35	0x3f800000	1.0
36	0x3f800000	1.0
37	0x3f800000	1.0
38	0x3f800000	1.0
39	0x3f800000	1.0
40	0x3f800000	1.0
41	0x3f800000	1.0
42	0x3f800000	1.0
43	0x3f800000	1.0
44	0x3f800000	1.0
45	0x3f800000	1.0
46	0x3f800000	1.0
47	0x3f800000	1.0
48	0x3f800000	1.0
49	0x3f800000	1.0
50	0x3f800000	1.0
51	0x3f800000	1.0
52	0x3f800000	1.0
53	0x3f800000	1.0
54	0x3f800000	1.0
55	0x3f800000	1.0
56	0x3f800000	1.0
57	0x3f800000	1.0
58	0x3f800000	1.0
59	0x3f800000	1.0
60	0x3f800000	1.0
61	0x3f800000	1.0
62	0x3f800000	1.0
63	0x3f800000	1.0
64	0x3f800000	1.0
65	0x3f800000	1.0
66	0x3f800000	1.0
67	0x3f800000	1.0
68	0x3f800000	1.0
69	0x3f800000	1.0
70	0x3f800000	1.0
71	0x3f800000	1.0
72	0x3f800000	1.0
73	0x3f800000	1.0
74	0x3f800000	1.0
75	0x3f800000	1.0
76	0x3f800000	1.0
77	0x3f800000	1.0
78	0x3f800000	1.0
79	0x3f800000	1.0
80	0x3f800000	1.0
81	0x3f800000	1.0
82	0x3f800000	1.0
83	0x3f800000	1.0
84	0x3f800000	1.0
85	0x3f800000	1.0
86	0x3f800000	1.0
87	0x3f800000	1.0
88	0x3f800000	1.0
89	0x3f800000	1.0
90	0x3f800000	1.0
91	0x3f800000	1.0
92	0x3f800000	1.0
93	0x3f800000	1.0
94	0x3f800000	1.0
95	0x3f800000	1.0
96	0x3f800000	1.0
97	0x3f800000	1.0
98	0x3f800000	1.0
99	0x3f800000	1.0
100	0x3f800000	1.0
101	0x3f800000	1.0
102	0x3f800000	1.0
103	0x3f800000	1.0
104	0x3f800000	1.0
105	0x3f800000	1.0
106	0x3f800000	1.0
107	0x3f800000	1.0
108	0x3f800000	1.0
109	0x3f800000	1.0
110	0x3f800000	1.0
111	0x3f800000	1.0
112	0x3f800000	1.0
113	0x3f800000	1.0
114	0x3f800000	1.0
115	0x3f800000	1.0
116	0x3f800000	1.0
117	0x3f800000	1.0
118	0x3f800000	1.0
119	0x3f800000	1.0
120	0x3f800000	1.0
121	0x3f800000	1.0
122	0x3f800000	1.0
123	0x3f800000	1.0
124	0x3f800000	1.0
125	0x3f800000	1.0
126	0x3f800000	1.0
127	0x3f800000	1.0

bn2.bias f4 [128]
0	0x00000000	0.0
1	0x00000000	0.0
2	0x00000000	0.0
3	0x00000000	0.0
4	0x00000000	0.0
5	0x00000000	0.0
6	0x00000000	0.0
7	0x00000000	0.0
8	0x00000000	0.0
9	0x00000000	0.0
10	0x00000000	0.0
11	0x00000000	0.0
12	0x00000000	0.0
13	0x00000000	0.0
14	0x00000000	0.0
15	0x00000000	0.0
16	0x00000000	0.0
17	0x00000000	0.0
18	0x00000000	0.0
19	0x00000000	0.0
20	0x00000000	0.0
21	0x00000000	0.0
22	0x00000000	0.0
23	0x00000000	0.0
24	0x00000000	0.0
25	0x00000000	0.0
26	0x00000000	0.0
27	0x00000000	0.0
28	0x00000000	0.0
29	0x00000000	0.0
30	0x00000000	0.0
31	0x00000000	0.0
32	0x00000000	0.0
33	0x00000000	0.0
34	0x00000000	0.0
35	0x00000000	0.0
36	0x00000000	0.0
37	0x00000000	0.0
38	0x00000000	0.0
39	0x00000000	0.0
40	0x00000000	0.0
41	0x00000000	0.0
42	0x00000000	0.0
43	0x00000000	0.0
44	0x00000000	0.0
45	0x00000000	0.0
46	0x00000000	0.0
47	0x00000000	0.0
48	0x00000000	0.0
49	0x00000000	0.0
50	0x00000000	0.0
51	0x00000000	0.0
52	0x00000000	0.0
53	0x00000000	0.0
54	0x00000000	0.0
55	0x00000000	0.0
56	0x00000000	0.0
57	0x00000000	0.0
58	0x00000000	0.0
59	0x00000000	0.0
60	0x00000000	0.0
61	0x00000000	0.0
62	0x00000000	0.0
63	0x00000000	0.0
64	0x00000000	0.0
65	0x00000000	0.0
66	0x00000000	0.0
67	0x00000000	0.0
68	0x00000000	0.0
69	0x00000000	0.0
70	0x00000000	0.0
71	0x00000000	0.0
72	0x00000000	0.0
73	0x00000000	0.0
74	0x00000000	0.0
75	0x00000000	0.0
76	0x00000000	0.0
77	0x00000000	0.0
78	0x00000000	0.0
79	0x00000000	0.0
80	0x00000000	0.0
81	0x00000000	0.0
82	0x00000000	0.0
83	0x00000000	0.0
84	0x00000000	0.0
85	0x00000000	0.0
86	0x00000000	0.0
87	0x00000000	0.0
88	0x00000000	0.0
89	0x00000000	0.0
90	0x00000000	0.0
91	0x00000000	0.0
92	0x00000000	0.0
93	0x00000000	0.0
94	0x00000000	0.0
95	0x00000000	0.0
96	0x00000000	0.0
97	0x00000000	0.0
98	0x00000000	0.0
99	0x00000000	0.0
100	0x00000000	0.0
101	0x00000000	0.0
102	0x00000000	0.0
103	0x00000000	0.0
104	0x00000000	0.0
105	0x00000000	0.0
106	0x00000000	0.0
107	0x00000000	0.0
108	0x00000000	0.0
109	0x00000000	0.0
110	0x00000000	0.0
111	0x00000000	0.0
112	0x00000000	0.0
113	0x00000000	0.0
114	0x00000000	0.0
115	0x00000000	0.0
116	0x00000000	0.0
117	0x00000000	0.0
118	0x00000000	0.0
119	0x00000000	0.0
120	0x00000000	0.0
121	0x00000000	0.0
122	0x00000000	0.0
123	0x00000000	0.0
124	0x00000000	0.0
125	0x00000000	0.0
126	0x00000000	0.0
127	0x00000000	0.0

bn2.running_mean f4 [128]
0	0x00000000	0.0
1	0x00000000	0.0
2	0x00000000	0.0
3	0x00000000	0.0
4	0x00000000	0.0
5	0x00000000	0.0
6	0x00000000	0.0
7	0x00000000	0.0
8	0x00000000	0.0
9	0x00000000	0.0
10	0x00000000	0.0
11	0x00000000	0.0
12	0x00000000	0.0
13	0x00000000	0.0
14	0x00000000	0.0
15	0x00000000	0.0
16	0x00000000	0.0
17	0x00000000	0.0
18	0x00000000	0.0
19	0x00000000	0.0
20	0x00000000	0.0
21	0x00000000	0.0
22	0x00000000	0.0
23	0x00000000	0.0
24	0x00000000	0.0
25	0x00000000	0.0
26	0x00000000	0.0
27	0x00000000	0.0
28	0x00000000	0.0
29	0x00000000	0.0
30	0x00000000	0.0
31	0x00000000	0.0
32	0x00000000	0.0
33	0x00000000	0.0
34	0x00000000	0.0
35	0x00000000	0.0
36	0x00000000	0.0
37	0x00000000	0.0
38	0x00000000	0.0
39	0x00000000	0.0
40	0x00000000	0.0
41	0x00000000	0.0
42	0x00000000	0.0
43	0x00000000	0.0
44	0x00000000	0.0
45	0x00000000	0.0
46	0x00000000	0.0
47	0x00000000	0.0
48	0x00000000	0.0
49	0x00000000	0.0
50	0x00000000	0.0
51	0x00000000	0.0
52	0x00000000	0.0
53	0x00000000	0.0
54	0x00000000	0.0
55	0x00000000	0.0
56	0x00000000	0.0
57	0x00000000	0.0
58	0x00000000	0.0
59	0x00000000	0.0
60	0x00000000	0.0
61	0x00000000	0.0
62	0x00000000	0.0
63	0x00000000	0.0
64	0x00000000	0.0
65	0x00000000	0.0
66	0x00000000	0.0
67	0x00000000	0.0
68	0x00000000	0.0
69	0x00000000	0.0
70	0x00000000	0.0
71	0x00000000	0.0
72	0x00000000	0.0
73	0x00000000	0.0
74	0x00000000	0.0
75	0x00000000	0.0
76	0x00000000	0.0
77	0x00000000	0.0
78	0x00000000	0.0
79	0x00000000	0.0
80	0x00000000	0.0
81	0x00000000	0.0
82	0x00000000	0.0
83	0x00000000	0.0
84	0x00000000	0.0
85	0x00000000	0.0
86	0x00000000	0.0
87	0x00000000	0.0
88	0x00000000	0.0
89	0x00000000	0.0
90	0x00000000	0.0
91	0x00000000	0.0
92	0x00000000	0.0
93	0x00000000	0.0
94	0x00000000	0.0
95	0x00000000	0.0
96	0x00000000	0.0
97	0x00000000	0.0
98	0x00000000	0.0
99	0x00000000	0.0
100	0x00000000	0.0
101	0x00000000	0.0
102	0x00000000	0.0
103	0x00000000	0.0
104	0x00000000	0.0
105	0x00000000	0.0
106	0x00000000	0.0
107	0x00000000	0.0
108	0x00000000	0.0
109	0x00000000	0.0
110	0x00000000	0.0
111	0x00000000	0.0
112	0x00000000	0.0
113	0x00000000	0.0
114	0x00000000	0.0
115	0x00000000	0.0
116	0x00000000	0.0
117	0x00000000	0.0
118	0x00000000	0.0
119	0x00000000	0.0
120	0x00000000	0.0
121	0x00000000	0.0
122	0x00000000	0.0
123	0x00000000	0.0
124	0x00000000	0.0
125	0x00000000	0.0
126	0x00000000	0.0
127	0x00000000	0.0

bn2.running_var f4 [128]
0	0x3f800000	1.0
1	0x3f800000	1.0
2	0x3f800000	1.0
3	0x3f800000	1.0
4	0x3f800000	1.0
5	0x3f800000	1.0
6	0x3f800000	1.0
7	0x3f800000	1.0
8	0x3f800000	1.0
9	0x3f800000	1.0
10	0x3f800000	1.0
11	0x3f800000	1.0
12	0x3f800000	1.0
13	0x3f800000	1.0
14	0x3f800000	1.0
15	0x3f800000	1.0
16	0x3f800000	1.0
17	0x3f800000	1.0
18	0x3f800000	1.0
19	0x3f800000	1.0
20	0x3f800000	1.0
21	0x3f800000	1.0
22	0x3f800000	1.0
23	0x3f800000	1.0
24	0x3f800000	1.0
25	0x3f800000	1.0
26	0x3f800000	1.0
27	0x3f800000	1.0
28	0x3f800000	1.0
29	0x3f800000	1.0
30	0x3f800000	1.0
31	0x3f800000	1.0
32	0x3f800000	1.0
33	0x3f800000	1.0
34	0x3f800000	1.0
35	0x3f800000	1.0
36	0x3f800000	1.0
37	0x3f800000	1.0
38	0x3f800000	1.0
39	0x3f800000	1.0
40	0x3f800000	1.0
41	0x3f800000	1.0
42	0x3f800000	1.0
43	0x3f800000	1.0
44	0x3f800000	1.0
45	0x3f800000	1.0
46	0x3f800000	1.0
47	0x3f800000	1.0
48	0x3f800000	1.0
49	0x3f800000	1.0
50	0x3f800000	1.0
51	0x3f800000	1.0
52	0x3f800000	1.0
53	0x3f800000	1.0
54	0x3f800000	1.0
55	0x3f800000	1.0
56	0x3f800000	1.0
57	0x3f800000	1.0
58	0x3f800000	1.0
59	0x3f800000	1.0
60	0x3f800000	1.0
61	0x3f800000	1.0
62	0x3f800000	1.0
63	0x3f800000	1.0
64	0x3f800000	1.0
65	0x3f800000	1.0
66	0x3f800000	1.0
67	0x3f800000	1.0
68	0x3f800000	1.0
69	0x3f800000	1.0
70	0x3f800000	1.0
71	0x3f800000	1.0
72	0x3f800000	1.0
73	0x3f800000	1.0
74	0x3f800000	1.0
75	0x3f800000	1.0
76	0x3f800000	1.0
77	0x3f800000	1.0
78	0x3f800000	1.0
79	0x3f800000	1.0
80	0x3f800000	1.0
81	0x3f800000	1.0
82	0x3f800000	1.0
83	0x3f800000	1.0
84	0x3f800000	1.0
85	0x3f800000	1.0
86	0x3f800000	1.0
87	0x3f800000	1.0
88	0x3f800000	1.0
89	0x3f800000	1.0
90	0x3f800000	1.0
91	0x3f800000	1.0
92	0x3f800000	1.0
93	0x3f800000	1.0
94	0x3f800000	1.0
95	0x3f800000	1.0
96	0x3f800000	1.0
97	0x3f800000	1.0
98	0x3f800000	1.0
99	0x3f800000	1.0
100	0x3f800000	1.0
101	0x3f800000	1.0
102	0x3f800000	1.0
103	0x3f800000	1.0
104	0x3f800000	1.0
105	0x3f800000	1.0
106	0x3f800000	1.0
107	0x3f800000	1.0
108	0x3f800000	1.0
109	0x3f800000	1.0
110	0x3f800000	1.0
111	0x3f800000	1.0
112	0x3f800000	1.0
113	0x3f800000	1.0
114	0x3f800000	1.0
115	0x3f800000	1.0
116	0x3f800000	1.0
117	0x3f800000	1.0
118	0x3f800000	1.0
119	0x3f800000	1.0
120	0x3f800000	1.0
121	0x3f800000	1.0
122	0x3f800000	1.0
123	0x3f800000	1.0
124	0x3f800000	1.0
125	0x3f800000	1.0
126	0x3f800000	1.0
127	0x3f800000	1.0

V.weight f4 [1, 128]
0	0x3eaad15b	0.3336285
1	0x4049a7ac	3.1508589
2	0xc0945666	-4.6355467
3	0x40137993	2.3042953
4	0x4013f5b3	2.3118713
5	0x3eef31a7	0.4671757
6	0x40158145	2.336015
7	0xc011abd5	-2.2761128
8	0xbfe3c1ba	-1.7793496
9	0x3f42df68	0.7612214
10	0xc0595648	-3.3958912
11	0xc013875b	-2.3051364
12	0x40125897	2.286657
13	0x4028ad6a	2.6355844
14	0x40780e89	3.8758872
15	0x3ed39e9b	0.41331944
16	0x3f833f5c	1.0253711
17	0x3f9839ed	1.1892678
18	0x4035241b	2.8303287
19	0xbf0a31de	-0.5398234
20	0x400dc7f1	2.2153285
21	0xc0d2c23b	-6.58621
22	0xc024567b	-2.5677783
23	0xc02ed3eb	-2.7316844
24	0xc0749fee	-3.8222613
25	0xc011b96f	-2.276943
26	0xbed153be	-0.40884203
27	0xbd537ea3	-0.051634442
28	0x40616280	3.521637
29	0x400aa3ed	2.1662552
30	0xbf2df638	-0.67953825
31	0xc0142f6f	-2.315395
32	0x40900c9a	4.5015383
33	0x3f0968a8	0.5367532
34	0x3fb5d45e	1.4205434
35	0x40123a2f	2.2848012
36	0x3fe2e918	1.7727385
37	0x4036dfd9	2.8574126
38	0xbfc3c611	-1.529482
39	0x406af64c	3.6712828
40	0xc0c4acc6	-6.1460905
41	0xbed3aa1c	-0.4134072
42	0xc04c088b	-3.1880214
43	0xbfbaac81	-1.4583894
44	0x3fea8b89	1.8323833
45	0xbec9c59e	-0.39408582
46	0x407ed035	3.981458
47	0xc0291be6	-2.6423278
48	0xc03dc55b	-2.9651706
49	0x407bf0e3	3.9365776
50	0xbfaf174b	-1.3678983
51	0x4013f043	2.3115394
52	0x3fc2e92e	1.5227411
53	0xc012c967	-2.2935426
54	0xc0018010	-2.0234413
55	0xbe511505	-0.20418175
56	0x3ed52972	0.41633183
57	0xc0a1a44d	-5.0513062
58	0xbfaec962	-1.3655207
59	0xbf11e179	-0.5698467
60	0xc0177973	-2.3667877
61	0xc00b84bb	-2.1799762
62	0x40806f63	4.013597
63	0xc06c8f0e	-3.6962314
64	0x3ffa8748	1.9572535
65	0x3f42a3d6	0.76031244
66	0xc0608d5d	-3.5086281
67	0xbf99e44c	-1.2022796
68	0xc013cb3f	-2.3092802
69	0xc02a5fb4	-2.6620913
70	0xc01bd16b	-2.4346569
71	0xbeba9d93	-0.36448345
72	0xbfaee9e0	-1.3665123
73	0xbe83bfd9	-0.25732306
74	0xc018e2c7	-2.3888414
75	0x40143ead	2.3163254
76	0x3f715e51	0.9428454
77	0xc011598f	-2.2710912
78	0x3fed8ef4	1.8559251
79	0x40145791	2.3178446
80	0xbf6c6d14	-0.9235394
81	0x4013d1ab	2.309672
82	0xc018bab7	-2.3863962
83	0x401b0ab9	2.4225295
84	0xbf9502a9	-1.1641437
85	0x3efd5666	0.4947998
86	0xc09fbf6f	-4.9921184
87	0xc0aafb0c	-5.3431454
88	0xbff562b4	-1.9170747
89	0xc02ec27f	-2.730621
90	0x40134515	2.3010914
91	0x40a3961d	5.1120744
92	0xbf72af1f	-0.94798464
93	0xc0135d3d	-2.3025658
94	0x3fb7e15e	1.4365652
95	0x405d20dc	3.4551306
96	0xbff9e88b	-1.9524091
97	0xc05bc5f3	-3.4339569
98	0xbf9af35f	-1.2105521
99	0x409016c3	4.5027785
100	0xc0138793	-2.3051498
101	0x3f7ccec7	0.9875302
102	0xc0201a9f	-2.5016248
103	0x3f7b99f4	0.9828179
104	0x3fe612ae	1.797445
105	0xbe17cdf4	-0.14824659
106	0x3eb266e9	0.3484414
107	0xbf0b4a62	-0.54410374
108	0x40306862	2.756371
109	0xc00bdeed	-2.1854813
110	0xc002a8e0	-2.0415573
111	0xc012646b	-2.287379
112	0xc060510c	-3.5049467
113	0x4019c6ee	2.4027667
114	0x3feb9c9a	1.8407166
115	0xc00a2bf1	-2.158932
116	0x3f784845	0.96985275
117	0xbec1fb17	-0.3788688
118	0xc056f63b	-3.3587787
119	0xbf269353	-0.6506855
120	0x3ce88f57	0.028388662
121	0xc0169663	-2.3529289
122	0x40128159	2.2891448
123	0x3f80537b	1.0025476
124	0x401f9b39	2.493849
125	0xbf5d1745	-0.8636363
126	0x3fe43598	1.7828856
127	0xc02416a5	-2.563882

mu.weight f4 [1, 128]
0	0x400bfe24	2.1873865
1	0xc0162926	-2.3462615
2	0xbeb2938e	-0.348782
3	0xbdaab7d3	-0.08335843
4	0xbda16b23	-0.07881763
5	0xbf951c30	-1.1649227
6	0x3c372124	0.011177335
7	0x3d92cfab	0.07168516
8	0x3f9112e2	1.1333888
9	0x3fe7ebaf	1.81188
10	0xbea80f65	-0.32824245
11	0x3d8faa4c	0.070149034
12	0xbd875364	-0.066077024
13	0x3f81ea79	1.014968
14	0x3f15ce76	0.5851816
15	0xbfb8843a	-1.4415352
16	0x3cad1b50	0.021131188
17	0x3f2edd22	0.6830617
18	0xbfc9fde0	-1.5780602
19	0xbea7f2db	-0.32802472
20	0xbd981c53	-0.074272774
21	0xc02a797e	-2.6636653
22	0x3f9262e8	1.1436434
23	0x3dba5353	0.09097924
24	0xc02c4bd5	-2.6921284
25	0x3e004c01	0.12528993
26	0x3f5cb5c3	0.86214846
27	0xc0779cf2	-3.8689542
28	0xbf06bba0	-0.52630043
29	0xbe1f3f5d	-0.15551515
30	0xbf550fb4	-0.83227086
31	0x3da7c3bd	0.08191631
32	0xbf118dc6	-0.56856954
33	0x3e171f4e	0.14758036
34	0xbf5fbd35	-0.8739808
35	0xbd9fdc41	-0.07805682
36	0x3f044678	0.51670027
37	0xc01cc5e7	-2.449579
38	0xbf29d628	-0.663424
39	0x3dcf175a	0.10111876
40	0xbf9544e9	-1.1661655
41	0xbf897227	-1.0737962
42	0xbf273b92	-0.6532527
43	0x3f351219	0.7073074
44	0x3e601632	0.21883467
45	0x3fb0d0e4	1.3813748
46	0xbf92164d	-1.1413056
47	0x3f667af1	0.90031344
48	0x3f976b1a	1.182956
49	0x3edc5e2a	0.4304059
50	0xbe76183c	-0.24032682
51	0xbda29df7	-0.07940286
52	0xbe9cad83	-0.3060113
53	0x3d9008de	0.07032941
54	0x3ff25387	1.893174
55	0xbfcadc2b	-1.584844
56	0x3e88efd2	0.26745468
57	0xbfbf9052	-1.4965918
58	0xbfc85b19	-1.5652801
59	0xc0221e77	-2.5331094
60	0x3e58dbb9	0.21177568
61	0x3d8c529e	0.068516955
62	0xc0212634	-2.5179567
63	0x3f42dac9	0.7611509
64	0xbdd1c26e	-0.10242163
65	0xbee7d387	-0.4527857
66	0x3fa8718c	1.3159652
67	0x3f730fd8	0.9494605
68	0x3d977995	0.07396237
69	0xbe8fb8f9	-0.2807081
70	0x3e27346f	0.16328596
71	0x40881445	4.2524743
72	0x3bdb1eea	0.006687035
73	0xbf025fcd	-0.5092743
74	0x3d390571	0.045171205
75	0xbdbe10cf	-0.0928055
76	0xc027edaf	-2.623882
77	0x3d90accf	0.070642106
78	0x3f6f8870	0.9356756
79	0xbdcb5aa7	-0.099294
80	0x3f3e3ec9	0.7431455
81	0xbd98f84f	-0.07469236
82	0x3d0b823a	0.03405974
83	0xbddbd8df	-0.10734724
84	0x3fd570fd	1.6675106
85	0x3f702de1	0.93820006
86	0x3edd24a9	0.43192032
87	0x3ee30f4c	0.44347608
88	0x3dcdb5a9	0.100444146
89	0xbea5afcf	-0.32360694
90	0xbd2aca14	-0.041696623
91	0x3f99f590	1.2028065
92	0xbec95384	-0.3932153
93	0x3da3d98f	0.080004804
94	0x3f206cb8	0.6266589
95	0x3f119f56	0.5688375
96	0xbe074635	-0.13210376
97	0x401f24a2	2.486611
98	0x3f8efcf3	1.1170944
99	0xbfb83a9d	-1.4392887
100	0x3db33acb	0.08751448
101	0xbef2fe2f	-0.47459552
102	0x3fdf856a	1.746259
103	0x3da96457	0.082710914
104	0x401d23fb	2.455321
105	0xc039c51c	-2.9026556
106	0xc03be81b	-2.9360416
107	0x3fa917cc	1.3210387
108	0x3f2b7ed9	0.6699043
109	0x3d767fdf	0.06018054
110	0x3fc0c018	1.5058622
111	0x3d7992b4	0.060930923
112	0xbf623a93	-0.8837063
113	0x3a65fc93	0.0008773293
114	0xbedf8757	-0.43657944
115	0x3dd7ee82	0.10543539
116	0x3fab7c6f	1.3397349
117	0xbea0c7e0	-0.31402493
118	0x3e26b19d	0.16278692
119	0x40109c21	2.2595294
120	0x3fddfac9	1.7342159
121	0x3f1009b7	0.56264824
122	0xbd9a28af	-0.07527291
123	0x3f9a288a	1.2043622
124	0xbd98de13	-0.07464232
125	0xbe14f39e	-0.14546058
126	0x40003759	2.0033782
127	0x3d49140e	0.04909139

L.weight f4 [1, 128]
0	0x3f8462cd	1.0342652
1	0xbc28807d	-0.01028454
2	0xbe37835e	-0.17921206
3	0x3ca14143	0.01968444
4	0x3cfcbc19	0.03085141
5	0x3d0971b2	0.033555694
6	0x3c0921dd	0.00836989
7	0xbca037e1	-0.019557895
8	0x3de2a790	0.11067116
9	0xbe741ea8	-0.2383982
10	0x3c213c6e	0.009841068
11	0xbca517bd	-0.02015292
12	0x3c9856bd	0.018596048
13	0x3dd8116b	0.10550197
14	0x3dc6df0f	0.09710514
15	0x3e0c75e4	0.13716847
16	0xbe0ebd18	-0.13939321
17	0x3d1d624b	0.038423818
18	0xbc48ae95	-0.012248655
19	0xbd98ba7f	-0.07457446
20	0x3c0d5f94	0.008628745
21	0xbdf6457a	-0.1202497
22	0x3c2cb012	0.010540025
23	0x3d4867f4	0.048927262
24	0xbb4eaa7e	-0.0031534727
25	0xbd96de71	-0.07366646
26	0xbe5032f5	-0.20331939
27	0xbeac77f1	-0.33685258
28	0xbb9a2120	-0.004703656
29	0xbca2affd	-0.019859308
30	0xbda6954b	-0.08133944
31	0xbcbc680b	-0.02299883
32	0x3cc4fc67	0.024046136
33	0xbdb4314a	-0.08798464
34	0x3e5d1db1	0.21593358
35	0x3ca94b61	0.020665826
36	0x3d00b20e	0.031419806
37	0x3dc7d15a	0.097567275
38	0xbd82eb13	-0.06392493
39	0x3d22d679	0.03975532
40	0xbea6c505	-0.3257219
41	0x3e786edb	0.24261038
42	0xbd2cd261	-0.04219282
43	0x3bacfd38	0.0052792095
44	0xbd33c770	-0.04389137
45	0x3e3c3f0b	0.18383424
46	0x3dfbbd9a	0.12292023
47	0xbcfa4f5e	-0.030555423
48	0xbd85c0e5	-0.06530932
49	0x3d8ded22	0.06929995
50	0x3e7fa84f	0.24966548
51	0x3d0a35fc	0.03374289
52	0x3c550213	0.013000983
53	0xbc744708	-0.014909513
54	0xbe09423f	-0.13404177
55	0x3cd732a7	0.02626927
56	0xbe9e1e6a	-0.3088258
57	0xbd1a3203	-0.03764535
58	0x3e8080d8	0.250983
59	0x3e8d9395	0.2765166
60	0xbcdd0b3d	-0.026982898
61	0xbca8a00f	-0.020584134
62	0xbd290890	-0.04126793
63	0xbcc4a317	-0.024003549
64	0x3d16726f	0.036730226
65	0xbebc4396	-0.36770314
66	0x3db7c94c	0.08973941
67	0x3d7f218a	0.062287845
68	0xbc9dff19	-0.01928668
69	0x3dc060fd	0.09393499
70	0xbd1626c2	-0.036658056
71	0x3dd47eae	0.10375725
72	0xbe55b7c8	-0.20870888
73	0x3d92c7d8	0.071670234
74	0xbe0ba9f8	-0.13639057
75	0x3d12e9cc	0.035867497
76	0x3e206ced	0.15666552
77	0xbc96afe3	-0.018394416
78	0x3d49fe1e	0.04931461
79	0x3d6b4ab2	0.057444282
80	0x3eb67861	0.35638717
81	0x3ca64291	0.020295413
82	0xbdc50d63	-0.09621694
83	0x3d5ebf2a	0.054381527
84	0x3c9ff55e	0.01952618
85	0xbc965c48	-0.01835455
86	0xbe41ae28	-0.18914092
87	0xbcb9dd0a	-0.022688407
88	0x3d5b288a	0.053505458
89	0xbd6e8d0d	-0.058239985
90	0x3d68df92	0.05685384
91	0x3c1775cb	0.009244393
92	0x3ecf57b2	0.40496594
93	0xbc75b89c	-0.014997628
94	0x3dd2b522	0.102884546
95	0x3e92e0f1	0.28687242
96	0xbdbdcdb9	-0.09267754
97	0xbd82d398	-0.063880146
98	0xbd7b6d29	-0.0613834
99	0x3db2e3fc	0.08734891
100	0xbc686444	-0.014184061
101	0xbe451135	-0.19244845
102	0x3dc63964	0.09678915
103	0x3c90fd20	0.017698824
104	0x3ca31089	0.019905346
105	0x3ea0ad54	0.3138224
106	0xbe42e23a	-0.19031611
107	0xbc633bc1	-0.013869227
108	0x3dff7c11	0.12474836
109	0xbd20309b	-0.039108854
110	0x3c21eb34	0.009882737
111	0xbc7422aa	-0.014900843
112	0x3e2b2d8f	0.16716598
113	0x3cc8166d	0.024424756
114	0xbaff3bb0	-0.0019472744
115	0xbdc0ec1d	-0.09420035
116	0xbda5f137	-0.08102649
117	0xbeca1389	-0.3946803
118	0x3c8a9b20	0.016919672
119	0xbf2640d7	-0.6494269
120	0xbf30e987	-0.69106334
121	0xbcad0bd1	-0.021123799
122	0x3ca2e463	0.019884294
123	0xbdbcb1e2	-0.09213616
124	0x3db50fb7	0.08840888
125	0xbbbd6756	-0.005780141
126	0x3d89678a	0.06709202
127	0xbdbec65d	-0.093151785
