real_robot_grasping/panda_demos/naf_env/src/models/naf_Pendulum-v0_512_.pth (torch_old, 76586 bytes, 19 tensors)

bn0.weight f4 [3]
000000 86 66 c0 3f 9c 36 d1 3f 34 68 f0 3f
       1.5031288 1.634479 1.87818

bn0.bias f4 [3]
000000 b2 ba 08 be 2b 67 a7 3b b8 5c a7 3d
       -0.13352469 0.005108734 0.081719816

bn0.running_mean f4 [3]
000000 a2 f3 39 3f e5 88 1e bc 06 e9 7b 3b
       0.7263738 -0.009676193 0.0038438453

bn0.running_var f4 [3]
000000 6f 7f a2 3e 88 8c 1e 3e 64 d1 43 40
       0.3173785 0.15483296 3.0596552

linear1.weight f4 [128, 3]
000000 96 74 ca bf 85 f9 61 be bf 72 70 bf 7e 19 a9 3f
       -1.5816829 -0.2206784 -0.9392509 1.3210905
000010 32 0a c0 bd ce a6 f6 3e 75 91 95 3e 14 22 4d 3d
       -0.093769446 0.48174137 0.29212537 0.050081328
000020 a1 d6 56 3e 20 11 d9 3f 05 24 9d 3e f6 b9 4f 3f
       0.20980312 1.6958351 0.30691543 0.8114313
000030 d9 5a 90 3f 75 2e fb be ca e6 83 bf bd 4b d0 bc
       1.1277725 -0.4905888 -1.0304806 -0.02542674
000040 3e 42 15 bf e6 49 09 40 ea ab 49 3c 77 bd 9a bb
       -0.583042 2.1451354 0.012309054 -0.004722293
000050 fd f4 87 bc da 32 49 3f 8a 40 8c 3f 94 de 19 3f
       -0.016596312 0.7859322 1.0957196 0.6010525
000060 3a 5e 60 3e c8 61 11 3f 5b a4 e3 be 05 b6 2a 3f
       0.21910945 0.5678983 -0.4446133 0.6668399
000070 cf 7b b1 3e f7 66 3f bf ff e0 0e 3f ac 09 cb 3e
       0.3466477 -0.74766487 0.55812067 0.39655817
000080 a7 a0 45 bf 80 93 89 be 73 aa 96 3f 0b bd 6b 3f
       -0.7719826 -0.26870346 1.1770767 0.9208533
000090 4f c9 09 3d ef 8b 9a 3f d1 dc 7e 3f 09 f5 59 3f
       0.03363925 1.2073954 0.9955569 0.8513952
0000a0 81 19 43 bf c0 df 1a 3f 21 d7 4a 3f b9 11 e4 3e
       -0.7621079 0.60497665 0.7923451 0.4454477
0000b0 0f 9c 2e bf 65 4e 52 bd 6a c6 8e bf 7f 29 14 c0
       -0.68206877 -0.051344294 -1.1154301 -2.3150327
0000c0 75 30 80 3f 85 dc 96 be 9d 04 93 bf f9 16 80 bf
       1.0014788 -0.29465118 -1.1485783 -1.0007011
0000d0 c8 a0 d2 3e 10 2d 2c bf 27 f4 94 3f 2d d2 06 3f
       0.4113829 -0.6725626 1.1637009 0.5266445
0000e0 f7 a7 90 3f 9a d2 7f bf 77 ac 49 be 1b 10 80 bf
       1.1301259 -0.9993073 -0.19694696 -1.0004915
0000f0 8e 69 9e 3f 4b 1b 40 3f b3 24 5a 3f e3 df b1 3f
       1.2375963 0.75041646 0.8521225 1.389645
000100 68 4a 14 be 33 99 8d 3c 66 5e 3b 3e 2f ab 67 bf
       -0.14481509 0.017284965 0.18297729 -0.9049558
000110 7c ab 3e bf 2b 6f 9f be df 78 98 bf 38 2a 78 bf
       -0.74480414 -0.31139502 -1.1911887 -0.9693942
000120 de 3d 66 3f 0a 59 d3 3e e8 3c 54 3f e5 54 85 be
       0.8993815 0.4127887 0.82905436 -0.26041332
000130 8a 4b b2 3d 8d 8f 7e 3f 27 44 9a 3f 41 8f 00 bf
       0.08705814 0.9943779 1.2052048 -0.5021859
000140 7b d1 8f bf 22 d5 89 bd c2 1b 40 bb 87 2e 51 3c
       -1.1235803 -0.06730105 -0.002931342 0.012767441
000150 19 fb 5b 3f e5 32 79 bf 42 c5 81 bf 78 c1 c2 bd
       0.8593002 -0.97343284 -1.0138323 -0.095095575
000160 1a 05 e0 3e 40 03 13 bf 91 7b 34 3f 7f bb 02 3f
       0.43753892 -0.57426834 0.7050105 0.51067346
000170 a3 fd df bf b3 d1 82 bf 40 27 66 3f d2 6f 8d 3f
       -1.7499279 -1.0220245 0.8990364 1.104975
000180 69 69 7e bf 88 95 27 3f a6 99 76 3f c7 ba c3 3e
       -0.99379593 0.6546254 0.963282 0.38228437
000190 9e 00 70 bf 66 b9 ff 3d 75 25 43 3f de cd 85 bf
       -0.9375094 0.12486534 0.7622903 -1.0453451
0001a0 65 86 ea 3e 99 17 77 bd 55 2f d7 3b 61 97 35 3c
       0.4580566 -0.06032524 0.0065669217 0.011083455
0001b0 b7 2d 55 3d a8 94 c1 be e8 f9 c2 3e 52 9f a4 3e
       0.05204555 -0.37808728 0.38081288 0.32152802
0001c0 7d d1 13 be 00 6a 53 bf 17 cb bc 3d d4 b3 1f 3f
       -0.14435382 -0.8258362 0.09218424 0.6238377
0001d0 28 30 09 bf 6a 4c 7a 3d e7 05 93 3e 37 e9 78 3f
       -0.53589106 0.06110803 0.2871544 0.9723086
0001e0 02 ae 6f 3d 4a b4 d6 3e e9 db 75 be a9 f7 e4 bd
       0.058515556 0.41934425 -0.2400967 -0.1118005
0001f0 52 07 ca 3c 7a a8 96 be 46 c2 1b 3f 47 40 3f 3f
       0.024661694 -0.29425412 0.6084331 0.74707454
000200 b5 a4 3e 3f 50 e1 fd 3b 7a 73 72 ba e3 5a 85 bc
       0.74470073 0.0077478066 -0.0009248775 -0.01627869
000210 ab 19 a6 3d 2f 5b e9 3d 26 6f 25 bf 23 d2 df 3f
       0.081103645 0.11394345 -0.64622724 1.7486004
000220 8b 87 c2 3e 3f 5b 64 be 68 65 a0 3e 75 86 80 be
       0.37994036 -0.22300433 0.31327367 -0.25102583
000230 99 4c 4b 3f f6 1a 78 3f 11 3e fc 3e c6 1c 96 bd
       0.79413754 0.9691614 0.49266103 -0.07329707
000240 0b 3b 21 be d9 10 1e 3e 64 eb 98 be 38 c1 bd be
       -0.1574518 0.15436114 -0.2986709 -0.37061477
000250 96 08 b8 bf e6 49 a3 bf d2 36 a2 3b 5c 2c 5b bb
       -1.437762 -1.2756927 0.0049503827 -0.0033443188
000260 e7 49 fe 3b 9e ed 2e bf cd ce 4e 3e eb a6 52 bf
       0.0077602747 -0.68331325 0.20196076 -0.82285947
000270 e1 72 22 be 88 74 94 3b a8 6f 9e 3c 1e e7 82 bf
       -0.15864135 0.004530493 0.019340351 -1.0226781
000280 72 35 4d be 26 f7 7b bf 30 9e 89 bf c2 5d 52 3f
       -0.20039919 -0.98423994 -1.07514 0.82174313
000290 f1 f9 70 3f b3 c1 4f bf 8c d5 f1 3e b6 3f ae 3f
       0.9413138 -0.81154937 0.47233236 1.3613193
0002a0 48 ce a6 3e 3d 9e 14 3f 2f b5 d9 be 0f bb 4f 3c
       0.32579255 0.5805395 -0.42521045 0.012678876
0002b0 17 54 63 3b 89 16 8c bb 0f 40 5d be 65 8e 8e 3f
       0.0034687573 -0.0042751473 -0.21606468 1.1137205
0002c0 63 f0 5e 3f 79 62 8f 3f 2d 8d 35 bf 0a 60 90 bf
       0.8708555 1.1201926 -0.7091854 -1.1279309
0002d0 67 5e 11 3c a2 34 6e 3a 7c 02 ff b7 f5 62 b8 3b
       0.008872605 0.00090868224 -3.0399526e-05 0.005627031
0002e0 0c 05 28 3a b5 68 bd bb b9 07 af bd c8 27 99 bc
       0.00064094434 -0.0057803043 -0.08546395 -0.018695727
0002f0 0b 6f e6 3e fa c0 92 3f 8c 2f aa be 83 d8 76 3f
       0.45006594 1.1465142 -0.332394 0.9642412
000300 61 ee 8b 3f f6 9e 08 3f 3b 02 a7 3e 7a 62 23 3f
       1.0932122 0.53367555 0.3261889 0.6382214
000310 8e 59 94 bf cf db 7a 3f 13 3b 11 bf 1f 55 42 3f
       -1.158983 0.9799165 -0.56730765 0.75911134
000320 b7 ac bb 3d 53 57 46 bd dd 9a 8d bf fa 90 3b bf
       0.09163802 -0.048423123 -1.1062886 -0.7326809
000330 6e da 38 be 92 87 44 3e 5e e2 5e bf 8d 47 24 3e
       -0.18052074 0.19192341 -0.8706416 0.1604292
000340 5a 6f 90 bb 37 2d 87 bc 8c 2b 6c 3f fa 3e df 3e
       -0.0044078054 -0.016501052 0.9225395 0.43602735
000350 e4 9e 38 3f c7 81 fc 3b b8 14 66 bb 75 1c b6 ba
       0.7211745 0.0077059004 -0.0035107564 -0.0013893979
000360 02 68 23 3f b6 52 8c bf 33 86 9e bf 72 1b 6d be
       0.6383058 -1.0962741 -1.2384704 -0.23155001
000370 f9 2b d0 be b9 b8 26 3f 89 62 65 bf 0e fe ce be
       -0.40658548 0.65125614 -0.8960348 -0.40428203
000380 6c 6e 1c bf 38 fe 61 bd a4 d2 81 be 65 49 81 bf
       -0.6110599 -0.055174083 -0.2535602 -1.0100523
000390 6c 73 90 be 5d 27 ea bd d0 ff 9a be 60 51 88 bb
       -0.2821306 -0.11433289 -0.30273294 -0.0041600913
0003a0 34 bc 93 bb 75 a3 b2 bb e4 03 8a bf 30 7e 6a 3e
       -0.0045085195 -0.0054516145 -1.0782437 0.22899699
0003b0 60 ea 97 3f e4 b0 b1 bf 99 3c 05 be 42 5e 7b bf
       1.18684 -1.3882108 -0.13011397 -0.981907
0003c0 60 92 94 3f dd 87 32 3f 3a 4f 6c 3f 3a f1 55 bf
       1.160717 0.6973856 0.9230839 -0.8357121
0003d0 81 42 70 bf d3 3d 6f bf 2f e5 0a 3e f7 db a3 3d
       -0.93851477 -0.9345371 0.13563989 0.08000939
0003e0 78 a7 fb 3d 28 1e 3a bf e5 f0 63 bf c4 f1 63 bf
       0.122878015 -0.72702265 -0.8903945 -0.8904078
0003f0 14 46 06 be b7 69 8f bd fd b2 b1 bd 16 68 5a bf
       -0.1311267 -0.070025854 -0.086767174 -0.8531507

linear1.bias f4 [128]
000000 f8 24 be 3f ce 86 08 bf 0e 00 47 3f 5f d7 9b 3f
       1.4855032 -0.53330696 0.7773446 1.2175101
000010 dc 0a 77 bd fc 06 11 bf 17 d8 82 bc 4e 3e 82 3f
       -0.06031309 -0.5665128 -0.01597218 1.0175264
000020 1d 2b fd be ea dc 97 be 6b af d2 3f b7 77 bf bf
       -0.49446955 -0.29660732 1.6459783 -1.4958409
000030 14 6e a5 3f 3d b9 0f bf e5 83 a3 be d7 53 e2 bf
       1.2924218 -0.56142026 -0.31936565 -1.7681836
000040 27 0f b3 bf b0 61 39 3f 68 72 03 bf 63 a0 92 3f
       -1.3988999 0.72414684 -0.51346445 1.1455196
000050 37 a7 dd 3d 26 1b 10 40 dc c3 9b 3f 2e 08 90 bf
       0.10822909 2.251657 1.2169147 -1.1252496
000060 b6 ef 9b bd 71 e5 0f 3f 21 90 85 be e2 8d 01 3f
       -0.076140806 0.56209475 -0.26086524 0.5060712
000070 50 25 cc bf 95 fb 02 bf a7 61 e0 bc b0 7f 6a bf
       -1.5948887 -0.51165134 -0.027390314 -0.91601086
000080 67 d0 5e bf d0 bb 8d 3f c3 88 56 3f 8e 7f 00 3f
       -0.87036747 1.1072941 0.8380243 0.50194633
000090 a8 80 61 3f 11 6d 5c 3f 4d 11 58 3f 2c 46 3e bf
       0.8808694 0.8610392 0.844014 -0.74325824
0000a0 6e 8a 3e bf f1 72 e3 be 16 17 9b bf 09 2c 85 bc
       -0.74429977 -0.4442363 -1.211642 -0.01625635
0000b0 a8 66 86 3e e1 34 31 3f 80 85 eb be e7 a2 b1 3e
       0.26250196 0.6922131 -0.4600029 0.34694597
0000c0 49 33 27 bf e0 95 b7 bf 2e 42 2b 3c 17 e3 1a 3d
       -0.6531263 -1.4342613 0.01045279 0.037814226
0000d0 6e b5 79 3f 59 b4 79 3f 23 6e c1 3f 2c 1d 3f bf
       0.97542465 0.97540814 1.5111736 -0.7465389
0000e0 d4 c3 d4 be a0 bf 1a 3d cd 77 b5 3f 1c e0 d4 3e
       -0.41555655 0.037780404 1.4177185 0.41577232
0000f0 88 84 b6 3b 5d b5 23 bc 9e d7 2c 3e 91 36 bb 3e
       0.005569998 -0.009991971 0.16879126 0.36565068
000100 7d a4 af 3f be b9 83 be e5 71 56 3f 05 70 b5 3f
       1.3722073 -0.25727648 0.8376754 1.4174811
000110 16 6b 71 be 8a fc 4d bf 78 8b 9b 3e f5 c5 ee 3b
       -0.23576006 -0.8046347 0.30379844 0.007286782
000120 2f 72 06 40 48 d9 4f 3e 24 f3 92 3f 0a 30 32 3f
       2.1007192 0.2029773 1.1480451 0.6960455
000130 fc 91 04 bf 12 10 15 bb ee 0b b9 3f fa 2d 80 be
       -0.51785254 -0.0022745174 1.4456766 -0.25035077
000140 70 17 c7 bf 5f b6 02 bf 19 4a af 3e 71 d2 cb 3f
       -1.5554028 -0.51059526 0.3423622 1.5923597
000150 79 c1 e3 be d1 04 94 3f 46 06 b4 bf 7a 3e 32 bf
       -0.44483545 1.156397 -1.4064415 -0.6962658
000160 83 f1 45 bf 42 ea 88 3f ff 47 9d 3e 32 48 b5 3f
       -0.7732164 1.069649 0.3071899 1.4162657
000170 c0 7d 9e 3f ac 47 49 bf aa 99 62 be 14 6e 86 bf
       1.2382126 -0.7862499 -0.2212893 -1.0502343
000180 d5 34 79 be 9d eb dc 3f d1 9b 68 bf 61 4f 49 bf
       -0.2433656 1.7259403 -0.90862757 -0.7863675
000190 e3 11 a2 3e 52 c9 18 bc 7a ef 48 3f cc 34 a9 bf
       0.3165427 -0.009325342 0.7849041 -1.3219237
0001a0 f6 5d 7a 3f d4 e7 41 3e 1e d4 c9 3f 40 7b 1c 3f
       0.97799623 0.18936092 1.5767858 0.61125565
0001b0 80 fd 98 bf 96 bf 95 bf 87 c9 19 bf 6e 29 e0 bf
       -1.1952362 -1.1699092 -0.6007313 -1.7512643
0001c0 f0 94 58 bc 45 73 31 3f 92 0b d5 3f cd 26 b5 3f
       -0.013219103 0.6931651 1.6644156 1.4152466
0001d0 6d d2 52 3f 63 cb 9e 3c 9b fb 47 bf a8 b5 9b bf
       0.82352334 0.019384092 -0.78118294 -1.2164812
0001e0 22 c5 93 3f 20 94 9a 3f a8 f4 bc 3d b5 fe 95 be
       1.1544535 1.2076454 0.09226352 -0.2929589
0001f0 a9 f9 62 bf e9 90 8c bf c4 57 97 bf 96 38 8f bc
       -0.886622 -1.0981723 -1.1823659 -0.017483037

bn1.weight f4 [128]
000000 00 00 80 3f 00 00 80 3f 00 00 80 3f 00 00 80 3f
       1.0 1.0 1.0 1.0
000010 00 00 80 3f 00 00 80 3f 00 00 80 3f 00 00 80 3f
       1.0 1.0 1.0 1.0
000020 00 00 80 3f 00 00 80 3f 00 00 80 3f 00 00 80 3f
       1.0 1.0 1.0 1.0
000030 00 00 80 3f 00 00 80 3f 00 00 80 3f 00 00 80 3f
       1.0 1.0 1.0 1.0
000040 00 00 80 3f 00 00 80 3f 00 00 80 3f 00 00 80 3f
       1.0 1.0 1.0 1.0
000050 00 00 80 3f 00 00 80 3f 00 00 80 3f 00 00 80 3f
       1.0 1.0 1.0 1.0
000060 00 00 80 3f 00 00 80 3f 00 00 80 3f 00 00 80 3f
       1.0 1.0 1.0 1.0
000070 00 00 80 3f 00 00 80 3f 00 00 80 3f 00 00 80 3f
       1.0 1.0 1.0 1.0
000080 00 00 80 3f 00 00 80 3f 00 00 80 3f 00 00 80 3f
       1.0 1.0 1.0 1.0
000090 00 00 80 3f 00 00 80 3f 00 00 80 3f 00 00 80 3f
       1.0 1.0 1.0 1.0
0000a0 00 00 80 3f 00 00 80 3f 00 00 80 3f 00 00 80 3f
       1.0 1.0 1.0 1.0
0000b0 00 00 80 3f 00 00 80 3f 00 00 80 3f 00 00 80 3f
       1.0 1.0 1.0 1.0
0000c0 00 00 80 3f 00 00 80 3f 00 00 80 3f 00 00 80 3f
       1.0 1.0 1.0 1.0
0000d0 00 00 80 3f 00 00 80 3f 00 00 80 3f 00 00 80 3f
       1.0 1.0 1.0 1.0
0000e0 00 00 80 3f 00 00 80 3f 00 00 80 3f 00 00 80 3f
       1.0 1.0 1.0 1.0
0000f0 00 00 80 3f 00 00 80 3f 00 00 80 3f 00 00 80 3f
       1.0 1.0 1.0 1.0
000100 00 00 80 3f 00 00 80 3f 00 00 80 3f 00 00 80 3f
       1.0 1.0 1.0 1.0
000110 00 00 80 3f 00 00 80 3f 00 00 80 3f 00 00 80 3f
       1.0 1.0 1.0 1.0
000120 00 00 80 3f 00 00 80 3f 00 00 80 3f 00 00 80 3f
       1.0 1.0 1.0 1.0
000130 00 00 80 3f 00 00 80 3f 00 00 80 3f 00 00 80 3f
       1.0 1.0 1.0 1.0
000140 00 00 80 3f 00 00 80 3f 00 00 80 3f 00 00 80 3f
       1.0 1.0 1.0 1.0
000150 00 00 80 3f 00 00 80 3f 00 00 80 3f 00 00 80 3f
       1.0 1.0 1.0 1.0
000160 00 00 80 3f 00 00 80 3f 00 00 80 3f 00 00 80 3f
       1.0 1.0 1.0 1.0
000170 00 00 80 3f 00 00 80 3f 00 00 80 3f 00 00 80 3f
       1.0 1.0 1.0 1.0
000180 00 00 80 3f 00 00 80 3f 00 00 80 3f 00 00 80 3f
       1.0 1.0 1.0 1.0
000190 00 00 80 3f 00 00 80 3f 00 00 80 3f 00 00 80 3f
       1.0 1.0 1.0 1.0
0001a0 00 00 80 3f 00 00 80 3f 00 00 80 3f 00 00 80 3f
       1.0 1.0 1.0 1.0
0001b0 00 00 80 3f 00 00 80 3f 00 00 80 3f 00 00 80 3f
       1.0 1.0 1.0 1.0
0001c0 00 00 80 3f 00 00 80 3f 00 00 80 3f 00 00 80 3f
       1.0 1.0 1.0 1.0
0001d0 00 00 80 3f 00 00 80 3f 00 00 80 3f 00 00 80 3f
       1.0 1.0 1.0 1.0
0001e0 00 00 80 3f 00 00 80 3f 00 00 80 3f 00 00 80 3f
       1.0 1.0 1.0 1.0
0001f0 00 00 80 3f 00 00 80 3f 00 00 80 3f 00 00 80 3f
       1.0 1.0 1.0 1.0

bn1.bias f4 [128]
000000 00 00 00 00 00 00 00 00 00 00 00 00 00 00 00 00
       0.0 0.0 0.0 0.0
000010 00 00 00 00 00 00 00 00 00 00 00 00 00 00 00 00
       0.0 0.0 0.0 0.0
000020 00 00 00 00 00 00 00 00 00 00 00 00 00 00 00 00
       0.0 0.0 0.0 0.0
000030 00 00 00 00 00 00 00 00 00 00 00 00 00 00 00 00
       0.0 0.0 0.0 0.0
000040 00 00 00 00 00 00 00 00 00 00 00 00 00 00 00 00
       0.0 0.0 0.0 0.0
000050 00 00 00 00 00 00 00 00 00 00 00 00 00 00 00 00
       0.0 0.0 0.0 0.0
000060 00 00 00 00 00 00 00 00 00 00 00 00 00 00 00 00
       0.0 0.0 0.0 0.0
000070 00 00 00 00 00 00 00 00 00 00 00 00 00 00 00 00
       0.0 0.0 0.0 0.0
000080 00 00 00 00 00 00 00 00 00 00 00 00 00 00 00 00
       0.0 0.0 0.0 0.0
000090 00 00 00 00 00 00 00 00 00 00 00 00 00 00 00 00
       0.0 0.0 0.0 0.0
0000a0 00 00 00 00 00 00 00 00 00 00 00 00 00 00 00 00
       0.0 0.0 0.0 0.0
0000b0 00 00 00 00 00 00 00 00 00 00 00 00 00 00 00 00
       0.0 0.0 0.0 0.0
0000c0 00 00 00 00 00 00 00 00 00 00 00 00 00 00 00 00
       0.0 0.0 0.0 0.0
0000d0 00 00 00 00 00 00 00 00 00 00 00 00 00 00 00 00
       0.0 0.0 0.0 0.0
0000e0 00 00 00 00 00 00 00 00 00 00 00 00 00 00 00 00
       0.0 0.0 0.0 0.0
0000f0 00 00 00 00 00 00 00 00 00 00 00 00 00 00 00 00
       0.0 0.0 0.0 0.0
000100 00 00 00 00 00 00 00 00 00 00 00 00 00 00 00 00
       0.0 0.0 0.0 0.0
000110 00 00 00 00 00 00 00 00 00 00 00 00 00 00 00 00
       0.0 0.0 0.0 0.0
000120 00 00 00 00 00 00 00 00 00 00 00 00 00 00 00 00
       0.0 0.0 0.0 0.0
000130 00 00 00 00 00 00 00 00 00 00 00 00 00 00 00 00
       0.0 0.0 0.0 0.0
000140 00 00 00 00 00 00 00 00 00 00 00 00 00 00 00 00
       0.0 0.0 0.0 0.0
000150 00 00 00 00 00 00 00 00 00 00 00 00 00 00 00 00
       0.0 0.0 0.0 0.0
000160 00 00 00 00 00 00 00 00 00 00 00 00 00 00 00 00
       0.0 0.0 0.0 0.0
000170 00 00 00 00 00 00 00 00 00 00 00 00 00 00 00 00
       0.0 0.0 0.0 0.0
000180 00 00 00 00 00 00 00 00 00 00 00 00 00 00 00 00
       0.0 0.0 0.0 0.0
000190 00 00 00 00 00 00 00 00 00 00 00 00 00 00 00 00
       0.0 0.0 0.0 0.0
0001a0 00 00 00 00 00 00 00 00 00 00 00 00 00 00 00 00
       0.0 0.0 0.0 0.0
0001b0 00 00 00 00 00 00 00 00 00 00 00 00 00 00 00 00
       0.0 0.0 0.0 0.0
0001c0 00 00 00 00 00 00 00 00 00 00 00 00 00 00 00 00
       0.0 0.0 0.0 0.0
0001d0 00 00 00 00 00 00 00 00 00 00 00 00 00 00 00 00
       0.0 0.0 0.0 0.0
0001e0 00 00 00 00 00 00 00 00 00 00 00 00 00 00 00 00
       0.0 0.0 0.0 0.0
0001f0 00 00 00 00 00 00 00 00 00 00 00 00 00 00 00 00
       0.0 0.0 0.0 0.0

bn1.running_mean f4 [128]
000000 00 00 00 00 00 00 00 00 00 00 00 00 00 00 00 00
       0.0 0.0 0.0 0.0
000010 00 00 00 00 00 00 00 00 00 00 00 00 00 00 00 00
       0.0 0.0 0.0 0.0
000020 00 00 00 00 00 00 00 00 00 00 00 00 00 00 00 00
       0.0 0.0 0.0 0.0
000030 00 00 00 00 00 00 00 00 00 00 00 00 00 00 00 00
       0.0 0.0 0.0 0.0
000040 00 00 00 00 00 00 00 00 00 00 00 00 00 00 00 00
       0.0 0.0 0.0 0.0
000050 00 00 00 00 00 00 00 00 00 00 00 00 00 00 00 00
       0.0 0.0 0.0 0.0
000060 00 00 00 00 00 00 00 00 00 00 00 00 00 00 00 00
       0.0 0.0 0.0 0.0
000070 00 00 00 00 00 00 00 00 00 00 00 00 00 00 00 00
       0.0 0.0 0.0 0.0
000080 00 00 00 00 00 00 00 00 00 00 00 00 00 00 00 00
       0.0 0.0 0.0 0.0
000090 00 00 00 00 00 00 00 00 00 00 00 00 00 00 00 00
       0.0 0.0 0.0 0.0
0000a0 00 00 00 00 00 00 00 00 00 00 00 00 00 00 00 00
       0.0 0.0 0.0 0.0
0000b0 00 00 00 00 00 00 00 00 00 00 00 00 00 00 00 00
       0.0 0.0 0.0 0.0
0000c0 00 00 00 00 00 00 00 00 00 00 00 00 00 00 00 00
       0.0 0.0 0.0 0.0
0000d0 00 00 00 00 00 00 00 00 00 00 00 00 00 00 00 00
       0.0 0.0 0.0 0.0
0000e0 00 00 00 00 00 00 00 00 00 00 00 00 00 00 00 00
       0.0 0.0 0.0 0.0
0000f0 00 00 00 00 00 00 00 00 00 00 00 00 00 00 00 00
       0.0 0.0 0.0 0.0
000100 00 00 00 00 00 00 00 00 00 00 00 00 00 00 00 00
       0.0 0.0 0.0 0.0
000110 00 00 00 00 00 00 00 00 00 00 00 00 00 00 00 00
       0.0 0.0 0.0 0.0
000120 00 00 00 00 00 00 00 00 00 00 00 00 00 00 00 00
       0.0 0.0 0.0 0.0
000130 00 00 00 00 00 00 00 00 00 00 00 00 00 00 00 00
       0.0 0.0 0.0 0.0
000140 00 00 00 00 00 00 00 00 00 00 00 00 00 00 00 00
       0.0 0.0 0.0 0.0
000150 00 00 00 00 00 00 00 00 00 00 00 00 00 00 00 00
       0.0 0.0 0.0 0.0
000160 00 00 00 00 00 00 00 00 00 00 00 00 00 00 00 00
       0.0 0.0 0.0 0.0
000170 00 00 00 00 00 00 00 00 00 00 00 00 00 00 00 00
       0.0 0.0 0.0 0.0
000180 00 00 00 00 00 00 00 00 00 00 00 00 00 00 00 00
       0.0 0.0 0.0 0.0
000190 00 00 00 00 00 00 00 00 00 00 00 00 00 00 00 00
       0.0 0.0 0.0 0.0
0001a0 00 00 00 00 00 00 00 00 00 00 00 00 00 00 00 00
       0.0 0.0 0.0 0.0
0001b0 00 00 00 00 00 00 00 00 00 00 00 00 00 00 00 00
       0.0 0.0 0.0 0.0
0001c0 00 00 00 00 00 00 00 00 00 00 00 00 00 00 00 00
       0.0 0.0 0.0 0.0
0001d0 00 00 00 00 00 00 00 00 00 00 00 00 00 00 00 00
       0.0 0.0 0.0 0.0
0001e0 00 00 00 00 00 00 00 00 00 00 00 00 00 00 00 00
       0.0 0.0 0.0 0.0
0001f0 00 00 00 00 00 00 00 00 00 00 00 00 00 00 00 00
       0.0 0.0 0.0 0.0

bn1.running_var f4 [128]
000000 00 00 80 3f 00 00 80 3f 00 00 80 3f 00 00 80 3f
       1.0 1.0 1.0 1.0
000010 00 00 80 3f 00 00 80 3f 00 00 80 3f 00 00 80 3f
       1.0 1.0 1.0 1.0
000020 00 00 80 3f 00 00 80 3f 00 00 80 3f 00 00 80 3f
       1.0 1.0 1.0 1.0
000030 00 00 80 3f 00 00 80 3f 00 00 80 3f 00 00 80 3f
       1.0 1.0 1.0 1.0
000040 00 00 80 3f 00 00 80 3f 00 00 80 3f 00 00 80 3f
       1.0 1.0 1.0 1.0
000050 00 00 80 3f 00 00 80 3f 00 00 80 3f 00 00 80 3f
       1.0 1.0 1.0 1.0
000060 00 00 80 3f 00 00 80 3f 00 00 80 3f 00 00 80 3f
       1.0 1.0 1.0 1.0
000070 00 00 80 3f 00 00 80 3f 00 00 80 3f 00 00 80 3f
       1.0 1.0 1.0 1.0
000080 00 00 80 3f 00 00 80 3f 00 00 80 3f 00 00 80 3f
       1.0 1.0 1.0 1.0
000090 00 00 80 3f 00 00 80 3f 00 00 80 3f 00 00 80 3f
       1.0 1.0 1.0 1.0
0000a0 00 00 80 3f 00 00 80 3f 00 00 80 3f 00 00 80 3f
       1.0 1.0 1.0 1.0
0000b0 00 00 80 3f 00 00 80 3f 00 00 80 3f 00 00 80 3f
       1.0 1.0 1.0 1.0
0000c0 00 00 80 3f 00 00 80 3f 00 00 80 3f 00 00 80 3f
       1.0 1.0 1.0 1.0
0000d0 00 00 80 3f 00 00 80 3f 00 00 80 3f 00 00 80 3f
       1.0 1.0 1.0 1.0
0000e0 00 00 80 3f 00 00 80 3f 00 00 80 3f 00 00 80 3f
       1.0 1.0 1.0 1.0
0000f0 00 00 80 3f 00 00 80 3f 00 00 80 3f 00 00 80 3f
       1.0 1.0 1.0 1.0
000100 00 00 80 3f 00 00 80 3f 00 00 80 3f 00 00 80 3f
       1.0 1.0 1.0 1.0
000110 00 00 80 3f 00 00 80 3f 00 00 80 3f 00 00 80 3f
       1.0 1.0 1.0 1.0
000120 00 00 80 3f 00 00 80 3f 00 00 80 3f 00 00 80 3f
       1.0 1.0 1.0 1.0
000130 00 00 80 3f 00 00 80 3f 00 00 80 3f 00 00 80 3f
       1.0 1.0 1.0 1.0
000140 00 00 80 3f 00 00 80 3f 00 00 80 3f 00 00 80 3f
       1.0 1.0 1.0 1.0
000150 00 00 80 3f 00 00 80 3f 00 00 80 3f 00 00 80 3f
       1.0 1.0 1.0 1.0
000160 00 00 80 3f 00 00 80 3f 00 00 80 3f 00 00 80 3f
       1.0 1.0 1.0 1.0
000170 00 00 80 3f 00 00 80 3f 00 00 80 3f 00 00 80 3f
       1.0 1.0 1.0 1.0
000180 00 00 80 3f 00 00 80 3f 00 00 80 3f 00 00 80 3f
       1.0 1.0 1.0 1.0
000190 00 00 80 3f 00 00 80 3f 00 00 80 3f 00 00 80 3f
       1.0 1.0 1.0 1.0
0001a0 00 00 80 3f 00 00 80 3f 00 00 80 3f 00 00 80 3f
       1.0 1.0 1.0 1.0
0001b0 00 00 80 3f 00 00 80 3f 00 00 80 3f 00 00 80 3f
       1.0 1.0 1.0 1.0
0001c0 00 00 80 3f 00 00 80 3f 00 00 80 3f 00 00 80 3f
       1.0 1.0 1.0 1.0
0001d0 00 00 80 3f 00 00 80 3f 00 00 80 3f 00 00 80 3f
       1.0 1.0 1.0 1.0
0001e0 00 00 80 3f 00 00 80 3f 00 00 80 3f 00 00 80 3f
       1.0 1.0 1.0 1.0
0001f0 00 00 80 3f 00 00 80 3f 00 00 80 3f 00 00 80 3f
       1.0 1.0 1.0 1.0

linear2.weight f4 [128, 128]
000000 bc 71 03 bb 02 d9 e6 be 3f 64 0b 3e e1 a7 3d be
       -0.0020056805 -0.4508744 0.1361246 -0.18521072
000010 c2 58 0b 3f d1 cc b7 3e 4b 8f 79 3c 1c 9a 60 bf
       0.5443231 0.3589845 0.015231918 -0.8773515
000020 e8 f1 81 3e ce 47 ee 3e f0 39 54 bf 9e 7f e6 bd
       0.25379872 0.46539158 -0.82900906 -0.1125481
000030 02 11 cc be c8 bc c8 3d f7 cb ed 3e 17 06 0e 3f
       -0.39856726 0.09801632 0.46444675 0.5547804
000040 c4 84 51 3e 3c 45 16 3d 6f 91 8f be bc ba a3 bd
       0.20460802 0.03668712 -0.28040645 -0.07994601
000050 fd 3d c3 be 8b fd 89 be ab 17 c6 3e a2 ee 7b 3f
       -0.3813323 -0.2695125 0.38689932 0.98411
000060 4e 68 cc be 67 42 e2 3d 64 b2 c9 3e 9c 6f 2e be
       -0.39923328 0.110478215 0.39393914 -0.17034763
000070 68 c5 6c 3f 17 56 91 bd a5 c9 25 3f 01 88 10 bf
       0.9248872 -0.070964985 0.6476081 -0.56457525
000080 9b 4e ca be fb b9 91 3d 72 29 0d 3f 7c a7 c1 bd
       -0.39513096 0.07115551 0.55141366 -0.09455773
000090 00 c5 9f be 7d f6 3a bf 82 65 08 bf 88 c1 a7 3e
       -0.31204987 -0.7303236 -0.5327989 0.3276484
0000a0 a7 a2 7c 3e 88 38 d6 bd c3 c5 57 bd d2 c6 35 3b
       0.24671422 -0.10460001 -0.052678835 0.0027736914
0000b0 19 09 dc be fd fe 0d be e6 ac b8 3c 0d d9 8c be
       -0.4297569 -0.13866802 0.022543382 -0.27509347
0000c0 0a e3 dd 3c 20 0a a6 3f a7 d7 f2 3c 07 7c c0 3d
       0.0270858 1.297184 0.029643847 0.09398656
0000d0 82 15 a4 be 1d 88 39 3e 5a 0e c3 be c2 e6 7a 3e
       -0.3204766 0.1811833 -0.38096887 0.2450209
0000e0 42 6d b8 3e 52 eb 51 bc 12 1c ee be 6a 82 de 3e
       0.36020857 -0.012812452 -0.4650579 0.43458873
0000f0 9e a2 37 bb 08 b9 68 3b 2c 84 81 3e 21 dd a9 3d
       -0.0028020511 0.0035510678 0.25296152 0.0829413
000100 f8 7f 01 bf bf ad 3b bd 6e 83 4d be e1 c6 d9 3d
       -0.5058589 -0.045819994 -0.20069668 0.10633636
000110 f5 41 e6 be f6 14 88 3e 28 48 04 bf 59 c1 9c 3d
       -0.44972196 0.26578492 -0.516726 0.07654066
000120 a8 68 f2 bd bc c8 cb be 9a b7 06 3e a2 6d 80 be
       -0.11836368 -0.39801586 0.13155976 -0.25083643
000130 1b 9a da bd a2 16 03 3b 24 7e 09 be 97 92 29 3e
       -0.106739245 0.0020002504 -0.13427025 0.16559826
000140 37 d9 6d 3d 0c ac 07 3f e5 0c c4 3c 95 4e 0b bd
       0.05806848 0.529969 0.02393193 -0.03401049
000150 a8 f7 0f 3d 2d 8f 00 bf 8f f2 cb be 11 c3 f3 3d
       0.035148293 -0.5021847 -0.39833495 0.1190244
000160 b0 ad 4e 3e 5f da a2 be 5d 12 26 3e 1f a0 08 bf
       0.20183444 -0.3180723 0.16217943 -0.53369325
000170 87 6c 9f bf 5b 2d b2 3e 58 26 c3 3e c7 25 ad be
       -1.2454995 0.34800228 0.3811519 -0.33817884
000180 d6 76 8b bc c9 ac 0c bf bc ea e0 3e 25 97 b5 3e
       -0.017024439 -0.5495115 0.43929088 0.35466877
000190 6d 02 d8 3d cb 18 2b 3b c3 f8 22 3e 6f 97 b6 3e
       0.10547338 0.0026107307 0.15915208 0.3566241
0001a0 77 81 18 be 81 1f 92 be 39 89 35 be 7c 59 06 bd
       -0.14893137 -0.2853966 -0.17728128 -0.032800183
0001b0 dd c4 c9 3e 72 a8 53 3f 93 4b 86 be 71 c3 5d 3f
       0.39408007 0.826789 -0.26229534 0.86626345
0001c0 f8 fd b9 bb a6 38 89 bc e2 49 55 3d 7c 79 81 bf
       -0.0056760274 -0.016750645 0.052072413 -1.0115199
0001d0 6d 62 e4 be 1f 4e 2f bf 55 a8 0c be df 6c 0d 3f
       -0.44606343 -0.6847858 -0.13736089 0.5524425
0001e0 a0 e9 d0 3d 1d 08 85 be e8 b2 02 3e 1a 1b a1 be
       0.102008104 -0.25982752 0.1276356 -0.3146599
0001f0 b2 97 be be 7a 5c 75 3f e4 99 14 3e 1e 3f 28 bc
       -0.3722511 0.95844233 0.1451183 -0.010268955
000200 2a e6 1d 3f b3 07 5f be d1 dc c8 3e f9 46 1b 3f
       0.6167933 -0.21780281 0.3923097 0.6065517
000210 34 09 53 3f 6b ac 32 3d b3 2f b8 3c 5f 2f b4 bd
       0.8243592 0.04362146 0.022483682 -0.08798098
000220 9a c0 99 3d bc 8f 8d 3e cb 92 0f bf ca f8 32 bf
       0.07507439 0.27648723 -0.56083363 -0.6991087
000230 e1 7a 02 3f 69 ac ec 3d 7f 00 01 3f 5b d5 f6 be
       0.5096875 0.11556322 0.5039138 -0.48209652
000240 0a 62 4e 3f 35 e1 27 bd 9a e9 b8 bd be fe 10 3f
       0.80618346 -0.04098626 -0.09028931 0.56638706
000250 b9 93 d9 bc 4b 2d 1c 3f 76 51 1b 3f b9 b1 00 bf
       -0.026559697 0.6100661 0.60671175 -0.50271183
000260 9f 98 4f 3c 47 60 90 3e f5 0f c9 3f 69 c0 9a 3d
       0.012670665 0.28198454 1.5707995 0.075562306
000270 b5 ee 44 be 3f d7 af be 25 be b7 3d f1 53 d1 bf
       -0.19231685 -0.34343907 0.08971814 -1.6353742
000280 21 de 30 bf 78 40 84 3e 1c d8 51 3f 35 e8 8f 3d
       -0.6908894 0.25830436 0.8197038 0.07026712
000290 5c 92 43 3e 00 74 a0 bd a6 94 f3 be 12 fb f6 3d
       0.190988 -0.07834625 -0.47574347 0.120596066
0002a0 18 47 84 bd 83 7a 65 be b3 51 77 bf 23 66 3a 3d
       -0.064588726 -0.22410016 -0.9660904 0.04550756
0002b0 4f 52 31 be c9 76 67 3e 4c f0 85 3e b5 a5 94 bc
       -0.17316554 0.22603907 0.26159894 -0.018145422
0002c0 07 ed 8d be 2c 3a d7 be 8a 73 2d bc 61 d6 8e be
       -0.277199 -0.4203657 -0.010586629 -0.27897933
0002d0 a6 75 73 3e 49 83 db 3e fc e0 38 be 6c aa ab be
       0.23775348 0.428736 -0.18054575 -0.3352846
0002e0 0c 8d f3 3d 73 f7 a6 3c 05 22 e9 3e da 26 f5 3f
       0.11892137 0.020381665 0.45533767 1.9152482
0002f0 f5 0e 11 3d 45 7b 9e 3b cd e8 e1 3d e3 6b da 3e
       0.035414655 0.004836472 0.11030731 0.42660436
000300 67 c5 98 3e f0 6b 38 3f 43 57 bc be 5e 3d 92 3f
       0.29838106 0.720397 -0.36785325 1.1424978
000310 6f e3 b9 be 59 80 20 bd 62 9d 5b 3e 92 aa a7 3d
       -0.3630633 -0.039184902 0.21446756 0.081868306
000320 89 01 27 3e 45 d7 c7 3d b7 5f 24 3f 2b 23 e1 bd
       0.1630918 0.09757856 0.6420855 -0.10993036
000330 1e 61 dc be 9e cb e1 3b 8e 7f 6b bf e4 42 ae be
       -0.43042845 0.006890728 -0.9199151 -0.34035408
000340 da fe a5 bf be ff c3 3d 07 53 2f 3e c3 a0 9e 3f
       -1.29684 0.09570263 0.17121516 1.239281
000350 91 6e 26 be 15 44 31 bf a6 55 36 bf 9f f0 d8 bc
       -0.16253115 -0.6924451 -0.7122444 -0.026481925
000360 f8 b5 da 3d 33 88 15 3e 9e c6 f2 3e 48 34 75 3e
       0.10679239 0.14602737 0.47417158 0.23945725
000370 ec 3f 0d 3f 8c f8 f2 be 33 1a cd 3e 6d 0a 76 be
       0.5517566 -0.4745525 0.4005905 -0.24027415
000380 66 05 75 3e 1b ad 67 be 00 e2 7f 3f 7a cf c0 3e
       0.2392784 -0.22624628 0.99954224 0.37658292
000390 09 88 a9 3e 53 7e 0b 3d a6 64 dc 3d 9e 5b d2 be
       0.331116 0.03405602 0.10761385 -0.41085523
0003a0 e1 99 fe 3e e8 73 9a 3e fb b7 93 3f 37 d1 13 be
       0.49726775 0.30166554 1.1540521 -0.14435278
0003b0 6f a8 c2 3c 18 be 5f bf b8 73 9e bd 32 d7 5f 3e
       0.023761956 -0.87399435 -0.07736915 0.21859434
0003c0 dc bf d7 ba b8 c1 05 be 40 9e 03 3f fe da fe 3e
       -0.0016460377 -0.13062179 0.51413345 0.49776453
0003d0 d3 87 e3 be 65 03 5b be 12 98 3e bf 03 dd b3 be
       -0.44439563 -0.21388014 -0.7445079 -0.35129556
0003e0 2f 16 90 bf df 01 06 3e 29 dc 95 be 5e 39 2f be
       -1.125677 0.13086651 -0.2926953 -0.17111728
0003f0 7e db 48 bf 03 96 cf bd bd 7d 15 bd e5 7c df 3c
       -0.7845992 -0.10136034 -0.036496866 0.027281234

linear2.bias f4 [128]
000000 63 f3 a3 be fe 2e cd 3c 3e 9a a5 3f 4f 3d 8d bf
       -0.32021627 0.025046822 1.2937696 -1.1034335
000010 b7 9d 9b bf f1 3d 64 bf 60 74 c7 be f0 18 95 3f
       -1.2157506 -0.89157015 -0.38955975 1.1648235
000020 1a b3 4d 3f f0 2c 8b bd bc fa 82 be cc 3d 8c 3f
       0.8035141 -0.067956805 -0.2558192 1.0956359
000030 05 d5 8c bf 22 6f 23 3e b6 49 24 3e 06 06 31 bd
       -1.1002508 0.15960363 0.16043743 -0.043218635
000040 54 ea 18 be a1 98 94 bd 75 c1 a0 bf 2b f5 86 3e
       -0.14933139 -0.07255674 -1.2559038 0.26358923
000050 2d 28 8f bf e8 39 32 3e 19 bf b4 3e b9 a0 64 3e
       -1.1184136 0.17404902 0.35302046 0.22326936
000060 06 d7 4a bf e8 df a1 3f 6a 2e 38 3f a2 94 d4 bd
       -0.7923435 1.2646456 0.7194582 -0.10379912
000070 b1 60 fe bc 77 2f 94 bf 94 8c 00 3f 0d 49 9d 3f
       -0.031051965 -1.1576985 0.50214505 1.2287918
000080 83 b2 d9 be 22 2e 79 bf 49 69 87 be 86 99 8c bf
       -0.42519006 -0.9733602 -0.26447514 -1.0984352
000090 89 68 03 bf de 7f 02 bf 36 d3 9b 3f 93 94 be bd
       -0.51331383 -0.5097636 1.2173831 -0.09305682
0000a0 00 95 0a be 82 92 39 be 27 37 94 be 46 48 61 3f
       -0.13533401 -0.18122295 -0.28948328 0.88000906
0000b0 b5 24 34 bf 77 3c 2f 3f c7 6b 27 be a1 9c 05 3f
       -0.7036851 0.6845164 -0.16349708 0.5219212
0000c0 8b d5 14 3f 14 71 5d 3e ed 1b 53 3f 52 ff 90 bf
       0.5813834 0.21625167 0.82464486 -1.1327918
0000d0 d6 60 d6 be 69 0f 9c 3f f6 11 97 3f a2 71 90 3e
       -0.41870755 1.2192203 1.1802356 0.28211695
0000e0 5c 46 13 be 23 e6 76 3f 7d 7f 26 3e 5e d7 24 3f
       -0.14382309 0.9644491 0.1625957 0.64391124
0000f0 41 3a 96 3f 72 72 94 3f d0 28 de be ae 99 2a 3e
       1.1736528 1.1597426 -0.43390512 0.16660187
000100 4a f2 85 bf dc 4b 29 be 32 4f 86 3d a6 42 16 be
       -1.0464566 -0.16532844 0.06558074 -0.14673862
000110 7d 88 1b 3e b8 b0 a0 3f df 02 9c 3f ce 14 0f be
       0.15188785 1.255393 1.2188376 -0.1397278
000120 36 1f 07 3f ef 61 92 bf 44 a9 91 3f d7 bc 50 bf
       0.52782 -1.1436137 1.1379781 -0.81538147
000130 a8 93 b0 be a3 c3 8b 3f 17 10 35 be ac 56 7b 3d
       -0.34487653 1.0919079 -0.17681919 0.061361954
000140 05 3f f9 be 7f f6 95 bf bb 29 fb 3e 6b b4 9c bf
       -0.48680893 -1.171585 0.49055275 -1.2242559
000150 f3 20 da 3e cb 46 aa be 39 80 22 be fb fd 85 3e
       0.42603263 -0.33257136 -0.15869226 0.26170334
000160 e3 41 9a 3f 36 a0 56 be 4c c9 2d bf 70 15 85 3e
       1.2051357 -0.20959553 -0.6788528 0.25992918
000170 a0 6e 48 be c7 66 a1 3f 24 f0 b0 be b7 c3 ce 3e
       -0.1957345 1.260949 -0.34558213 0.40383694
000180 a3 01 88 3f c7 c9 99 3d 04 43 df 3e 06 78 b1 be
       1.06255 0.07509189 0.43605816 -0.34661883
000190 1f 3d 0e 3f 28 77 34 3d b5 85 28 be b1 bf 32 3d
       0.55562013 0.04405895 -0.16457255 0.043639842
0001a0 05 f2 5e bf ba f0 0c be 2d 2e 35 be 64 dd bf 3c
       -0.8708804 -0.13763705 -0.17693396 0.023420997
0001b0 24 9c cc be a1 ba 87 3f 22 33 af bc 8e 05 9b 3f
       -0.39962876 1.060383 -0.021386687 1.211107
0001c0 b4 bf 4a 3f 12 21 c5 bc ef 6a 9a bf cb 83 17 3f
       0.79198766 -0.02406362 -1.2063884 0.59185475
0001d0 65 8a 3f bf aa a0 23 3d f7 5f af 3f f6 77 9f bf
       -0.7482055 0.039948143 1.3701161 -1.2458484
0001e0 e6 bd 19 3f 83 24 e9 be de 3a a0 bf 5e bb 43 bf
       0.6005539 -0.4553567 -1.2517965 -0.76457775
0001f0 5a 85 d1 be 57 c1 61 3f 1d d5 f2 be dc cd 92 3e
       -0.40922052 0.8818564 -0.47428218 0.28672683

bn2.weight f4 [128]
000000 00 00 80 3f 00 00 80 3f 00 00 80 3f 00 00 80 3f
       1.0 1.0 1.0 1.0
000010 00 00 80 3f 00 00 80 3f 00 00 80 3f 00 00 80 3f
       1.0 1.0 1.0 1.0
000020 00 00 80 3f 00 00 80 3f 00 00 80 3f 00 00 80 3f
       1.0 1.0 1.0 1.0
000030 00 00 80 3f 00 00 80 3f 00 00 80 3f 00 00 80 3f
       1.0 1.0 1.0 1.0
000040 00 00 80 3f 00 00 80 3f 00 00 80 3f 00 00 80 3f
       1.0 1.0 1.0 1.0
000050 00 00 80 3f 00 00 80 3f 00 00 80 3f 00 00 80 3f
       1.0 1.0 1.0 1.0
000060 00 00 80 3f 00 00 80 3f 00 00 80 3f 00 00 80 3f
       1.0 1.0 1.0 1.0
000070 00 00 80 3f 00 00 80 3f 00 00 80 3f 00 00 80 3f
       1.0 1.0 1.0 1.0
000080 00 00 80 3f 00 00 80 3f 00 00 80 3f 00 00 80 3f
       1.0 1.0 1.0 1.0
000090 00 00 80 3f 00 00 80 3f 00 00 80 3f 00 00 80 3f
       1.0 1.0 1.0 1.0
0000a0 00 00 80 3f 00 00 80 3f 00 00 80 3f 00 00 80 3f
       1.0 1.0 1.0 1.0
0000b0 00 00 80 3f 00 00 80 3f 00 00 80 3f 00 00 80 3f
       1.0 1.0 1.0 1.0
0000c0 00 00 80 3f 00 00 80 3f 00 00 80 3f 00 00 80 3f
       1.0 1.0 1.0 1.0
0000d0 00 00 80 3f 00 00 80 3f 00 00 80 3f 00 00 80 3f
       1.0 1.0 1.0 1.0
0000e0 00 00 80 3f 00 00 80 3f 00 00 80 3f 00 00 80 3f
       1.0 1.0 1.0 1.0
0000f0 00 00 80 3f 00 00 80 3f 00 00 80 3f 00 00 80 3f
       1.0 1.0 1.0 1.0
000100 00 00 80 3f 00 00 80 3f 00 00 80 3f 00 00 80 3f
       1.0 1.0 1.0 1.0
000110 00 00 80 3f 00 00 80 3f 00 00 80 3f 00 00 80 3f
       1.0 1.0 1.0 1.0
000120 00 00 80 3f 00 00 80 3f 00 00 80 3f 00 00 80 3f
       1.0 1.0 1.0 1.0
000130 00 00 80 3f 00 00 80 3f 00 00 80 3f 00 00 80 3f
       1.0 1.0 1.0 1.0
000140 00 00 80 3f 00 00 80 3f 00 00 80 3f 00 00 80 3f
       1.0 1.0 1.0 1.0
000150 00 00 80 3f 00 00 80 3f 00 00 80 3f 00 00 80 3f
       1.0 1.0 1.0 1.0
000160 00 00 80 3f 00 00 80 3f 00 00 80 3f 00 00 80 3f
       1.0 1.0 1.0 1.0
000170 00 00 80 3f 00 00 80 3f 00 00 80 3f 00 00 80 3f
       1.0 1.0 1.0 1.0
000180 00 00 80 3f 00 00 80 3f 00 00 80 3f 00 00 80 3f
       1.0 1.0 1.0 1.0
000190 00 00 80 3f 00 00 80 3f 00 00 80 3f 00 00 80 3f
       1.0 1.0 1.0 1.0
0001a0 00 00 80 3f 00 00 80 3f 00 00 80 3f 00 00 80 3f
       1.0 1.0 1.0 1.0
0001b0 00 00 80 3f 00 00 80 3f 00 00 80 3f 00 00 80 3f
       1.0 1.0 1.0 1.0
0001c0 00 00 80 3f 00 00 80 3f 00 00 80 3f 00 00 80 3f
       1.0 1.0 1.0 1.0
0001d0 00 00 80 3f 00 00 80 3f 00 00 80 3f 00 00 80 3f
       1.0 1.0 1.0 1.0
0001e0 00 00 80 3f 00 00 80 3f 00 00 80 3f 00 00 80 3f
       1.0 1.0 1.0 1.0
0001f0 00 00 80 3f 00 00 80 3f 00 00 80 3f 00 00 80 3f
       1.0 1.0 1.0 1.0

bn2.bias f4 [128]
000000 00 00 00 00 00 00 00 00 00 00 00 00 00 00 00 00
       0.0 0.0 0.0 0.0
000010 00 00 00 00 00 00 00 00 00 00 00 00 00 00 00 00
       0.0 0.0 0.0 0.0
000020 00 00 00 00 00 00 00 00 00 00 00 00 00 00 00 00
       0.0 0.0 0.0 0.0
000030 00 00 00 00 00 00 00 00 00 00 00 00 00 00 00 00
       0.0 0.0 0.0 0.0
000040 00 00 00 00 00 00 00 00 00 00 00 00 00 00 00 00
       0.0 0.0 0.0 0.0
000050 00 00 00 00 00 00 00 00 00 00 00 00 00 00 00 00
       0.0 0.0 0.0 0.0
000060 00 00 00 00 00 00 00 00 00 00 00 00 00 00 00 00
       0.0 0.0 0.0 0.0
000070 00 00 00 00 00 00 00 00 00 00 00 00 00 00 00 00
       0.0 0.0 0.0 0.0
000080 00 00 00 00 00 00 00 00 00 00 00 00 00 00 00 00
       0.0 0.0 0.0 0.0
000090 00 00 00 00 00 00 00 00 00 00 00 00 00 00 00 00
       0.0 0.0 0.0 0.0
0000a0 00 00 00 00 00 00 00 00 00 00 00 00 00 00 00 00
       0.0 0.0 0.0 0.0
0000b0 00 00 00 00 00 00 00 00 00 00 00 00 00 00 00 00
       0.0 0.0 0.0 0.0
0000c0 00 00 00 00 00 00 00 00 00 00 00 00 00 00 00 00
       0.0 0.0 0.0 0.0
0000d0 00 00 00 00 00 00 00 00 00 00 00 00 00 00 00 00
       0.0 0.0 0.0 0.0
0000e0 00 00 00 00 00 00 00 00 00 00 00 00 00 00 00 00
       0.0 0.0 0.0 0.0
0000f0 00 00 00 00 00 00 00 00 00 00 00 00 00 00 00 00
       0.0 0.0 0.0 0.0
000100 00 00 00 00 00 00 00 00 00 00 00 00 00 00 00 00
       0.0 0.0 0.0 0.0
000110 00 00 00 00 00 00 00 00 00 00 00 00 00 00 00 00
       0.0 0.0 0.0 0.0
000120 00 00 00 00 00 00 00 00 00 00 00 00 00 00 00 00
       0.0 0.0 0.0 0.0
000130 00 00 00 00 00 00 00 00 00 00 00 00 00 00 00 00
       0.0 0.0 0.0 0.0
000140 00 00 00 00 00 00 00 00 00 00 00 00 00 00 00 00
       0.0 0.0 0.0 0.0
000150 00 00 00 00 00 00 00 00 00 00 00 00 00 00 00 00
       0.0 0.0 0.0 0.0
000160 00 00 00 00 00 00 00 00 00 00 00 00 00 00 00 00
       0.0 0.0 0.0 0.0
000170 00 00 00 00 00 00 00 00 00 00 00 00 00 00 00 00
       0.0 0.0 0.0 0.0
000180 00 00 00 00 00 00 00 00 00 00 00 00 00 00 00 00
       0.0 0.0 0.0 0.0
000190 00 00 00 00 00 00 00 00 00 00 00 00 00 00 00 00
       0.0 0.0 0.0 0.0
0001a0 00 00 00 00 00 00 00 00 00 00 00 00 00 00 00 00
       0.0 0.0 0.0 0.0
0001b0 00 00 00 00 00 00 00 00 00 00 00 00 00 00 00 00
       0.0 0.0 0.0 0.0
0001c0 00 00 00 00 00 00 00 00 00 00 00 00 00 00 00 00
       0.0 0.0 0.0 0.0
0001d0 00 00 00 00 00 00 00 00 00 00 00 00 00 00 00 00
       0.0 0.0 0.0 0.0
0001e0 00 00 00 00 00 00 00 00 00 00 00 00 00 00 00 00
       0.0 0.0 0.0 0.0
0001f0 00 00 00 00 00 00 00 00 00 00 00 00 00 00 00 00
       0.0 0.0 0.0 0.0

bn2.running_mean f4 [128]
000000 00 00 00 00 00 00 00 00 00 00 00 00 00 00 00 00
       0.0 0.0 0.0 0.0
000010 00 00 00 00 00 00 00 00 00 00 00 00 00 00 00 00
       0.0 0.0 0.0 0.0
000020 00 00 00 00 00 00 00 00 00 00 00 00 00 00 00 00
       0.0 0.0 0.0 0.0
000030 00 00 00 00 00 00 00 00 00 00 00 00 00 00 00 00
       0.0 0.0 0.0 0.0
000040 00 00 00 00 00 00 00 00 00 00 00 00 00 00 00 00
       0.0 0.0 0.0 0.0
000050 00 00 00 00 00 00 00 00 00 00 00 00 00 00 00 00
       0.0 0.0 0.0 0.0
000060 00 00 00 00 00 00 00 00 00 00 00 00 00 00 00 00
       0.0 0.0 0.0 0.0
000070 00 00 00 00 00 00 00 00 00 00 00 00 00 00 00 00
       0.0 0.0 0.0 0.0
000080 00 00 00 00 00 00 00 00 00 00 00 00 00 00 00 00
       0.0 0.0 0.0 0.0
000090 00 00 00 00 00 00 00 00 00 00 00 00 00 00 00 00
       0.0 0.0 0.0 0.0
0000a0 00 00 00 00 00 00 00 00 00 00 00 00 00 00 00 00
       0.0 0.0 0.0 0.0
0000b0 00 00 00 00 00 00 00 00 00 00 00 00 00 00 00 00
       0.0 0.0 0.0 0.0
0000c0 00 00 00 00 00 00 00 00 00 00 00 00 00 00 00 00
       0.0 0.0 0.0 0.0
0000d0 00 00 00 00 00 00 00 00 00 00 00 00 00 00 00 00
       0.0 0.0 0.0 0.0
0000e0 00 00 00 00 00 00 00 00 00 00 00 00 00 00 00 00
       0.0 0.0 0.0 0.0
0000f0 00 00 00 00 00 00 00 00 00 00 00 00 00 00 00 00
       0.0 0.0 0.0 0.0
000100 00 00 00 00 00 00 00 00 00 00 00 00 00 00 00 00
       0.0 0.0 0.0 0.0
000110 00 00 00 00 00 00 00 00 00 00 00 00 00 00 00 00
       0.0 0.0 0.0 0.0
000120 00 00 00 00 00 00 00 00 00 00 00 00 00 00 00 00
       0.0 0.0 0.0 0.0
000130 00 00 00 00 00 00 00 00 00 00 00 00 00 00 00 00
       0.0 0.0 0.0 0.0
000140 00 00 00 00 00 00 00 00 00 00 00 00 00 00 00 00
       0.0 0.0 0.0 0.0
000150 00 00 00 00 00 00 00 00 00 00 00 00 00 00 00 00
       0.0 0.0 0.0 0.0
000160 00 00 00 00 00 00 00 00 00 00 00 00 00 00 00 00
       0.0 0.0 0.0 0.0
000170 00 00 00 00 00 00 00 00 00 00 00 00 00 00 00 00
       0.0 0.0 0.0 0.0
000180 00 00 00 00 00 00 00 00 00 00 00 00 00 00 00 00
       0.0 0.0 0.0 0.0
000190 00 00 00 00 00 00 00 00 00 00 00 00 00 00 00 00
       0.0 0.0 0.0 0.0
0001a0 00 00 00 00 00 00 00 00 00 00 00 00 00 00 00 00
       0.0 0.0 0.0 0.0
0001b0 00 00 00 00 00 00 00 00 00 00 00 00 00 00 00 00
       0.0 0.0 0.0 0.0
0001c0 00 00 00 00 00 00 00 00 00 00 00 00 00 00 00 00
       0.0 0.0 0.0 0.0
0001d0 00 00 00 00 00 00 00 00 00 00 00 00 00 00 00 00
       0.0 0.0 0.0 0.0
0001e0 00 00 00 00 00 00 00 00 00 00 00 00 00 00 00 00
       0.0 0.0 0.0 0.0
0001f0 00 00 00 00 00 00 00 00 00 00 00 00 00 00 00 00
       0.0 0.0 0.0 0.0

bn2.running_var f4 [128]
000000 00 00 80 3f 00 00 80 3f 00 00 80 3f 00 00 80 3f
       1.0 1.0 1.0 1.0
000010 00 00 80 3f 00 00 80 3f 00 00 80 3f 00 00 80 3f
       1.0 1.0 1.0 1.0
000020 00 00 80 3f 00 00 80 3f 00 00 80 3f 00 00 80 3f
       1.0 1.0 1.0 1.0
000030 00 00 80 3f 00 00 80 3f 00 00 80 3f 00 00 80 3f
       1.0 1.0 1.0 1.0
000040 00 00 80 3f 00 00 80 3f 00 00 80 3f 00 00 80 3f
       1.0 1.0 1.0 1.0
000050 00 00 80 3f 00 00 80 3f 00 00 80 3f 00 00 80 3f
       1.0 1.0 1.0 1.0
000060 00 00 80 3f 00 00 80 3f 00 00 80 3f 00 00 80 3f
       1.0 1.0 1.0 1.0
000070 00 00 80 3f 00 00 80 3f 00 00 80 3f 00 00 80 3f
       1.0 1.0 1.0 1.0
000080 00 00 80 3f 00 00 80 3f 00 00 80 3f 00 00 80 3f
       1.0 1.0 1.0 1.0
000090 00 00 80 3f 00 00 80 3f 00 00 80 3f 00 00 80 3f
       1.0 1.0 1.0 1.0
0000a0 00 00 80 3f 00 00 80 3f 00 00 80 3f 00 00 80 3f
       1.0 1.0 1.0 1.0
0000b0 00 00 80 3f 00 00 80 3f 00 00 80 3f 00 00 80 3f
       1.0 1.0 1.0 1.0
0000c0 00 00 80 3f 00 00 80 3f 00 00 80 3f 00 00 80 3f
       1.0 1.0 1.0 1.0
0000d0 00 00 80 3f 00 00 80 3f 00 00 80 3f 00 00 80 3f
       1.0 1.0 1.0 1.0
0000e0 00 00 80 3f 00 00 80 3f 00 00 80 3f 00 00 80 3f
       1.0 1.0 1.0 1.0
0000f0 00 00 80 3f 00 00 80 3f 00 00 80 3f 00 00 80 3f
       1.0 1.0 1.0 1.0
000100 00 00 80 3f 00 00 80 3f 00 00 80 3f 00 00 80 3f
       1.0 1.0 1.0 1.0
000110 00 00 80 3f 00 00 80 3f 00 00 80 3f 00 00 80 3f
       1.0 1.0 1.0 1.0
000120 00 00 80 3f 00 00 80 3f 00 00 80 3f 00 00 80 3f
       1.0 1.0 1.0 1.0
000130 00 00 80 3f 00 00 80 3f 00 00 80 3f 00 00 80 3f
       1.0 1.0 1.0 1.0
000140 00 00 80 3f 00 00 80 3f 00 00 80 3f 00 00 80 3f
       1.0 1.0 1.0 1.0
000150 00 00 80 3f 00 00 80 3f 00 00 80 3f 00 00 80 3f
       1.0 1.0 1.0 1.0
000160 00 00 80 3f 00 00 80 3f 00 00 80 3f 00 00 80 3f
       1.0 1.0 1.0 1.0
000170 00 00 80 3f 00 00 80 3f 00 00 80 3f 00 00 80 3f
       1.0 1.0 1.0 1.0
000180 00 00 80 3f 00 00 80 3f 00 00 80 3f 00 00 80 3f
       1.0 1.0 1.0 1.0
000190 00 00 80 3f 00 00 80 3f 00 00 80 3f 00 00 80 3f
       1.0 1.0 1.0 1.0
0001a0 00 00 80 3f 00 00 80 3f 00 00 80 3f 00 00 80 3f
       1.0 1.0 1.0 1.0
0001b0 00 00 80 3f 00 00 80 3f 00 00 80 3f 00 00 80 3f
       1.0 1.0 1.0 1.0
0001c0 00 00 80 3f 00 00 80 3f 00 00 80 3f 00 00 80 3f
       1.0 1.0 1.0 1.0
0001d0 00 00 80 3f 00 00 80 3f 00 00 80 3f 00 00 80 3f
       1.0 1.0 1.0 1.0
0001e0 00 00 80 3f 00 00 80 3f 00 00 80 3f 00 00 80 3f
       1.0 1.0 1.0 1.0
0001f0 00 00 80 3f 00 00 80 3f 00 00 80 3f 00 00 80 3f
       1.0 1.0 1.0 1.0

V.weight f4 [1, 128]
000000 9e f7 43 40 de 35 97 40 89 8f eb bf 41 d8 f2 3f
       3.0619884 4.7253256 -1.8403178 1.8972245
000010 50 b3 f3 3f 3a ba f5 3f 8c e1 28 40 e5 7c ee bf
       1.9039097 1.9197457 2.6387663 -1.8631865
000020 1b cd 12 c0 f9 92 85 c0 8b 4a 8d c0 ad 59 f2 bf
       -2.2937686 -4.174191 -4.4153495 -1.8933617
000030 06 f2 ef 3f b7 18 96 40 05 50 6f 40 1f 75 18 40
       1.8745735 4.690517 3.739259 2.3821485
000040 b8 70 7a c0 a9 79 2f 40 82 e7 f3 3f 4a 5c a8 40
       -3.9131298 2.7418005 1.9055026 5.2612658
000050 31 25 f5 3f 66 63 62 c0 f2 78 44 c0 f9 56 43 c0
       1.9151975 -3.5373168 -3.069882 -3.0521834
000060 15 b5 7e 40 fc 78 02 c0 1f 1d c5 bf 58 a6 91 40
       3.9798024 -2.0386343 -1.5399512 4.5515556
000070 15 3a 98 40 72 e4 ef 3f c5 9e 34 c0 82 07 fb bf
       4.75709 1.8741591 -2.8221905 -1.9611666
000080 7d fa 34 40 77 c9 d7 3f 34 8a 0f 40 29 3f f2 3f
       2.8277886 1.6858357 2.2428102 1.8925525
000090 f3 fd 3e 40 64 0d 20 40 6a d1 fa bf 85 8f f3 3e
       2.9842498 2.5008173 -1.9595158 0.47570434
0000a0 b1 8e 76 c0 ee 7e 79 c0 fe 43 7c c0 d7 3f 0f c0
       -3.8524592 -3.8983722 -3.94165 -2.2382715
0000b0 82 dd f3 3f bc 0b 3c c0 d1 38 44 40 5a 58 10 c0
       1.9051974 -2.9382162 3.0659678 -2.2553926
0000c0 62 92 08 c0 12 a9 8c 40 c6 e2 12 c0 8a b4 f3 3f
       -2.1339345 4.3956385 -2.2950912 1.9039471
0000d0 7b fc 3c 40 1b 9e f1 bf 16 50 ee bf 32 a6 55 c0
       2.9529102 -1.8876375 -1.861819 -3.3382688
0000e0 02 2d 14 40 5c ae d1 bf fb 1b 4b c0 c0 5a 09 c0
       2.315247 -1.6381335 -3.1735828 -2.146164
0000f0 79 35 ed bf 8f a0 f0 bf 92 63 29 40 03 37 6c c0
       -1.8531944 -1.8798999 2.6467023 -3.6908576
000100 1e ae f3 3f 49 f9 0a 40 18 a1 16 c0 98 9e 79 c0
       1.9037511 2.1714652 -2.3535824 -3.9003048
000110 ff 63 98 c0 63 52 f2 bf 5f 04 ff bf e3 da 81 40
       -4.7622066 -1.8931392 -1.9923209 4.0579696
000120 e1 1e f2 bf e6 5a f1 3f ea 55 2d c0 cb c4 94 3f
       -1.8915673 1.8855865 -2.7083688 1.1622556
000130 3d 51 31 40 9f 1b ee bf 44 41 98 40 82 f7 79 c0
       2.7705834 -1.8602179 4.757967 -3.9057317
000140 87 24 f0 3f 0f 5d f3 3f a8 c5 52 c0 a2 d0 f3 3f
       1.8761147 1.9012774 -3.293314 1.9048045
000150 8b d5 4d c0 f0 fb 09 40 b2 0e 32 c0 9d 66 43 c0
       -3.2161586 2.156002 -2.782147 -3.053138
000160 c2 3b f1 bf 05 45 8f c0 25 da f0 3f 29 6f b1 3f
       -1.8846362 -4.477175 1.8816572 1.3862048
000170 f0 d5 56 40 36 6b f2 bf 8b 52 13 bf 39 32 4d c0
       3.3568077 -1.8938968 -0.57547826 -3.2061903
000180 6e 35 f3 bf 4d a9 8c c0 16 b4 04 c0 df eb 09 40
       -1.900068 -4.3956666 -2.0734916 2.1550214
000190 37 18 ad bf 93 a7 8a c0 fc fe 65 3f de 93 66 40
       -1.3523015 -4.332956 0.898422 3.602775
0001a0 59 1f f9 3f 5d 34 93 c0 8a 92 0d 40 99 23 95 c0
       1.9462692 -4.600142 2.212069 -4.6605954
0001b0 cc d7 20 40 29 d9 ef bf 26 0c 71 c0 5e c4 f0 bf
       2.5131712 -1.8738147 -3.7663665 -1.8809927
0001c0 62 41 6d c0 ca 70 8f 40 38 0b f2 3f f8 69 54 c0
       -3.7071157 4.482518 1.8909674 -3.3189678
0001d0 48 32 d1 3f 83 47 3f 40 cf 62 04 c0 a5 03 f0 3f
       1.634347 2.9887397 -2.0685308 1.8751112
0001e0 51 a2 05 c0 fd b3 47 c0 de de f0 3f 66 b9 31 40
       -2.088032 -3.1203606 1.8818014 2.7769408
0001f0 81 66 43 40 ff 9a d9 bf ee df 15 40 c9 0a 43 c0
       3.0531313 -1.7000426 2.3417926 -3.0475333

mu.weight f4 [1, 128]
000000 63 44 90 bc 39 9a 3a 3e dd db 09 3d 6d 38 a3 bc
       -0.017610734 0.18222894 0.033656944 -0.019924367
000010 6d 6f 24 bc 31 5d 61 bd cd c7 1f bd a5 12 56 3b
       -0.010036332 -0.055020515 -0.039008904 0.0032664922
000020 b6 76 d7 bd 37 1f 8d bd c7 a3 7e be 9f c5 bd 3a
       -0.10520689 -0.068907194 -0.24867164 0.0014478451
000030 1e ea e2 3a 81 f3 2e bd 4a ad 8c 3d e4 eb 9c bd
       0.0017312204 -0.042712692 0.0686899 -0.0766218
000040 91 77 cd be 63 66 c2 3e d7 f2 8f bc 9e 72 bb 3d
       -0.40130284 0.3796874 -0.01757185 0.09152721
000050 30 7a ec bc ce c0 8b 3d 07 d0 7e be d5 dc a5 3e
       -0.028866857 0.06823884 -0.24884044 0.32395044
000060 a9 e0 1b bd 78 25 e5 3d a4 d1 82 3d 7d da 04 3e
       -0.03805605 0.11188787 0.06387642 0.12973972
000070 ab f2 61 be 97 d3 b6 bc c1 5b d8 bc b0 f2 36 3d
       -0.22065227 -0.02231769 -0.02641094 0.04466504
000080 e4 b9 ab 3d 5a f1 82 3e 82 49 1f 3d 0d a2 34 bc
       0.08385065 0.25574762 0.038888462 -0.011024964
000090 84 84 69 bb 40 34 34 3e 5e 1f 6e 3d 9a 99 20 be
       -0.0035631964 0.17598057 0.058135383 -0.15683594
0000a0 bd 81 1b 3e 10 13 3e 3e 68 55 19 3d 9f a8 f7 bd
       0.1518621 0.1856196 0.037434965 -0.12092709
0000b0 ee 3a b1 3d e4 72 fc bd 56 f7 85 3e 0b c3 f5 3e
       0.08653818 -0.12326601 0.26165265 0.48000368
0000c0 34 ba 00 be eb ab e7 3d dc 8d c0 be 75 f2 41 bc
       -0.12571031 0.113120876 -0.3760823 -0.011837591
0000d0 44 4e 46 3e 68 78 b2 3b 7b e4 1a bb 0f f1 39 bd
       0.19365793 0.0054464824 -0.002363472 -0.045395907
0000e0 14 71 d6 be d7 ee bc bc 12 7b 06 bf 55 a5 4e 3e
       -0.41883147 -0.023063106 -0.5253154 0.20180257
0000f0 73 fa da ba 22 d0 3f bb 2e 9f 59 3c 0b 21 74 bc
       -0.001670672 -0.0029268344 0.01328258 -0.014900456
000100 60 59 d2 bc a7 5c 83 3b c3 3f 8b be 46 97 49 bd
       -0.025677383 0.0040088478 -0.27197084 -0.04921653
000110 dc a5 59 3e cb 53 54 bc 5a ac 4f 3b 28 b0 f0 3c
       0.21254677 -0.012959431 0.0031688423 0.029380873
000120 65 76 33 bd b6 93 6a bb 4d 3c 3a 3e b7 78 39 be
       -0.04381408 -0.003579361 0.18187065 -0.18112455
000130 e3 03 b3 bd 82 fc 04 3b 40 27 06 be 22 8c 4c be
       -0.08740976 0.0020292108 -0.1310091 -0.19975331
000140 d4 46 aa be 04 cc dd bb e8 69 c1 bd 7b fe 62 bc
       -0.33257163 -0.0067687053 -0.09444028 -0.013854618
000150 2c d0 2e 3e 35 99 9e 3e 19 45 f2 3d 0e 8c 10 be
       0.17071599 0.30976263 0.118295856 -0.14115927
000160 3b 01 fb b9 10 93 d7 be 7e 7c f5 39 d7 88 e8 be
       -0.00047875367 -0.42104387 0.00046822795 -0.454169
000170 66 b5 5e be b1 28 28 3c 7f 83 c1 3e 8a 80 0b 3f
       -0.21748886 0.010263608 0.37795636 0.5449301
000180 26 2f a8 3b dc 33 5a be bc 71 87 3c a7 5f f2 bc
       0.0051325737 -0.21308845 0.016533725 -0.029586626
000190 8b 44 ed 3e a5 a5 e7 3e 41 69 3f be 04 8c f2 be
       0.46341357 0.45243564 -0.18692495 -0.47372448
0001a0 10 5c 10 3f bf 9c 89 be 5c 24 3c 3e 15 9b a9 bd
       0.56390476 -0.268774 0.18373245 -0.08281533
0001b0 67 f2 2c 3e 85 e4 27 3b 3a 34 ab 3e f4 1c a6 bb
       0.16889344 0.0025618386 0.33438283 -0.0050693695
0001c0 c3 20 83 bc b4 67 3a be f9 5d 2e bc 8c 4d f2 3e
       -0.016006833 -0.18203622 -0.010642522 0.4732479
0001d0 41 e2 7d 3d 5a a6 da bd 76 67 07 be af a4 ac bb
       0.06198335 -0.1067626 -0.13223061 -0.0052686553
0001e0 dc 94 54 3e e1 6a 77 3e a8 95 24 bc 6c f8 d2 3e
       0.2075991 0.24161865 -0.010045446 0.41205156
0001f0 d7 8a 0b 3c fe 64 04 bc 13 89 cd 3d ad 36 ea 3e
       0.008516989 -0.008080719 0.100359105 0.4574484
