real_robot_grasping/panda_demos/naf_env/src/models/naf_Pendulum-v0_32_.pth (torch_old, 76586 bytes, 19 tensors)

bn0.weight f4 [3]
0.31966949 0.6856019 0.67036057
00000000: b8ab a33e 9b83 2f3f c09c 2b3f

bn0.bias f4 [3]
-0.1399172 -0.8064203 -0.05573122
00000000: 7446 0fbe 9071 4ebf 6b46 64bd

bn0.running_mean f4 [3]
-0.13165148 -0.106612824 -1.7357309
00000000: a5cf 06be d357 dabd 6e2c debf

bn0.running_var f4 [3]
0.54973084 0.42001897 15.471899
00000000: 29bb 0c3f ba0c d73e e68c 7741

linear1.weight f4 [128, 3]
0.5109636 -2.609876 -2.1842978 4.3586283 -0.2468624 -0.40533417 -3.4169781 1.0751973
4.6334085 4.7091656 -0.9217672 -3.2104669 1.2837375 1.7971171 3.4052224 0.30747238
2.8677678 1.1001151 0.15924142 0.057424027 -0.21017547 1.3294617 -3.515537 -0.3056361
-0.49023527 2.6844354 2.450528 -3.1181304 -1.9149609 -3.3428297 2.3981194 2.375799
2.1200297 1.6380098 -2.2036786 -2.1164172 0.30333906 -0.7326196 3.4470623 -1.1885195
0.01341982 -0.10721483 -1.6371548 0.011944669 0.044078954 -0.79168266 1.6161343 -2.1328852
-0.307132 1.5609983 -6.428025 -6.9500756 -0.6805999 -2.069845 -1.1828963 2.113748
0.86280257 2.2625546 -1.8048986 -0.37088534 0.051791415 0.18468753 -0.016061965 -0.4508116
0.41242668 0.025753837 -2.9221246 0.8104138 0.64456844 -0.5498295 -0.9442081 3.5025554
2.051563 -0.25634715 -2.6029284 0.032088593 -1.5678743 0.32838446 0.044118945 2.443248
2.3898704 -2.5722406 2.2901819 -0.969999 -0.122414924 -0.4352921 1.6830361 0.41027394
0.11114823 -0.2660831 -0.48472828 -1.944246 2.5469177 1.040896 1.1035074 1.4181223
-0.80727625 -2.9016247 -2.649689 0.2477273 0.16616572 -2.1712914 -0.2259152 -2.4685833
-3.7113109 0.28325987 -1.7744292 1.2674291 -0.063678294 -0.24326709 0.09961067 0.36423215
0.032680377 -0.27212608 -0.1760882 -0.12794355 0.120296046 -0.10503463 -0.26748496 0.20396599
-1.5781642 0.30315155 1.803128 0.43122667 -0.3579043 -0.06076523 6.131634 1.0503275
-0.073412664 0.3781977 -0.32686856 -0.058500387 0.11367126 -0.078683086 -0.08724371 -0.3993857
0.33516914 0.046096332 1.3894275 0.21150322 2.7281618 -0.43279496 0.3515608 0.04372792
0.75323 3.6160734 2.0344331 2.3922095 1.6110145 1.902599 0.005723448 -0.04871495
-0.11702046 0.8660402 2.4214795 3.2404878 -3.404804 0.6606305 -0.061901517 -2.3486247
0.6303389 2.2727451 0.15866905 1.7821258 2.5369499 -0.5692455 2.2907162 0.64484787
-0.4329228 -0.33691293 2.8867784 0.040683012 0.012567667 0.026166603 0.8327025 0.6856579
-6.668968 1.0164853 -3.1339757 -0.7152667 0.010180543 0.038825683 0.03350325 0.41252396
-0.4051752 -0.060590465 -0.46454963 0.55546576 2.605831 0.5207294 0.11858202 -0.46754196
-0.28402978 0.40755782 0.043921262 -0.11695687 2.199619 2.0460355 -0.44103575 -0.049034182
0.29710838 0.07937649 1.2771981 1.0987566 -2.124423 -2.6626174 -1.0438352 1.9688429
4.1064453 1.9522614 -2.3108394 2.081029 1.8872641 -0.09658539 0.2101392 0.044350497
2.7688134 -1.7280486 0.37849396 -6.215942 -0.5966972 0.8178091 -0.00023494683 -3.280058
-1.640874 0.27435705 -0.11617889 -0.1660861 -3.429342 -0.19708464 -1.103748 0.28401452
-0.39787626 -0.037747677 -0.5872765 -3.05454 -1.5642004 1.3190117 -0.6886896 -5.579945
2.3640218 3.318311 -1.9682322 2.2967026 -2.520099 -3.5696135 -0.3843273 0.33211458
0.050623108 -4.0255117 -2.829969 1.6393946 -0.1596384 0.0036848665 0.13163158 -2.3763304
00000000: 83ce 023f 3508 27c0 89cb 0bc0 e279 8b40
00000010: 7fc9 7cbe f687 cfbe c5af 5ac0 11a0 893f
00000020: e244 9440 7cb1 9640 eff8 6bbf 4a78 4dc0
00000030: 8351 a43f ef07 e63f 2aef 5940 056d 9d3e
00000040: 8289 3740 92d0 8c3f 2f10 233e 7535 6b3d
00000050: 3d38 57be cd2b aa3f 8ffe 60c0 567c 9cbe
00000060: 1e00 fbbe cacd 2b40 73d5 1c40 738f 47c0
00000070: 701d f5bf ecf0 55c0 ca7a 1940 170d 1840
00000080: 91ae 0740 4eaa d13f 1209 0dc0 6173 07c0
00000090: 424f 9b3e f58c 3bbf ab9c 5c40 6821 98bf
000000a0: cede 5b3c 7393 dbbd 4a8e d1bf 93b3 433c
000000b0: 228c 343d b7ab 4abf 7ddd ce3f 3181 08c0
000000c0: 6840 9dbe cbce c73f 61b2 cdc0 0567 dec0
000000d0: cc3b 2ebf 5778 04c0 2569 97bf a647 0740
000000e0: a1e0 5c3f b2cd 1040 eb06 e7bf afe4 bdbe
000000f0: 3c23 543d ba1e 3d3e 6294 83bc c7d0 e6be
00000100: 9729 d33e b6f9 d23c 1704 3bc0 4777 4f3f
00000110: 7002 253f a0c1 0cbf 9fb7 71bf de29 6040
00000120: cf4c 0340 ef3f 83be 6196 26c0 546f 033d
00000130: 1bb0 c8bf 0222 a83e 11b6 343d 2d5e 1c40
00000140: a3f3 1840 979f 24c0 5792 1240 db51 78bf
00000150: adb4 fabd 9bde debe ba6d d73f 6d0f d23e
00000160: afa1 e33d 0b3c 88be 4e2e f8be 0edd f8bf
00000170: b300 2340 153c 853f bb3f 8d3f 0885 b53f
00000180: a8a9 4ebf 38b4 39c0 8194 29c0 3aac 7d3e
00000190: 5927 2a3e 70f6 0ac0 5056 67be 45fd 1dc0
000001a0: 1e86 6dc0 7007 913e 7f20 e3bf 1e3b a23f
000001b0: c469 82bd 021b 79be ae00 cc3d a37c ba3e
000001c0: dcdb 053d 1c54 8bbe 7750 34be a203 03be
000001d0: c65d f63d 651c d7bd caf3 88be 76dc 503e
000001e0: 4901 cabf ae36 9b3e e6cc e63f bec9 dc3e
000001f0: 3b3f b7be f6e4 78bd 5936 c440 2271 863f
00000200: 6159 96bd 21a3 c13e 515b a7be 1a9e 6fbd
00000210: 7acc e83d 9924 a1bd d5ac b2bd 487c ccbe
00000220: 4a9b ab3e 82cf 3c3d c3d8 b13f 4d94 583e
00000230: 349a 2e40 4d97 ddbe c7ff b33e 0c1c 333d
00000240: aed3 403f bf6d 6740 2734 0240 f619 1940
00000250: b935 ce3f 5d88 f33f c38b bb3b 5489 47bd
00000260: 6ca8 efbd d0b4 5d3f 85f9 1a40 2764 4f40
00000270: 4fe8 59c0 151f 293f 728c 7dbd de4f 16c0
00000280: e45d 213f a874 1140 247a 223e b31c e43f
00000290: 635d 2240 13ba 11bf 189b 1240 c014 253f
000002a0: 0fa8 ddbe da7f acbe fac0 3840 3ba3 263d
000002b0: 9ee8 4d3c 585b d63c fe2b 553f 4787 2f3f
000002c0: 3068 d5c0 311c 823f 0f93 48c0 b81b 37bf
000002d0: 4bcc 263c ae07 1f3d b43a 093d 5736 d33e
000002e0: 2073 cfbe b52d 78bd 73d9 edbe 0133 0e3f
000002f0: efc5 2640 864e 053f 21db f23d a961 efbe
00000300: 5a6c 91be 6bab d03e c8e6 333d 1587 efbd
00000310: 8fc6 0c40 3ff2 0240 70cf e1be 11d8 48bd
00000320: 971e 983e 2490 a23d 3a7b a33f 0ea4 8c3f
00000330: 8cf6 07c0 5368 2ac0 649c 85bf 0b03 fc3f
00000340: 0068 8340 b4e3 f93f cbe4 13c0 942f 0540
00000350: df91 f13f 90ce c5bd bb2e 573e dea8 353d
00000360: 3d34 3140 b230 ddbf f6c9 c13e ffe8 c6c0
00000370: 26c1 18bf f05b 513f 0f5c 76b9 78ec 51c0
00000380: 2908 d2bf 8778 8c3e 33ef edbd 7912 2abe
00000390: 577a 5bc0 8ed0 49be 9d47 8dbf 5a6a 913e
000003a0: 70b6 cbbe 4f9d 1abd c157 16bf 957d 43c0
000003b0: b837 c8bf 60d5 a83f f64d 30bf e98e b2c0
000003c0: 224c 1740 355f 5440 08ef fbbf 2dfd 1240
000003d0: 4d49 21c0 8c74 64c0 8cc6 c4be ec0a aa3e
000003e0: 2d5a 4f3d fed0 80c0 361e 35c0 afd7 d13f
000003f0: 4078 23be cd7d 713b 6eca 063e cc15 18c0

linear1.bias f4 [128]
-3.5241804 -4.020806 1.0208974 0.48991585 -0.30186045 1.2999632 -0.114894405 3.1776779
-1.6789527 0.20856184 2.9768384 -2.2854285 2.083893 -3.9967504 -3.6306129 -0.711554
-1.4046093 2.2849727 4.479132 -4.640864 0.18322706 0.17779641 3.5620387 -1.3208163
-4.97612 4.470511 2.1881337 3.5566037 -7.1062903 -0.13141137 2.4125922 -4.3039136
-1.8415083 3.0916615 0.6814205 4.52243 0.15508513 -0.14536422 0.1178877 0.14146645
-2.802239 -0.12467114 -9.188655 -0.15613395 -0.06368236 0.112003975 0.61651546 0.15479709
-2.7867315 -0.5751031 -0.05053362 2.3345718 7.509561 -1.3434922 -1.6748861 -0.7345209
3.038367 0.001686983 1.1034237 2.2374635 0.026863823 -0.14203437 4.1668153 -7.414584
0.18398651 2.951546 0.12431614 5.7816596 2.4347186 -1.3345761 2.1992955 0.16538015
-0.18973248 5.2190084 2.084188 -0.15541002 -1.2363055 -0.1827905 -1.4863901 -0.030010665
-2.576583 -1.3940488 0.15644418 2.4475167 0.12876356 6.3653193 -5.5127487 0.048806038
-0.32750505 3.8984222 0.081389084 0.96334505 6.445757 -4.5620303 1.5405622 -2.574737
0.14397565 0.9814896 1.1434523 -1.3196175 0.18543383 -0.09107784 -0.036204543 0.55183935
0.6734354 0.11489579 6.4302692 2.224549 -5.820467 -5.4080925 -0.1296819 0.2930521
-0.14002389 0.1010602 1.6615076 3.6350164 1.2396387 -0.220515 -0.14816242 0.025613552
-2.616735 3.3385377 1.1184953 -0.11934526 3.1513515 -3.0250044 -2.0611668 0.099340156
00000000: 2c8c 61c0 71aa 80c0 c4ac 823f 40d6 fa3e
00000010: 748d 9abe 3265 a63f c24d ebbd 135f 4b40
00000020: ece7 d6bf 3c91 553e 8584 3e40 7644 12c0
00000030: 815e 0540 c2ca 7fc0 f65b 68c0 6728 36bf
00000040: 3dca b3bf fe3c 1240 0d55 8f40 f581 94c0
00000050: e09f 3b3e 4310 363e 71f8 6340 8210 a9bf
00000060: 603c 9fc0 6d0e 8f40 620a 0c40 659f 6340
00000070: bb66 e3c0 b490 06be e967 1a40 a9b9 89c0
00000080: 8bb6 ebbf c8dd 4540 9371 2e3f bfb7 9040
00000090: a3ce 1e3e 5cda 14be 1b6f f13d 95dc 103e
000000a0: e257 33c0 9553 ffbd bb04 13c1 94e1 1fbe
000000b0: e66b 82bd 5762 e53d f5d3 1d3f 2183 1e3e
000000c0: cf59 32c0 f539 13bf 57fc 4ebd a069 1540
000000d0: 534e f040 8df7 abbf ab62 d6bf 9009 3cbf
000000e0: 9b74 4240 c21d dd3a fd3c 8d3f 9a32 0f40
000000f0: 8511 dc3c 7571 11be 8d56 8540 4644 edc0
00000100: f666 3c3e 21e6 3c40 7699 fe3d 5b03 b940
00000110: 6ed2 1b40 64d3 aabf 42c1 0c40 6a59 293e
00000120: 3b49 42be 1e02 a740 5663 0540 ce23 1fbe
00000130: 423f 9ebf 6f2d 3bbe 0842 bebf edd8 f5bc
00000140: bce6 24c0 3170 b2bf e732 203e 1da4 1c40
00000150: 98da 033e b2b0 cb40 7068 b0c0 d7e8 473d
00000160: beae a7be c07f 7940 52af a63d c89d 763f
00000170: a443 ce40 27fc 91c0 2431 c53f 7ec8 24c0
00000180: 5a6e 133e e742 7b3f a55c 923f 3ae9 a8bf
00000190: 5ee2 3d3e 0587 babd 374b 14bd 5845 0d3f
000001a0: 4366 2c3f 7c4e eb3d c4c4 cd40 035f 0e40
000001b0: 4441 bac0 180f adc0 55cb 04be ed0a 963e
000001c0: 6c62 0fbe a6f8 ce3d 48ac d43f 1ca4 6840
000001d0: 7bac 9e3f afce 61be e4b7 17be 83d3 d13c
000001e0: 9678 27c0 9aaa 5540 db2a 8f3f 4a6b f4bd
000001f0: beaf 4940 ac99 41c0 28ea 03c0 da72 cb3d

bn1.weight f4 [128]
1.0 1.0 1.0 1.0 1.0 1.0 1.0 1.0
1.0 1.0 1.0 1.0 1.0 1.0 1.0 1.0
1.0 1.0 1.0 1.0 1.0 1.0 1.0 1.0
1.0 1.0 1.0 1.0 1.0 1.0 1.0 1.0
1.0 1.0 1.0 1.0 1.0 1.0 1.0 1.0
1.0 1.0 1.0 1.0 1.0 1.0 1.0 1.0
1.0 1.0 1.0 1.0 1.0 1.0 1.0 1.0
1.0 1.0 1.0 1.0 1.0 1.0 1.0 1.0
1.0 1.0 1.0 1.0 1.0 1.0 1.0 1.0
1.0 1.0 1.0 1.0 1.0 1.0 1.0 1.0
1.0 1.0 1.0 1.0 1.0 1.0 1.0 1.0
1.0 1.0 1.0 1.0 1.0 1.0 1.0 1.0
1.0 1.0 1.0 1.0 1.0 1.0 1.0 1.0
1.0 1.0 1.0 1.0 1.0 1.0 1.0 1.0
1.0 1.0 1.0 1.0 1.0 1.0 1.0 1.0
1.0 1.0 1.0 1.0 1.0 1.0 1.0 1.0
00000000: 0000 803f 0000 803f 0000 803f 0000 803f
00000010: 0000 803f 0000 803f 0000 803f 0000 803f
00000020: 0000 803f 0000 803f 0000 803f 0000 803f
00000030: 0000 803f 0000 803f 0000 803f 0000 803f
00000040: 0000 803f 0000 803f 0000 803f 0000 803f
00000050: 0000 803f 0000 803f 0000 803f 0000 803f
00000060: 0000 803f 0000 803f 0000 803f 0000 803f
00000070: 0000 803f 0000 803f 0000 803f 0000 803f
00000080: 0000 803f 0000 803f 0000 803f 0000 803f
00000090: 0000 803f 0000 803f 0000 803f 0000 803f
000000a0: 0000 803f 0000 803f 0000 803f 0000 803f
000000b0: 0000 803f 0000 803f 0000 803f 0000 803f
000000c0: 0000 803f 0000 803f 0000 803f 0000 803f
000000d0: 0000 803f 0000 803f 0000 803f 0000 803f
000000e0: 0000 803f 0000 803f 0000 803f 0000 803f
000000f0: 0000 803f 0000 803f 0000 803f 0000 803f
00000100: 0000 803f 0000 803f 0000 803f 0000 803f
00000110: 0000 803f 0000 803f 0000 803f 0000 803f
00000120: 0000 803f 0000 803f 0000 803f 0000 803f
00000130: 0000 803f 0000 803f 0000 803f 0000 803f
00000140: 0000 803f 0000 803f 0000 803f 0000 803f
00000150: 0000 803f 0000 803f 0000 803f 0000 803f
00000160: 0000 803f 0000 803f 0000 803f 0000 803f
00000170: 0000 803f 0000 803f 0000 803f 0000 803f
00000180: 0000 803f 0000 803f 0000 803f 0000 803f
00000190: 0000 803f 0000 803f 0000 803f 0000 803f
000001a0: 0000 803f 0000 803f 0000 803f 0000 803f
000001b0: 0000 803f 0000 803f 0000 803f 0000 803f
000001c0: 0000 803f 0000 803f 0000 803f 0000 803f
000001d0: 0000 803f 0000 803f 0000 803f 0000 803f
000001e0: 0000 803f 0000 803f 0000 803f 0000 803f
000001f0: 0000 803f 0000 803f 0000 803f 0000 803f

bn1.bias f4 [128]
0.0 0.0 0.0 0.0 0.0 0.0 0.0 0.0
0.0 0.0 0.0 0.0 0.0 0.0 0.0 0.0
0.0 0.0 0.0 0.0 0.0 0.0 0.0 0.0
0.0 0.0 0.0 0.0 0.0 0.0 0.0 0.0
0.0 0.0 0.0 0.0 0.0 0.0 0.0 0.0
0.0 0.0 0.0 0.0 0.0 0.0 0.0 0.0
0.0 0.0 0.0 0.0 0.0 0.0 0.0 0.0
0.0 0.0 0.0 0.0 0.0 0.0 0.0 0.0
0.0 0.0 0.0 0.0 0.0 0.0 0.0 0.0
0.0 0.0 0.0 0.0 0.0 0.0 0.0 0.0
0.0 0.0 0.0 0.0 0.0 0.0 0.0 0.0
0.0 0.0 0.0 0.0 0.0 0.0 0.0 0.0
0.0 0.0 0.0 0.0 0.0 0.0 0.0 0.0
0.0 0.0 0.0 0.0 0.0 0.0 0.0 0.0
0.0 0.0 0.0 0.0 0.0 0.0 0.0 0.0
0.0 0.0 0.0 0.0 0.0 0.0 0.0 0.0
00000000: 0000 0000 0000 0000 0000 0000 0000 0000
00000010: 0000 0000 0000 0000 0000 0000 0000 0000
00000020: 0000 0000 0000 0000 0000 0000 0000 0000
00000030: 0000 0000 0000 0000 0000 0000 0000 0000
00000040: 0000 0000 0000 0000 0000 0000 0000 0000
00000050: 0000 0000 0000 0000 0000 0000 0000 0000
00000060: 0000 0000 0000 0000 0000 0000 0000 0000
00000070: 0000 0000 0000 0000 0000 0000 0000 0000
00000080: 0000 0000 0000 0000 0000 0000 0000 0000
00000090: 0000 0000 0000 0000 0000 0000 0000 0000
000000a0: 0000 0000 0000 0000 0000 0000 0000 0000
000000b0: 0000 0000 0000 0000 0000 0000 0000 0000
000000c0: 0000 0000 0000 0000 0000 0000 0000 0000
000000d0: 0000 0000 0000 0000 0000 0000 0000 0000
000000e0: 0000 0000 0000 0000 0000 0000 0000 0000
000000f0: 0000 0000 0000 0000 0000 0000 0000 0000
00000100: 0000 0000 0000 0000 0000 0000 0000 0000
00000110: 0000 0000 0000 0000 0000 0000 0000 0000
00000120: 0000 0000 0000 0000 0000 0000 0000 0000
00000130: 0000 0000 0000 0000 0000 0000 0000 0000
00000140: 0000 0000 0000 0000 0000 0000 0000 0000
00000150: 0000 0000 0000 0000 0000 0000 0000 0000
00000160: 0000 0000 0000 0000 0000 0000 0000 0000
00000170: 0000 0000 0000 0000 0000 0000 0000 0000
00000180: 0000 0000 0000 0000 0000 0000 0000 0000
00000190: 0000 0000 0000 0000 0000 0000 0000 0000
000001a0: 0000 0000 0000 0000 0000 0000 0000 0000
000001b0: 0000 0000 0000 0000 0000 0000 0000 0000
000001c0: 0000 0000 0000 0000 0000 0000 0000 0000
000001d0: 0000 0000 0000 0000 0000 0000 0000 0000
000001e0: 0000 0000 0000 0000 0000 0000 0000 0000
000001f0: 0000 0000 0000 0000 0000 0000 0000 0000

bn1.running_mean f4 [128]
0.0 0.0 0.0 0.0 0.0 0.0 0.0 0.0
0.0 0.0 0.0 0.0 0.0 0.0 0.0 0.0
0.0 0.0 0.0 0.0 0.0 0.0 0.0 0.0
0.0 0.0 0.0 0.0 0.0 0.0 0.0 0.0
0.0 0.0 0.0 0.0 0.0 0.0 0.0 0.0
0.0 0.0 0.0 0.0 0.0 0.0 0.0 0.0
0.0 0.0 0.0 0.0 0.0 0.0 0.0 0.0
0.0 0.0 0.0 0.0 0.0 0.0 0.0 0.0
0.0 0.0 0.0 0.0 0.0 0.0 0.0 0.0
0.0 0.0 0.0 0.0 0.0 0.0 0.0 0.0
0.0 0.0 0.0 0.0 0.0 0.0 0.0 0.0
0.0 0.0 0.0 0.0 0.0 0.0 0.0 0.0
0.0 0.0 0.0 0.0 0.0 0.0 0.0 0.0
0.0 0.0 0.0 0.0 0.0 0.0 0.0 0.0
0.0 0.0 0.0 0.0 0.0 0.0 0.0 0.0
0.0 0.0 0.0 0.0 0.0 0.0 0.0 0.0
00000000: 0000 0000 0000 0000 0000 0000 0000 0000
00000010: 0000 0000 0000 0000 0000 0000 0000 0000
00000020: 0000 0000 0000 0000 0000 0000 0000 0000
00000030: 0000 0000 0000 0000 0000 0000 0000 0000
00000040: 0000 0000 0000 0000 0000 0000 0000 0000
00000050: 0000 0000 0000 0000 0000 0000 0000 0000
00000060: 0000 0000 0000 0000 0000 0000 0000 0000
00000070: 0000 0000 0000 0000 0000 0000 0000 0000
00000080: 0000 0000 0000 0000 0000 0000 0000 0000
00000090: 0000 0000 0000 0000 0000 0000 0000 0000
000000a0: 0000 0000 0000 0000 0000 0000 0000 0000
000000b0: 0000 0000 0000 0000 0000 0000 0000 0000
000000c0: 0000 0000 0000 0000 0000 0000 0000 0000
000000d0: 0000 0000 0000 0000 0000 0000 0000 0000
000000e0: 0000 0000 0000 0000 0000 0000 0000 0000
000000f0: 0000 0000 0000 0000 0000 0000 0000 0000
00000100: 0000 0000 0000 0000 0000 0000 0000 0000
00000110: 0000 0000 0000 0000 0000 0000 0000 0000
00000120: 0000 0000 0000 0000 0000 0000 0000 0000
00000130: 0000 0000 0000 0000 0000 0000 0000 0000
00000140: 0000 0000 0000 0000 0000 0000 0000 0000
00000150: 0000 0000 0000 0000 0000 0000 0000 0000
00000160: 0000 0000 0000 0000 0000 0000 0000 0000
00000170: 0000 0000 0000 0000 0000 0000 0000 0000
00000180: 0000 0000 0000 0000 0000 0000 0000 0000
00000190: 0000 0000 0000 0000 0000 0000 0000 0000
000001a0: 0000 0000 0000 0000 0000 0000 0000 0000
000001b0: 0000 0000 0000 0000 0000 0000 0000 0000
000001c0: 0000 0000 0000 0000 0000 0000 0000 0000
000001d0: 0000 0000 0000 0000 0000 0000 0000 0000
000001e0: 0000 0000 0000 0000 0000 0000 0000 0000
000001f0: 0000 0000 0000 0000 0000 0000 0000 0000

bn1.running_var f4 [128]
1.0 1.0 1.0 1.0 1.0 1.0 1.0 1.0
1.0 1.0 1.0 1.0 1.0 1.0 1.0 1.0
1.0 1.0 1.0 1.0 1.0 1.0 1.0 1.0
1.0 1.0 1.0 1.0 1.0 1.0 1.0 1.0
1.0 1.0 1.0 1.0 1.0 1.0 1.0 1.0
1.0 1.0 1.0 1.0 1.0 1.0 1.0 1.0
1.0 1.0 1.0 1.0 1.0 1.0 1.0 1.0
1.0 1.0 1.0 1.0 1.0 1.0 1.0 1.0
1.0 1.0 1.0 1.0 1.0 1.0 1.0 1.0
1.0 1.0 1.0 1.0 1.0 1.0 1.0 1.0
1.0 1.0 1.0 1.0 1.0 1.0 1.0 1.0
1.0 1.0 1.0 1.0 1.0 1.0 1.0 1.0
1.0 1.0 1.0 1.0 1.0 1.0 1.0 1.0
1.0 1.0 1.0 1.0 1.0 1.0 1.0 1.0
1.0 1.0 1.0 1.0 1.0 1.0 1.0 1.0
1.0 1.0 1.0 1.0 1.0 1.0 1.0 1.0
00000000: 0000 803f 0000 803f 0000 803f 0000 803f
00000010: 0000 803f 0000 803f 0000 803f 0000 803f
00000020: 0000 803f 0000 803f 0000 803f 0000 803f
00000030: 0000 803f 0000 803f 0000 803f 0000 803f
00000040: 0000 803f 0000 803f 0000 803f 0000 803f
00000050: 0000 803f 0000 803f 0000 803f 0000 803f
00000060: 0000 803f 0000 803f 0000 803f 0000 803f
00000070: 0000 803f 0000 803f 0000 803f 0000 803f
00000080: 0000 803f 0000 803f 0000 803f 0000 803f
00000090: 0000 803f 0000 803f 0000 803f 0000 803f
000000a0: 0000 803f 0000 803f 0000 803f 0000 803f
000000b0: 0000 803f 0000 803f 0000 803f 0000 803f
000000c0: 0000 803f 0000 803f 0000 803f 0000 803f
000000d0: 0000 803f 0000 803f 0000 803f 0000 803f
000000e0: 0000 803f 0000 803f 0000 803f 0000 803f
000000f0: 0000 803f 0000 803f 0000 803f 0000 803f
00000100: 0000 803f 0000 803f 0000 803f 0000 803f
00000110: 0000 803f 0000 803f 0000 803f 0000 803f
00000120: 0000 803f 0000 803f 0000 803f 0000 803f
00000130: 0000 803f 0000 803f 0000 803f 0000 803f
00000140: 0000 803f 0000 803f 0000 803f 0000 803f
00000150: 0000 803f 0000 803f 0000 803f 0000 803f
00000160: 0000 803f 0000 803f 0000 803f 0000 803f
00000170: 0000 803f 0000 803f 0000 803f 0000 803f
00000180: 0000 803f 0000 803f 0000 803f 0000 803f
00000190: 0000 803f 0000 803f 0000 803f 0000 803f
000001a0: 0000 803f 0000 803f 0000 803f 0000 803f
000001b0: 0000 803f 0000 803f 0000 803f 0000 803f
000001c0: 0000 803f 0000 803f 0000 803f 0000 803f
000001d0: 0000 803f 0000 803f 0000 803f 0000 803f
000001e0: 0000 803f 0000 803f 0000 803f 0000 803f
000001f0: 0000 803f 0000 803f 0000 803f 0000 803f

linear2.weight f4 [128, 128]
0.098316796 0.35016626 -0.30956978 -0.07904571 0.16001204 0.2647543 -0.17634773 -0.5674515
0.16182663 -0.18083046 -0.2999202 0.37472755 -0.044866484 0.45307523 0.36228573 0.14264706
0.3020608 -0.9123107 0.08797256 0.17529589 0.17987554 -0.033406574 -0.07861578 -0.112090446
0.8903905 -0.55414563 -0.03603699 -0.767896 0.8202831 0.5537573 0.05090914 0.79233015
0.14963588 -0.5050149 -0.060805883 -0.76967436 -0.4318792 -0.22934051 -0.45839563 0.42428333
0.72889477 0.35440916 0.8641766 -0.27731615 -0.37760067 -0.05543337 0.2377325 0.15469283
0.8622677 0.4101653 0.043569095 -0.45913845 -1.0049819 -0.0137055125 0.09011177 0.20315163
0.0040979306 -0.5274807 -0.14676219 -0.37234724 -0.34338215 0.24480937 -0.29692054 0.78975385
-0.301209 -0.041786697 -0.36504403 -0.735513 0.063145265 0.80156523 -0.055162594 -0.5890574
-0.2928643 -0.67652506 -0.25143087 -0.29884228 -0.03759957 -0.1343847 -0.26548648 -0.34152064
0.2874336 0.11512926 -0.27224332 -0.5489193 0.28078425 -0.5571849 0.39845586 -0.037112646
0.16737431 -0.9792795 0.06092656 -0.18621857 -0.36334413 0.3945668 -0.22219853 0.15336826
0.14719743 -0.07428819 0.19135094 0.18794574 0.018011248 0.42535925 -0.070622616 0.16789067
0.27926034 0.08445019 -0.7099258 -0.33554783 0.7574001 0.9013596 0.055804092 0.23121053
0.61511797 -0.40822482 -0.11318473 -0.24040757 -0.70386964 0.04737873 0.029586423 0.1777125
0.17760757 -0.18546943 -0.2884829 0.08616763 -0.49385056 0.336125 -0.011703025 -0.3170949
0.6396735 -0.31785947 1.0033437 0.66081196 0.88996625 1.5930352 0.1915869 1.6181978
2.1660123 -0.8662348 -3.0761204 -2.0371544 0.49645245 0.15623026 1.8472204 -2.313389
0.8196076 1.1293598 -3.2771134 0.24667801 0.0008109978 0.18138523 4.8816795 -3.4911194
-6.438341 1.13613 -1.7366835 -1.2518758 -2.759997 -0.00023526535 2.6395998 -0.5835746
-0.93646157 1.3832641 -2.6438608 1.4651394 0.17734843 0.019083345 -0.079326406 0.060362224
-3.1475747 -0.03833084 -2.2493365 -0.2804859 -0.23723403 0.13084477 0.075666666 0.23331393
-1.135536 -0.5807468 0.020881105 -0.7272337 4.0423126 -1.2555121 2.4008067 2.545977
-1.3593817 -0.21274444 -0.85654044 -1.7477748 0.15638424 -0.07228254 3.241196 -1.8998797
0.38065925 -1.332626 0.15878826 3.56612 -0.57719475 -0.31201366 0.5378815 -0.024022574
1.0431272 0.33516997 -1.5764031 -0.029366048 -1.8392919 -0.18742609 1.2037011 -1.8993204
1.8161803 -1.7111201 0.05208449 0.6755107 -0.118123725 0.77858174 -1.9959573 0.31784457
1.2100924 1.9958766 -0.08975853 -1.8189921 0.04660292 -0.99129725 0.5672681 3.068942
-0.07235417 -2.0101323 2.402465 -3.2966893 0.055682793 -0.11355152 0.18695286 1.5098386
-0.48668185 -0.12125004 1.699802 -2.7896652 1.1321237 -2.1393971 -0.1180034 -2.0944376
-0.013399509 -0.2533757 -1.29906 0.41493887 0.5848118 0.0040606176 3.6398973 2.0740564
1.2473717 -0.49781552 -1.9933603 0.1341288 2.6834636 -2.3729582 -1.5300119 -0.054046955
00000000: 515a c93d fe48 b33e ee7f 9ebe b8e2 a1bd
00000010: 32da 233e e08d 873e 8094 34be 8044 11bf
00000020: e1b5 253e 9f2b 39be 248f 99be 4adc bf3e
00000030: ebc5 37bd 7af9 e73e 847d b93e 1212 123e
00000040: b7a7 9a3e 328d 69bf f52a b43d c480 333e
00000050: 4b31 383e 55d5 08bd 4f01 a1bd ad8f e5bd
00000060: a2f0 633f 7ddc 0dbf 869b 13bd d594 44bf
00000070: 13fe 513f 0ac3 0d3f 1a86 503d 26d6 4a3f
00000080: 263a 193e a848 01bf 970f 79bd 6109 45bf
00000090: 451f ddbe 3dd8 6abe d5b2 eabe aa3b d93e
000000a0: d998 3a3f 1e75 b53e ad3a 5d3f 62fc 8dbe
000000b0: e054 c1be 1a0e 63bd 2670 733e cc67 1e3e
000000c0: 93bd 5c3f 3001 d23e 8275 323d 3214 ebbe
000000d0: 3fa3 80bf 168d 60bc 858c b83d fb06 503e
000000e0: ef47 863b fa08 07bf d448 16be 4ca4 bebe
000000f0: c9cf afbe 4faf 7a3e f805 98be 4f2d 4a3f
00000100: 1138 9abe 8728 2bbd 0de7 babe 944a 3cbf
00000110: 4e52 813d 6133 4d3f 2cf2 61bd 77cc 16bf
00000120: 4ff2 95be bf30 2dbf 8cbb 80be db01 99be
00000130: 0202 1abd 259c 09be d8ed 87be cbdb aebe
00000140: 7f2a 933e e4c8 eb3d 7a63 8bbe fa85 0cbf
00000150: f4c2 8f3e aba3 0ebf 6802 cc3e 6e03 18bd
00000160: 2c64 2b3e 10b2 7abf 218e 793d 15b0 3ebe
00000170: 3e08 babe a904 ca3e 0388 63be 920c 1d3e
00000180: ecba 163e 6824 98bd 80f1 433e d974 403e
00000190: 538c 933c b0c8 d93e 97a2 90bd 88eb 2b3e
000001a0: 36fb 8e3e 39f4 ac3d b2bd 35bf edcc abbe
000001b0: f9e4 413f 81bf 663f d592 643d 74c2 6c3e
000001c0: 5f78 1d3f d802 d1be 65cd e7bd 672d 76be
000001d0: cd30 34bf 3310 423d 3a5f f23c 44fa 353e
000001e0: c2de 353e b3eb 3dbe 08b4 93be a878 b03d
000001f0: fbd9 fcbe 9318 ac3e 0bbe 3fbc 435a a2be
00000200: a4c1 233f 7abe a2be 916d 803f f92a 293f
00000210: d4d4 633f 94e8 cb3f 5b2f 443e 1b21 cf3f
00000220: f29f 0a40 90c1 5dbf 28df 44c0 bd60 02c0
00000230: 042f fe3e d3fa 1f3e b871 ec3f 910e 14c0
00000240: ced1 513f dd8e 903f 3abc 51c0 2999 7c3e
00000250: 2499 543a 0dbd 393e b836 9c40 806e 5fc0
00000260: e406 cec0 b56c 913f a54b debf 773d a0bf
00000270: caa3 30c0 90b1 76b9 34ef 2840 2565 15bf
00000280: f2bb 6fbf cc0e b13f 0435 29c0 b089 bb3f
00000290: d49a 353e ad54 9c3c e275 a2bd 613e 773d
000002a0: dd71 49c0 cd00 1dbd 21f5 0fc0 d99b 8fbe
000002b0: 7aed 72be 2cfc 053e 20f7 9a3d d9e9 6e3e
000002c0: 3e59 91bf d3ab 14bf da0e ab3c fd2b 3abf
000002d0: a05a 8140 9fb4 a0bf d1a6 1940 4af1 2240
000002e0: 3800 aebf aed9 59be 3c46 5bbf 16b7 dfbf
000002f0: 3123 203e de08 94bd c16f 4f40 422f f3bf
00000300: c5e5 c23e 7d93 aabf 6499 223e 4f3b 6440
00000310: 09c3 13bf 41c0 9fbe 9ab2 093f fdca c4bc
00000320: 3185 853f 669b ab3e 94c7 c9bf 1191 f0bc
00000330: eb6d ebbf a0ec 3fbe e112 9a3f ee1c f3bf
00000340: 9978 e83f fc05 dbbf 8c56 553d 45ee 2c3f
00000350: daea f1bd 2251 473f 877b ffbf 86bc a23e
00000360: 4fe4 9a3f e278 ff3f 52d3 b7bd bcd4 e8bf
00000370: b4e2 3e3d a8c5 7dbf 7b38 113f 8c69 4440
00000380: 6c2e 94bd 02a6 00c0 fdc1 1940 f5fc 52c0
00000390: a413 643d b38d e8bd 9270 3f3e 6442 c13f
000003a0: 5d2e f9be f151 f8bd 1d93 d93f e089 32c0
000003b0: 6ee9 903f e2eb 08c0 c4ab f1bd 440b 06c0
000003c0: 9d89 5bbc 76ba 81be 9947 a6bf de72 d43e
000003d0: 3ab6 153f ee0e 853b 14f4 6840 57bd 0440
000003e0: e0a9 9f3f ade1 febe 6e26 ffbf 0f59 093e
000003f0: debd 2b40 8cde 17c0 6ed7 c3bf 5760 5dbd

linear2.bias f4 [128]
-1.1967252 2.8863723 2.1137013 -1.9412837 -1.5016359 -0.006584146 -1.1669618 1.7443653
1.6951745 -2.011095 0.22331744 2.0359814 -1.7297192 1.4888191 2.7376955 -1.1884392
-2.3648648 1.2325736 -0.32262123 2.831003 -1.9051088 -2.1776593 -0.18471605 -0.07256737
0.382879 1.3608987 -1.0307871 0.12226808 1.848715 -1.7748392 -1.4432317 1.2040405
1.277549 2.2925146 0.85083324 -1.1759313 1.6498582 -1.741967 1.2951653 -1.5834389
-1.0059341 -1.6042908 1.3664293 1.2857695 1.267107 -0.38483325 1.642697 -1.7301638
-0.52390456 1.51752 0.43538594 -1.610083 -0.55169314 1.8744432 1.7836542 -1.3286785
1.3710285 1.2800313 -1.1969758 1.9845514 1.2639402 1.7269074 1.0529528 -1.0997337
-1.3159065 -1.8555598 -0.676355 2.5983007 1.620607 -1.53601 -0.08900216 -1.0930562
1.3499172 -1.5400176 1.9420091 -1.5629357 0.84931314 1.244396 -2.6268644 -1.827752
1.1465781 -1.415901 1.7616073 -1.5014459 1.890222 -1.7980499 -1.7826596 -1.6040894
1.2542214 -0.7530852 -1.347749 0.81615406 1.1424114 1.3489321 -3.4441814 -1.3121233
1.486735 -1.3875468 2.019811 -1.5127447 1.3939103 1.3731878 1.3248398 -1.849444
-2.4199393 -2.9908834 -2.318792 -1.5284207 -1.3098915 1.6331766 1.5992872 1.5574887
-0.9476316 -1.8629452 -1.1910427 1.3191576 -2.3985133 1.5687095 -1.5154351 -1.7294344
-1.7679201 -2.1396143 -1.5352765 -2.727673 2.1461682 -1.0825027 -1.6704743 -1.4360696
00000000: 4b2e 99bf 53ba 3840 e246 0740 fc7b f8bf
00000010: 9b35 c0bf d2bf d7bb 015f 95bf 5d47 df3f
00000020: 7afb d83f c8b5 00c0 54ad 643e 854d 0240
00000030: 7067 ddbf a091 be3f 6736 2f40 c71e 98bf
00000040: f259 17c0 f9c4 9d3f 9c2e a5be 272f 3540
00000050: 9bda f3bf c55e 0bc0 3426 3dbe 349e 94bd
00000060: b708 c43e ee31 ae3f d5f0 83bf b067 fa3d
00000070: b1a2 ec3f ee2d e3bf d1bb b8bf 001e 9a3f
00000080: ba86 a33f 8fb8 1240 35d0 593f eb84 96bf
00000090: 8e2e d33f c6f8 debf fac7 a53f 20ae cabf
000000a0: 73c2 80bf 6759 cdbf 28e7 ae3f 1894 a43f
000000b0: 9030 a23f dd08 c5be e543 d23f 0276 ddbf
000000c0: 9c1e 06bf 183e c23f e8ea de3e 3317 cebf
000000d0: c33b 0dbf c1ed ef3f c84e e43f 2312 aabf
000000e0: dd7d af3f 11d8 a33f 8136 99bf c805 fe3f
000000f0: cbc8 a13f 4d0b dd3f 28c7 863f 13c4 8cbf
00000100: a06f a8bf fc82 edbf 9a25 2dbf 8f4a 2640
00000110: 0d70 cf3f fa9b c4bf c446 b6bd 44e9 8bbf
00000120: 16ca ac3f 4c1f c5bf c193 f83f 470e c8bf
00000130: 966c 593f 5e48 9f3f 8c1e 28c0 c7f3 e9bf
00000140: 12c3 923f 3e3c b5bf 597c e13f 612f c0bf
00000150: cbf2 f13f 8026 e6bf 312e e4bf cd52 cdbf
00000160: 548a a03f 31ca 40bf 0a83 acbf 79ef 503f
00000170: 893a 923f cfa9 ac3f 786d 5cc0 a8f3 a7bf
00000180: 554d be3f 229b b1bf 9544 0140 9ea1 c1bf
00000190: a76b b23f 9ec4 af3f 5a94 a93f 95ba ecbf
000001a0: 49e0 1ac0 a26a 3fc0 1767 14c0 4aa3 c3bf
000001b0: 86aa a7bf ee0b d13f 71b5 cc3f ca5b c73f
000001c0: fc97 72bf fd74 eebf 1674 98bf 28da a83f
000001d0: 3e81 19c0 79cb c83f c7f9 c1bf 1b5e ddbf
000001e0: 354b e2bf 71ef 08c0 f183 c4bf 3292 2ec0
000001f0: d25a 0940 738f 8abf 1ad2 d5bf 21d1 b7bf

bn2.weight f4 [128]
1.0 1.0 1.0 1.0 1.0 1.0 1.0 1.0
1.0 1.0 1.0 1.0 1.0 1.0 1.0 1.0
1.0 1.0 1.0 1.0 1.0 1.0 1.0 1.0
1.0 1.0 1.0 1.0 1.0 1.0 1.0 1.0
1.0 1.0 1.0 1.0 1.0 1.0 1.0 1.0
1.0 1.0 1.0 1.0 1.0 1.0 1.0 1.0
1.0 1.0 1.0 1.0 1.0 1.0 1.0 1.0
1.0 1.0 1.0 1.0 1.0 1.0 1.0 1.0
1.0 1.0 1.0 1.0 1.0 1.0 1.0 1.0
1.0 1.0 1.0 1.0 1.0 1.0 1.0 1.0
1.0 1.0 1.0 1.0 1.0 1.0 1.0 1.0
1.0 1.0 1.0 1.0 1.0 1.0 1.0 1.0
1.0 1.0 1.0 1.0 1.0 1.0 1.0 1.0
1.0 1.0 1.0 1.0 1.0 1.0 1.0 1.0
1.0 1.0 1.0 1.0 1.0 1.0 1.0 1.0
1.0 1.0 1.0 1.0 1.0 1.0 1.0 1.0
00000000: 0000 803f 0000 803f 0000 803f 0000 803f
00000010: 0000 803f 0000 803f 0000 803f 0000 803f
00000020: 0000 803f 0000 803f 0000 803f 0000 803f
00000030: 0000 803f 0000 803f 0000 803f 0000 803f
00000040: 0000 803f 0000 803f 0000 803f 0000 803f
00000050: 0000 803f 0000 803f 0000 803f 0000 803f
00000060: 0000 803f 0000 803f 0000 803f 0000 803f
00000070: 0000 803f 0000 803f 0000 803f 0000 803f
00000080: 0000 803f 0000 803f 0000 803f 0000 803f
00000090: 0000 803f 0000 803f 0000 803f 0000 803f
000000a0: 0000 803f 0000 803f 0000 803f 0000 803f
000000b0: 0000 803f 0000 803f 0000 803f 0000 803f
000000c0: 0000 803f 0000 803f 0000 803f 0000 803f
000000d0: 0000 803f 0000 803f 0000 803f 0000 803f
000000e0: 0000 803f 0000 803f 0000 803f 0000 803f
000000f0: 0000 803f 0000 803f 0000 803f 0000 803f
00000100: 0000 803f 0000 803f 0000 803f 0000 803f
00000110: 0000 803f 0000 803f 0000 803f 0000 803f
00000120: 0000 803f 0000 803f 0000 803f 0000 803f
00000130: 0000 803f 0000 803f 0000 803f 0000 803f
00000140: 0000 803f 0000 803f 0000 803f 0000 803f
00000150: 0000 803f 0000 803f 0000 803f 0000 803f
00000160: 0000 803f 0000 803f 0000 803f 0000 803f
00000170: 0000 803f 0000 803f 0000 803f 0000 803f
00000180: 0000 803f 0000 803f 0000 803f 0000 803f
00000190: 0000 803f 0000 803f 0000 803f 0000 803f
000001a0: 0000 803f 0000 803f 0000 803f 0000 803f
000001b0: 0000 803f 0000 803f 0000 803f 0000 803f
000001c0: 0000 803f 0000 803f 0000 803f 0000 803f
000001d0: 0000 803f 0000 803f 0000 803f 0000 803f
000001e0: 0000 803f 0000 803f 0000 803f 0000 803f
000001f0: 0000 803f 0000 803f 0000 803f 0000 803f

bn2.bias f4 [128]
0.0 0.0 0.0 0.0 0.0 0.0 0.0 0.0
0.0 0.0 0.0 0.0 0.0 0.0 0.0 0.0
0.0 0.0 0.0 0.0 0.0 0.0 0.0 0.0
0.0 0.0 0.0 0.0 0.0 0.0 0.0 0.0
0.0 0.0 0.0 0.0 0.0 0.0 0.0 0.0
0.0 0.0 0.0 0.0 0.0 0.0 0.0 0.0
0.0 0.0 0.0 0.0 0.0 0.0 0.0 0.0
0.0 0.0 0.0 0.0 0.0 0.0 0.0 0.0
0.0 0.0 0.0 0.0 0.0 0.0 0.0 0.0
0.0 0.0 0.0 0.0 0.0 0.0 0.0 0.0
0.0 0.0 0.0 0.0 0.0 0.0 0.0 0.0
0.0 0.0 0.0 0.0 0.0 0.0 0.0 0.0
0.0 0.0 0.0 0.0 0.0 0.0 0.0 0.0
0.0 0.0 0.0 0.0 0.0 0.0 0.0 0.0
0.0 0.0 0.0 0.0 0.0 0.0 0.0 0.0
0.0 0.0 0.0 0.0 0.0 0.0 0.0 0.0
00000000: 0000 0000 0000 0000 0000 0000 0000 0000
00000010: 0000 0000 0000 0000 0000 0000 0000 0000
00000020: 0000 0000 0000 0000 0000 0000 0000 0000
00000030: 0000 0000 0000 0000 0000 0000 0000 0000
00000040: 0000 0000 0000 0000 0000 0000 0000 0000
00000050: 0000 0000 0000 0000 0000 0000 0000 0000
00000060: 0000 0000 0000 0000 0000 0000 0000 0000
00000070: 0000 0000 0000 0000 0000 0000 0000 0000
00000080: 0000 0000 0000 0000 0000 0000 0000 0000
00000090: 0000 0000 0000 0000 0000 0000 0000 0000
000000a0: 0000 0000 0000 0000 0000 0000 0000 0000
000000b0: 0000 0000 0000 0000 0000 0000 0000 0000
000000c0: 0000 0000 0000 0000 0000 0000 0000 0000
000000d0: 0000 0000 0000 0000 0000 0000 0000 0000
000000e0: 0000 0000 0000 0000 0000 0000 0000 0000
000000f0: 0000 0000 0000 0000 0000 0000 0000 0000
00000100: 0000 0000 0000 0000 0000 0000 0000 0000
00000110: 0000 0000 0000 0000 0000 0000 0000 0000
00000120: 0000 0000 0000 0000 0000 0000 0000 0000
00000130: 0000 0000 0000 0000 0000 0000 0000 0000
00000140: 0000 0000 0000 0000 0000 0000 0000 0000
00000150: 0000 0000 0000 0000 0000 0000 0000 0000
00000160: 0000 0000 0000 0000 0000 0000 0000 0000
00000170: 0000 0000 0000 0000 0000 0000 0000 0000
00000180: 0000 0000 0000 0000 0000 0000 0000 0000
00000190: 0000 0000 0000 0000 0000 0000 0000 0000
000001a0: 0000 0000 0000 0000 0000 0000 0000 0000
000001b0: 0000 0000 0000 0000 0000 0000 0000 0000
000001c0: 0000 0000 0000 0000 0000 0000 0000 0000
000001d0: 0000 0000 0000 0000 0000 0000 0000 0000
000001e0: 0000 0000 0000 0000 0000 0000 0000 0000
000001f0: 0000 0000 0000 0000 0000 0000 0000 0000

bn2.running_mean f4 [128]
0.0 0.0 0.0 0.0 0.0 0.0 0.0 0.0
0.0 0.0 0.0 0.0 0.0 0.0 0.0 0.0
0.0 0.0 0.0 0.0 0.0 0.0 0.0 0.0
0.0 0.0 0.0 0.0 0.0 0.0 0.0 0.0
0.0 0.0 0.0 0.0 0.0 0.0 0.0 0.0
0.0 0.0 0.0 0.0 0.0 0.0 0.0 0.0
0.0 0.0 0.0 0.0 0.0 0.0 0.0 0.0
0.0 0.0 0.0 0.0 0.0 0.0 0.0 0.0
0.0 0.0 0.0 0.0 0.0 0.0 0.0 0.0
0.0 0.0 0.0 0.0 0.0 0.0 0.0 0.0
0.0 0.0 0.0 0.0 0.0 0.0 0.0 0.0
0.0 0.0 0.0 0.0 0.0 0.0 0.0 0.0
0.0 0.0 0.0 0.0 0.0 0.0 0.0 0.0
0.0 0.0 0.0 0.0 0.0 0.0 0.0 0.0
0.0 0.0 0.0 0.0 0.0 0.0 0.0 0.0
0.0 0.0 0.0 0.0 0.0 0.0 0.0 0.0
00000000: 0000 0000 0000 0000 0000 0000 0000 0000
00000010: 0000 0000 0000 0000 0000 0000 0000 0000
00000020: 0000 0000 0000 0000 0000 0000 0000 0000
00000030: 0000 0000 0000 0000 0000 0000 0000 0000
00000040: 0000 0000 0000 0000 0000 0000 0000 0000
00000050: 0000 0000 0000 0000 0000 0000 0000 0000
00000060: 0000 0000 0000 0000 0000 0000 0000 0000
00000070: 0000 0000 0000 0000 0000 0000 0000 0000
00000080: 0000 0000 0000 0000 0000 0000 0000 0000
00000090: 0000 0000 0000 0000 0000 0000 0000 0000
000000a0: 0000 0000 0000 0000 0000 0000 0000 0000
000000b0: 0000 0000 0000 0000 0000 0000 0000 0000
000000c0: 0000 0000 0000 0000 0000 0000 0000 0000
000000d0: 0000 0000 0000 0000 0000 0000 0000 0000
000000e0: 0000 0000 0000 0000 0000 0000 0000 0000
000000f0: 0000 0000 0000 0000 0000 0000 0000 0000
00000100: 0000 0000 0000 0000 0000 0000 0000 0000
00000110: 0000 0000 0000 0000 0000 0000 0000 0000
00000120: 0000 0000 0000 0000 0000 0000 0000 0000
00000130: 0000 0000 0000 0000 0000 0000 0000 0000
00000140: 0000 0000 0000 0000 0000 0000 0000 0000
00000150: 0000 0000 0000 0000 0000 0000 0000 0000
00000160: 0000 0000 0000 0000 0000 0000 0000 0000
00000170: 0000 0000 0000 0000 0000 0000 0000 0000
00000180: 0000 0000 0000 0000 0000 0000 0000 0000
00000190: 0000 0000 0000 0000 0000 0000 0000 0000
000001a0: 0000 0000 0000 0000 0000 0000 0000 0000
000001b0: 0000 0000 0000 0000 0000 0000 0000 0000
000001c0: 0000 0000 0000 0000 0000 0000 0000 0000
000001d0: 0000 0000 0000 0000 0000 0000 0000 0000
000001e0: 0000 0000 0000 0000 0000 0000 0000 0000
000001f0: 0000 0000 0000 0000 0000 0000 0000 0000

bn2.running_var f4 [128]
1.0 1.0 1.0 1.0 1.0 1.0 1.0 1.0
1.0 1.0 1.0 1.0 1.0 1.0 1.0 1.0
1.0 1.0 1.0 1.0 1.0 1.0 1.0 1.0
1.0 1.0 1.0 1.0 1.0 1.0 1.0 1.0
1.0 1.0 1.0 1.0 1.0 1.0 1.0 1.0
1.0 1.0 1.0 1.0 1.0 1.0 1.0 1.0
1.0 1.0 1.0 1.0 1.0 1.0 1.0 1.0
1.0 1.0 1.0 1.0 1.0 1.0 1.0 1.0
1.0 1.0 1.0 1.0 1.0 1.0 1.0 1.0
1.0 1.0 1.0 1.0 1.0 1.0 1.0 1.0
1.0 1.0 1.0 1.0 1.0 1.0 1.0 1.0
1.0 1.0 1.0 1.0 1.0 1.0 1.0 1.0
1.0 1.0 1.0 1.0 1.0 1.0 1.0 1.0
1.0 1.0 1.0 1.0 1.0 1.0 1.0 1.0
1.0 1.0 1.0 1.0 1.0 1.0 1.0 1.0
1.0 1.0 1.0 1.0 1.0 1.0 1.0 1.0
00000000: 0000 803f 0000 803f 0000 803f 0000 803f
00000010: 0000 803f 0000 803f 0000 803f 0000 803f
00000020: 0000 803f 0000 803f 0000 803f 0000 803f
00000030: 0000 803f 0000 803f 0000 803f 0000 803f
00000040: 0000 803f 0000 803f 0000 803f 0000 803f
00000050: 0000 803f 0000 803f 0000 803f 0000 803f
00000060: 0000 803f 0000 803f 0000 803f 0000 803f
00000070: 0000 803f 0000 803f 0000 803f 0000 803f
00000080: 0000 803f 0000 803f 0000 803f 0000 803f
00000090: 0000 803f 0000 803f 0000 803f 0000 803f
000000a0: 0000 803f 0000 803f 0000 803f 0000 803f
000000b0: 0000 803f 0000 803f 0000 803f 0000 803f
000000c0: 0000 803f 0000 803f 0000 803f 0000 803f
000000d0: 0000 803f 0000 803f 0000 803f 0000 803f
000000e0: 0000 803f 0000 803f 0000 803f 0000 803f
000000f0: 0000 803f 0000 803f 0000 803f 0000 803f
00000100: 0000 803f 0000 803f 0000 803f 0000 803f
00000110: 0000 803f 0000 803f 0000 803f 0000 803f
00000120: 0000 803f 0000 803f 0000 803f 0000 803f
00000130: 0000 803f 0000 803f 0000 803f 0000 803f
00000140: 0000 803f 0000 803f 0000 803f 0000 803f
00000150: 0000 803f 0000 803f 0000 803f 0000 803f
00000160: 0000 803f 0000 803f 0000 803f 0000 803f
00000170: 0000 803f 0000 803f 0000 803f 0000 803f
00000180: 0000 803f 0000 803f 0000 803f 0000 803f
00000190: 0000 803f 0000 803f 0000 803f 0000 803f
000001a0: 0000 803f 0000 803f 0000 803f 0000 803f
000001b0: 0000 803f 0000 803f 0000 803f 0000 803f
000001c0: 0000 803f 0000 803f 0000 803f 0000 803f
000001d0: 0000 803f 0000 803f 0000 803f 0000 803f
000001e0: 0000 803f 0000 803f 0000 803f 0000 803f
000001f0: 0000 803f 0000 803f 0000 803f 0000 803f

V.weight f4 [1, 128]
8.71903 0.05364175 -4.477744 8.307169 8.636906 14.669094 8.725706 -8.075369
-8.627659 -6.7711897 -8.879918 -5.982604 8.592527 1.8889798 -2.1668634 8.7263565
3.470852 1.4693385 8.20613 -2.2008276 8.671356 -5.4945374 -3.508475 -5.7437835
1.1433835 -8.047487 35.634663 18.718319 -1.1954972 8.595102 -9.478643 -8.71821
6.789215 5.035034 2.702806 8.723553 13.826149 8.130978 -8.717041 5.2461376
-7.692651 -2.0988483 -8.692354 -8.723139 10.678315 3.778574 13.791349 8.616627
23.10239 22.13707 -4.5528016 8.305826 -29.374807 -8.38566 -8.518888 8.715446
5.261248 -8.651047 -4.8188696 -9.293362 -8.698332 -7.9490743 9.641047 1.9343556
8.585924 -1.4557885 -2.7578251 -5.8916874 -8.682371 0.73651254 -11.231758 5.594438
-8.729067 8.688141 -6.3796873 4.4615817 6.348193 -8.603922 4.2617993 8.6473465
-8.725983 8.679861 35.32785 8.200989 -8.656553 -11.957247 -8.814644 -4.162739
-8.716885 2.0657916 8.714392 -7.783215 9.712482 -8.722628 3.0659757 -6.2700863
-8.361437 8.688667 3.3992062 8.655775 -8.719978 -7.7324686 13.196419 9.077972
4.941862 -0.8194053 -4.728179 -20.590889 8.6726265 -8.516048 -8.590624 -8.6145
2.7646546 8.585041 8.710514 -8.42581 3.8294969 20.213732 -18.647415 8.567905
-13.652691 -12.363272 8.225666 7.3905563 1.141821 -0.7171242 7.069887 1.4949044
00000000: 2681 0b41 74b7 5b3d ae49 8fc0 2aea 0441
00000010: c430 0a41 9cb4 6a41 7e9c 0b41 b634 01c1
00000020: e40a 0ac1 96ad d8c0 2514 0ec1 7e71 bfc0
00000030: fe7a 0941 17ca f13f e4ad 0ac0 289f 0b41
00000040: 7022 5e40 4913 bc3f 4f4c 0341 5cda 0cc0
00000050: e0bd 0a41 40d3 afc0 db8a 60c0 13cd b7c0
00000060: 645a 923f 82c2 00c1 e589 0e42 1ebf 9541
00000070: 0d06 99bf 8a85 0941 86a8 17c1 ca7d 0bc1
00000080: 4041 d940 001f a140 c6fa 2c40 ac93 0b41
00000090: e837 5d41 7c18 0241 0079 0bc1 5ce0 a740
000000a0: 322a f6c0 8853 06c0 e213 0bc1 fa91 0bc1
000000b0: 61da 2a41 28d4 7140 5ea9 5c41 b4dd 0941
000000c0: b2d1 b841 b818 b141 8db0 91c0 aae4 0441
000000d0: 9bff eac1 aa2b 06c1 5e4d 08c1 7872 0b41
000000e0: 255c a840 b06a 0ac1 2e34 9ac0 9cb1 14c1
000000f0: 5e2c 0bc1 d15e fec0 ba41 1a41 f798 f73f
00000100: f25f 0941 4757 babf 3580 30c0 b488 bcc0
00000110: feea 0ac1 168c 3c3f 48b5 33c1 a305 b340
00000120: 42aa 0bc1 a002 0b41 6626 ccc0 47c5 8e40
00000130: 6624 cb40 aaa9 09c1 a960 8840 885b 0a41
00000140: a09d 0bc1 b6e0 0a41 b84f 0d42 4037 0341
00000150: 3e81 0ac1 e250 3fc1 c808 0dc1 2835 85c0
00000160: 5c78 0bc1 ee35 0440 266e 0b41 1910 f9c0
00000170: 5466 1b41 e28f 0bc1 f238 4440 8ca4 c8c0
00000180: 72c8 05c1 c804 0b41 988c 5940 0e7e 0a41
00000190: 0885 0bc1 6270 f7c0 8824 5341 603f 1141
000001a0: bc23 9e40 8cc4 51bf 3e4d 97c0 24ba a4c1
000001b0: 14c3 0a41 bc41 08c1 3273 09c1 fed4 09c1
000001c0: 1af0 3040 545c 0941 445e 0b41 1ed0 06c1
000001d0: 7a16 7540 b9b5 a141 e82d 95c1 2416 0941
000001e0: 6c71 5ac1 f6cf 45c1 549c 0341 707f ec40
000001f0: 3127 923f 7495 37bf 843c e240 0759 bf3f

mu.weight f4 [1, 128]
-0.2839347 -3.3182187 0.345147 -0.3234275 -0.31165105 -1.7987998 -0.27480042 0.25836086
0.27942514 0.055526663 4.401946 0.16503797 -0.27011436 -1.6186913 0.4255197 -0.2838596
-0.5388412 -2.8635378 2.1362324 0.7372586 -0.3081013 0.44803584 0.040214147 8.9051895
-1.7364737 0.26954788 -5.9169297 -1.9752799 -0.123371884 -0.33057284 1.2240249 0.27727258
0.54071623 -1.0916141 -1.319755 -0.28855425 0.36051434 -0.16887332 0.2751779 8.102754
-2.2552853 0.30541515 0.29846197 0.2813927 0.651719 0.6540434 -4.433034 -0.32649773
17.240253 0.4633236 0.3086856 -0.24675757 0.05651028 0.28204662 0.2628443 -0.33184075
-0.05979177 0.22089796 -1.5399655 0.7671146 0.27906787 0.27446312 0.6184942 -0.4407742
-0.30169868 0.645076 2.8228385 0.6002677 0.26601052 1.5818425 3.7217715 3.0944428
0.27918303 -0.28475052 0.16021793 -0.16556357 -15.413647 0.2869441 -2.3845043 -0.31064194
0.30947685 -0.3066253 2.083084 -0.34558457 0.29947788 1.2411171 0.7210484 -1.8836571
0.27923328 -0.29304636 -0.2723146 0.0056310953 0.030673916 0.28721762 0.73998266 -0.073464766
0.35590523 -0.27646106 -0.96196586 -0.25198838 0.26440004 0.035056796 -0.0120337065 -0.15860446
-1.3798658 0.19070767 -1.9380723 -0.5145528 -0.28444302 0.28951585 0.3134277 0.27124304
0.2606644 -0.25774547 -0.28207517 0.3188566 -0.12404122 3.1918912 1.180633 -0.19655491
-0.9803186 0.869816 -0.39598536 0.16175936 0.026170433 -0.06624697 0.12053396 -0.29205805
00000000: e45f 91be b25d 54c0 1cb7 b03e 4a98 a5be
00000010: ba90 9fbe 123f e6bf a4b2 8cbe e047 843e
00000020: d010 8f3e ed6f 633d bedc 8c40 b7ff 283e
00000030: 6e4c 8abe 4731 cfbf b8dd d93e 0c56 91be
00000040: 7ff1 09bf 3444 37c0 08b8 0840 fbbc 3c3f
00000050: 74bf 9dbe f464 e53e 97b7 243d a87b 0e41
00000060: c544 debf 2e02 8a3e 7d57 bdc0 f9d5 fcbf
00000070: 66aa fcbd d840 a9be d9ac 9c3f acf6 8d3e
00000080: 616c 0a3f 03ba 8bbf bbed a8bf 62bd 93be
00000090: 5695 b83e 21ed 2cbe 1ee4 8c3e e1a4 0141
000000a0: 9856 10c0 605f 9c3e 02d0 983e b412 903e
000000b0: 0ed7 263f 636f 273f 6adb 8dc0 b62a a7be
000000c0: 0aec 8941 c038 ed3e 0a0c 9e3e 04ae 7cbe
000000d0: 5377 673d 6a68 903e 8793 863e 08e7 a9be
000000e0: 37e8 74bd 1333 623e 971d c5bf 9f61 443f
000000f0: fce1 8e3e 6e86 8c3e a355 1e3f 28ad e1be
00000100: 4078 9abe b323 253f 63a9 3440 25ab 193f
00000110: 8832 883e d179 ca3f 8131 6e40 5a0b 4640
00000120: 14f1 8e3e d2ca 91be 2b10 243e 7f89 29be
00000130: 4c9e 76c1 56ea 923e b89b 18c0 760c 9fbe
00000140: c073 9e3e fefd 9cbe 4051 0540 76f0 b0be
00000150: 2a55 993e eddc 9e3f a196 383f ad1b f1bf
00000160: aaf7 8e3e 2c0a 96be d26c 8bbe 0d85 b83b
00000170: dd47 fb3c 300e 933e 816f 3d3f b274 96bd
00000180: 3639 b63e 4e8c 8dbe 6543 76bf 9f04 81be
00000190: 715f 873e b797 0f3d 0629 45bc 3569 22be
000001a0: 719f b0bf df48 433e c112 f8bf bbb9 03bf
000001b0: 84a2 91be 6c3b 943e 9879 a03e 5ee0 8a3e
000001c0: ce75 853e 37f7 83be 286c 90be 2c41 a33e
000001d0: 5309 febd f247 4c40 fb1e 973f b145 49be
000001e0: 29f6 7abf 43ac 5e3f 98be cabe 3fa4 253e
000001f0: 6063 d63c 7eac 87bd 82da f63d a288 95be

L.weight f4 [1, 128]
0.12290488 -0.5696608 -0.057611655 0.15946825 0.12768786 -0.20203722 0.13137658 -0.038046923
-0.12878655 0.026397021 -0.16457194 0.117815234 0.11294981 0.10834696 -0.05680151 0.13170518
-0.074806966 0.09725446 0.38924986 -0.07342587 0.07829537 -0.21709742 -0.3600878 -0.53714335
0.20148228 0.07604452 0.5843878 0.19014017 -0.27973533 0.11689823 -0.14141656 -0.13980706
0.11391055 0.10183611 -0.023467923 0.1348582 0.18602668 -0.075938545 -0.13527484 -0.20465878
-0.07928031 -0.09100933 -0.1317011 -0.13611142 0.18282324 -0.010799555 0.0747327 0.1053245
0.17189175 0.15387258 0.6188126 -0.08283041 -0.18987904 -0.10125854 -0.04389322 0.15926899
0.26457176 -0.14489524 -0.40590066 -0.026691398 -0.12836401 0.100705855 0.16896217 0.31253868
0.1593137 0.007066313 -0.012590853 0.02041406 0.008171262 0.14543472 -0.19202355 -0.20383166
-0.13110642 0.116900615 -0.12314603 0.1110074 -0.013818078 -0.10094523 0.06600189 0.11577704
-0.14857154 0.100793384 0.26827103 -0.13914822 -0.09301842 -0.15763299 -0.12921028 -0.10942877
-0.13449262 -0.06423111 0.13245879 -0.038591888 0.20837413 -0.1293573 -0.018266633 0.0390757
-0.117243566 0.16249682 0.004751388 0.1164012 -0.13440473 -0.22126524 0.07211613 -0.029484019
-0.10972158 0.03539556 -0.0678991 -0.13612424 0.1186795 -0.13761498 -0.075729065 -0.14863841
0.2215416 0.05038322 0.12582758 -0.047431048 -0.14973418 0.25923812 -0.17457984 -0.09940743
-0.051559087 -0.18158017 -0.057541844 -0.088832386 -0.019345058 -0.037901226 0.07565377 0.019839836
00000000: 8eb5 fb3d 4ad5 11bf 33fa 6bbd a54b 233e
00000010: 9bc0 023e d8e2 4ebe 9587 063e 17d7 1bbd
00000020: 9fe0 03be 913e d83c 8c85 28be 1d49 f13d
00000030: 3b52 e73d 03e5 dd3d b3a8 68bd b9dd 063e
00000040: 6534 99bd 592d c73d c24b c73e 4d60 96bd
00000050: 5359 a03d c94e 5ebe 6e5d b8be 3a82 09bf
00000060: 5f51 4e3e 3bbd 9b3d 709a 153f 1bb4 423e
00000070: 7839 8fbe 5768 ef3d 81cf 10be 9529 0fbe
00000080: ef49 e93d 738f d03d cd3f c0bc 4518 0a3e
00000090: c77d 3e3e ab85 9bbd 7d85 0abe 1292 51be
000000a0: b75d a2bd 1963 babd a7dc 06be cb60 0bbe
000000b0: 0436 3b3e 9ef0 30bc 750d 993d 5fb4 d73d
000000c0: 6404 303e c690 1d3e 816a 1e3f fda2 a9bd
000000d0: a76f 42be a360 cfbd 61c9 33bd 6917 233e
000000e0: f375 873e 6b5f 14be 36d2 cfbe eba7 dabc
000000f0: db71 03be df3e ce3d 6b04 2d3e 1205 a03e
00000100: 2123 233e 888c e73b dd49 4ebc 633b a73c
00000110: c2e0 053c d7ec 143e d2a1 44be 3fb9 50be
00000120: c340 06be 9769 ef3d fc33 fcbd d957 e33d
00000130: 3865 62bc 5fbc cebd 002c 873d 831c ed3d
00000140: 2323 18be c36c ce3d d25a 893e df7c 0ebe
00000150: 7180 bebd 8b6a 21be b34f 04be 311c e0bd
00000160: 6fb8 09be 9a8b 83bd 47a3 073e 8712 1ebd
00000170: 0760 553e 3d76 04be e8a3 95bc d70d 203d
00000180: 651d f0bd 9165 263e 88b1 9b3b c163 ee3d
00000190: 65a1 09be 5b93 62be 9fb1 933d 7888 f1bc
000001a0: b5b5 e0bd effa 103d af0e 8bbd 2764 0bbe
000001b0: 3d0e f33d f1ea 0cbe d717 9bbd ab34 18be
000001c0: cddb 623e a35e 4e3d f2d8 003e 0f47 42bd
000001d0: eb53 19be dcba 843e 0fc5 32be 1f96 cbbd
000001e0: 9f2f 53bd 27f0 39be ffb0 6bbd c1ed b5bd
000001f0: 8779 9ebc 513e 1bbd 5df0 9a3d 2787 a23c
